model/bert_dnn_3.model (torch, 4854 bytes, 1 tensors)

weight f4 [1, 768]
-0.03628695 -0.09313822 0.04509198 -0.024320561 0.013514424 -0.0027619726 0.0013357496 0.024873957
-0.03488765 0.018567339 0.038635004 -0.01784603 -0.002916166 -0.033838566 -0.002221432 0.016570853
0.0010798024 0.030098421 -0.041488737 0.024026303 -0.02372563 0.00040155876 -0.010613216 0.003980016
-0.002795875 0.012010188 -0.022019763 -0.14114305 0.03801269 0.02704424 0.03814044 0.023220219
0.01801571 0.04728738 -0.065582894 -0.10077407 -0.060844146 0.10986687 0.034783825 0.019121917
-0.071691364 -0.033599865 -0.033789285 0.02406523 0.008527318 0.0563301 -0.020939965 -0.054683764
-0.10003511 0.0015380527 0.085529156 0.01882841 0.0069969716 -0.11763136 0.0040851026 0.068272896
0.1026678 0.008762457 0.11030461 -0.014751746 0.12792972 -0.034449395 -0.04866829 -0.0061044963
0.08506546 -0.06996802 -0.029834514 0.044305068 0.016819458 -0.05027541 -0.07157771 -0.06783549
0.019987298 0.019840972 0.064764775 -0.055211205 -0.047071047 -0.058179818 0.01744102 0.09295187
0.033114687 -0.011077428 -0.019773662 0.12479032 -0.014469876 -0.046944734 -0.02787464 0.0069714524
0.041162472 -0.04398431 0.095930435 0.012000647 0.030623144 0.0496416 0.013915639 -0.010823699
0.040383656 0.0626901 -0.007596962 -0.03245832 0.033489313 -0.014597577 -0.042286213 -0.028299972
-0.025481416 0.05045697 0.052071873 -0.05345744 -0.02033536 0.006751618 0.057857018 0.04767108
-0.0022881725 -0.03020793 0.04573893 0.03055872 0.022701172 -0.0115763955 0.026270952 0.035065114
0.07130334 -0.03572368 0.047159657 -0.050155323 0.039848268 0.017848825 0.040345732 0.071888834
0.030122135 0.008188091 -0.03026169 0.027340043 0.031150784 0.077085756 0.024696518 0.10546951
-0.09990417 0.009122088 -0.010157801 0.02753735 -0.062759995 0.035616025 -0.021329584 -0.11736187
-0.037012484 -0.059312977 0.027335728 -0.0032906274 0.09143924 0.043506775 -0.015328122 0.019630129
-0.008659027 0.07627814 -0.08689692 -0.010916419 -0.0077462797 0.033036806 0.021407897 -0.0062563266
-0.008170919 -0.016231302 0.037401766 0.01323308 -0.00451996 0.11060333 -0.012413934 -0.006787277
0.025305063 0.07495551 0.07127042 0.004946573 -0.08979409 -0.0009175781 0.022993403 0.07396982
0.11920478 0.018066572 -0.01231664 0.05199228 0.052738782 0.011813808 -0.0019269428 0.090952955
0.05868092 0.05299775 -0.024136975 -0.08835232 0.031311043 0.0002883549 -0.05866029 0.0032577056
-0.01501609 0.037419673 -0.09971143 0.027212078 0.06628571 0.006693965 0.06603022 0.022694668
-0.01568546 0.06983807 0.004202529 -0.045963712 -0.08802892 0.028446991 -0.020751331 -0.023159713
-0.0010061982 -0.10245468 0.032347664 0.07072575 0.008203674 0.03313674 -0.03578738 0.060029842
0.039462738 -0.03283031 0.02506184 -0.011635089 -0.003265874 -0.03614104 -0.09597443 0.020078676
-0.01767783 0.05454067 -0.049277496 -0.002406232 -0.03621669 0.046864137 -0.0020784216 -0.048104357
0.0930173 -0.034852568 -0.053889148 0.061347138 -0.08415002 0.034606002 -0.020494977 0.018171225
-0.01333777 0.13081054 0.035475165 -0.038097087 -0.02931954 -0.0041336906 0.024988122 -0.063686155
-0.004089172 0.04413358 -0.027920147 0.035582278 -0.10994317 0.043173734 -0.010421221 -0.08135081
00000000: a0a1 14bd 40bf bebd 5eb2 383d ea3b c7bc
00000010: 9a6b 5d3c 3602 35bb 5214 af3a 78c4 cb3c
00000020: 5ae6 0ebd 881a 983c bd3f 1e3d d631 92bc
00000030: 261d 3fbb 4f9a 0abd 7295 11bb 99bf 873c
00000040: 2888 8d3a f790 f63c 18f0 29bd cfd2 c43c
00000050: 415c c2bc 4e88 d239 0ee3 2dbc cb6a 823b
00000060: 003b 37bb 61c6 443c ca62 b4bc ce87 10be
00000070: 32b3 1b3d e28b dd3c 2639 1c3d 5438 be3c
00000080: af95 933c 69b0 413d 5350 86bd a362 cebd
00000090: b637 79bd e201 e13d 7c79 0e3d 91a5 9c3c
000000a0: ecd2 92bd 03a0 09bd a266 0abd 7224 c53c
000000b0: 2ab6 0b3c 64ba 663d 4a8a abbc 15fc 5fbd
000000c0: 35df ccbd 7c98 c93a e929 af3d 0a3e 9a3c
000000d0: da46 e53b b6e8 f0bd 53dc 853b a9d2 8b3d
000000e0: 7f43 d23d 6990 0f3c 62e7 e13d 4fb1 71bc
000000f0: 0200 033e cf1a 0dbd 6758 47bd 3a08 c8bb
00000100: cd36 ae3d 654b 8fbd 8367 f4bc 3b79 353d
00000110: f6c8 893c 97ed 4dbd 5697 92bd 55ed 8abd
00000120: 67bc a33c 8989 a23c 65a3 843d 2525 62bd
00000130: 92cd 40bd f64d 6ebd 78e0 8e3c 8d5d be3d
00000140: 44a3 073d 1a7e 35bc 60fc a1bc 1192 ff3d
00000150: 0f13 6dbc 1f49 40bd 5b59 e4bc c870 e43b
00000160: fb99 283d e428 34bd 2d77 c43d 5d9e 443c
00000170: 63dd fa3c fe54 4b3d 6cfe 633c e255 31bc
00000180: 5569 253d ab63 803d f0ef f8bb 04f3 04bd
00000190: 172c 093d ad2a 6fbc 4f34 2dbd 58d5 e7bc
000001a0: 67be d0bc f8ab 4e3d 5149 553d 30f6 5abd
000001b0: 5796 a6bc ad3c dd3b 7bfb 6c3d c042 433d
000001c0: 2af5 15bb 9f76 f7bc bf58 3b3d 4856 fa3c
000001d0: cff7 b93c ecaa 3dbc 2e36 d73c 70a0 0f3d
000001e0: 7c07 923d fe52 12bd 7c2a 413d ab6f 4dbd
000001f0: f037 233d b337 923c 9141 253d 743a 933d
00000200: b2c2 f63c 5827 063c 5de7 f7bc 3af8 df3c
00000210: ee2f ff3c 23df 9d3d 5a50 ca3c 6600 d83d
00000220: 8f9a ccbd cf74 153c e86c 26bc 0296 e13c
00000230: 5088 80bd 1ce2 113d 61bb aebc 6c5b f0bd
00000240: 679a 17bd 2af2 72bd 2def df3c 91a7 57bb
00000250: 7f44 bb3d 2934 323d ce22 7bbc 5dcf a03c
00000260: 97de 0dbc b737 9c3d 03f7 b1bd c8da 32bc
00000270: 81d4 fdbb 9a51 073d 9d5f af3c df01 cdbb
00000280: 51df 05bc 82f7 84bc 9832 193d 8fcf 583c
00000290: 2c1c 94bb 0084 e23d d063 4bbc ce67 debb
000002a0: 904c cf3c 4682 993d 3af6 913d dd16 a23b
000002b0: f7e5 b7bd a089 70ba a95c bc3c 7d7d 973d
000002c0: a321 f43d 5900 943c bbcb 49bc dbf5 543d
000002d0: 9f04 583d b48e 413c 7991 fcba 8b45 ba3d
000002e0: 685b 703d 2b14 593d e8ba c5bc 10f2 b4bd
000002f0: 0240 003d 572e 9739 c645 70bd 3b7f 553b
00000300: 0c06 76bc 5f45 193d 8235 ccbd ddeb de3c
00000310: cdc0 873d 0c59 db3b da3a 873d 2bea b93c
00000320: cb7e 80bc 4307 8f3d 5eb5 893b 7244 3cbd
00000330: 8248 b4bd aa09 e93c b2fe a9bc 70b9 bdbc
00000340: 69e2 83ba c2d3 d1bd fc7e 043d a9d8 903d
00000350: b468 063c 64ba 073d ca95 12bd dae1 753d
00000360: aea3 213d 1379 06bd 7d4e cd3c 1aa1 3ebc
00000370: 4608 56bb a108 14bd 3e8e c4bd 097c a43c
00000380: 19d1 90bc 0a66 5f3d 33d7 49bd e0b1 1dbb
00000390: f457 14bd 9cf4 3f3d 2136 08bb 1309 45bd
000003a0: db7f be3d 91c1 0ebd deba 5cbd 2347 7b3d
000003b0: d856 acbd 06bf 0d3d 15e5 a7bc d2db 943c
000003c0: a986 5abc 33f3 053e 684e 113d b10b 1cbd
000003d0: 882f f0bc e973 87bb e4b3 cc3c e36d 82bd
000003e0: 76fe 85bb 6ac5 343d cbb8 e4bc b9be 113d
000003f0: e229 e1bd f1d6 303d c5bd 2abc 419b a6bd
