model/bert_dnn_10.model (torch, 4854 bytes, 1 tensors)

weight f4 [1, 768]
000000 2b 32 40 bd e6 83 01 be 72 c1 21 3d 7c f8 39 bd
       -0.046922844 -0.12647972 0.039491124 -0.04540299
000010 26 53 ba bb 53 11 93 bc 3c 18 a8 bc ff f8 a9 3c
       -0.0056861816 -0.017952597 -0.020519368 0.020748613
000020 0c 24 12 bd 7f 75 c4 3c 8c 42 82 3d 2e 25 0b bd
       -0.03567891 0.023981808 0.06360349 -0.033971004
000030 88 14 7e bd 2f 11 47 bd 8d 7d 2c bc 3a b5 f5 3c
       -0.0620313 -0.048600372 -0.0105279805 0.029993642
000040 20 25 ab 3c e7 e4 04 3d 5b bc 7e bc 1e e5 5f 3a
       0.020891726 0.03244486 -0.015547837 0.0008540916
000050 16 3e 7e bd 7e d9 d5 3c e0 00 e6 3c b3 18 16 bb
       -0.06207093 0.026104685 0.02807659 -0.0022902905
000060 bd 30 ac 3a dd 57 02 3d 12 e7 9f bb 63 e7 2b be
       0.0013137084 0.031822074 -0.0048798406 -0.16787486
000070 26 f9 31 3d fc e7 ba 3c 4b fa dc 3c ea ad d4 3c
       0.043450497 0.022815697 0.026974818 0.025961835
000080 2e 70 91 bc 7f 44 92 3d 0e 2d f5 bd 63 e8 3e be
       -0.017753687 0.07141971 -0.11971484 -0.18643336
000090 28 e3 5c bd a4 6e 33 3e eb 6e 47 3d a7 af 89 3c
       -0.05392757 0.17522675 0.048689764 0.01680739
0000a0 74 29 b9 bd 8b 4b e5 bc 98 34 b5 bc b3 2a 03 3d
       -0.0904111 -0.027990123 -0.022119805 0.032023143
0000b0 17 34 a6 bc a6 76 3b 3d 0a ae 83 bc 22 1d a2 bd
       -0.02028851 0.04576745 -0.0160742 -0.07915713
0000c0 d5 de 2b be ac 8f f8 3c 3b d3 08 3e d0 f7 92 3c
       -0.16784222 0.030341946 0.13361828 0.017940432
0000d0 73 36 26 3c a0 9f 68 be 49 5e 0f bc af f4 c5 3d
       0.010144818 -0.22717142 -0.008750507 0.0966581
0000e0 0f f4 11 3e f0 e1 8a 3c fb fb 1c 3e 34 58 01 bd
       0.14253257 0.016953439 0.15330498 -0.031578258
0000f0 a5 57 3a 3e 6a a8 24 bd da 75 4d bd 6b 21 41 bc
       0.18197496 -0.040199675 -0.05016122 -0.011787753
000100 9e e1 83 3d 19 c2 3a bd 0d 70 01 bd 48 0c ab 3d
       0.064395174 -0.045595262 -0.031601 0.08351952
000110 3c c9 c2 3c 41 93 4d bd 8e cd b0 bd e4 7e c3 bd
       0.023777597 -0.05018926 -0.086329564 -0.09545687
000120 ed f8 80 3c 65 ed db 3c e2 5a ac 3d 0c 1d 9b bd
       0.015743697 0.026846597 0.08415772 -0.075738996
000130 c8 9c 5a bd 19 d3 97 bd 5a 01 23 3d c3 c6 08 3e
       -0.053372175 -0.074133106 0.03979621 0.13357072
000140 6c 4a f7 3c fd 17 fa bb ee 91 ce bc 06 d5 2f 3e
       0.030186854 -0.007632254 -0.02521607 0.17171106
000150 6e 5e 03 bd 43 d9 ac bd be af 2c bd 15 71 b7 3b
       -0.032072477 -0.08439877 -0.04215979 0.005598197
000160 53 8f e9 3c f9 13 6d bd 5d 38 32 3e c8 ff 18 3c
       0.028510725 -0.057880376 0.17404313 0.009338327
000170 41 44 15 3d e9 39 6b 3d e8 87 77 3b bc bd 50 bd
       0.036442045 0.057428274 0.0037770215 -0.050962195
000180 e7 34 3b 3d d1 11 81 3d 38 a3 a7 3c d1 96 c0 bc
       0.04570475 0.06302226 0.020463571 -0.023509415
000190 42 9e 92 3d 00 95 19 bc 13 97 36 bd 1f 6a 31 bd
       0.071590915 -0.009373903 -0.04457767 -0.043314096
0001a0 ff 04 76 bc 51 9c 26 3d 39 2e 19 3d 53 1a 0c bd
       -0.01501584 0.04067642 0.037397597 -0.034204792
0001b0 ea 76 1a bd ac 4c 71 3c ac 5f ae 3d 82 03 2e 3d
       -0.03771106 0.014727753 0.08514342 0.042483814
0001c0 bc 45 3f 3c 71 eb 13 bd bb 55 1e 3c d9 bb 6f 3d
       0.011674341 -0.036113206 0.009663994 0.058528755
0001d0 38 a4 8a 3b 8d e5 d4 bc 4c 3c 1c 3d 7a 87 87 3d
       0.004231002 -0.025988365 0.03814344 0.06617637
0001e0 ed ee ce 3d 96 5a 24 bd a7 74 47 3d d4 0c 68 bd
       0.10104165 -0.040125452 0.048695233 -0.05665286
0001f0 98 03 92 3d 98 b6 88 3c 7b 7e 01 3d 97 26 d0 3d
       0.07129592 0.01668863 0.03161476 0.101636104
000200 96 b1 02 3d 41 a2 a8 bc c7 59 ca bc ed b0 4a 3c
       0.03190764 -0.020585181 -0.024701012 0.012371284
000210 94 9a de 3c d7 a2 e8 3d 1d 20 d2 3c 29 82 02 3e
       0.027173318 0.11359184 0.025650078 0.12744965
000220 4b ce 13 be a6 78 d1 3b 74 f5 2f bc 5b 90 37 3d
       -0.14434163 0.0063925562 -0.010739673 0.044815402
000230 36 2f e6 bd 1a f8 9b 3c 0d a3 49 bd b2 0f 1e be
       -0.112394735 0.019039202 -0.049227763 -0.15435675
000240 57 98 1b bd e3 b7 88 bd f9 b6 8c bb e3 59 5a 3c
       -0.03798708 -0.066756986 -0.004294273 0.013327095
000250 e1 0c 14 3e 73 60 82 3d 0d 1c ae bc d9 e5 11 3d
       0.14458038 0.063660525 -0.02125361 0.03561959
000260 93 3f ac bc 6d 7c d9 3d 65 aa 97 bd 75 07 e6 3b
       -0.021026408 0.106194355 -0.07405547 0.007019932
000270 51 00 1f 3d f0 50 12 3d 57 dc fe 3c 5e 7d 39 bc
       0.03881866 0.03572172 0.031110926 -0.011321394
000280 89 a2 81 3c 64 3b 1a bd 50 6c 50 3d 2f aa 8a bb
       0.015824573 -0.037654296 0.050884545 -0.0042317132
000290 33 e0 10 bd f3 b4 14 3e a5 27 f6 bc e6 85 09 3d
       -0.035370063 0.14522152 -0.0300482 0.03357496
0002a0 9b 02 39 3d 0f 88 53 3d 66 b4 19 3e 3f 4c 08 3d
       0.0451685 0.051643427 0.15010223 0.03327584
0002b0 89 ad bc bd 37 da 37 bc f6 d4 19 3d df a2 a0 3d
       -0.09212787 -0.01122146 0.03755661 0.07843565
0002c0 f7 d0 1b 3e 18 a3 49 3c a8 c8 58 bc c6 bb 79 3d
       0.15216433 0.012306951 -0.013231434 0.06097009
0002d0 8a f8 1d 3d 16 7c 67 3c 7e b9 1e bc 15 18 f3 3d
       0.038567103 0.0141287055 -0.0096877795 0.11869828
0002e0 10 8c 43 3d a2 07 86 3d fa eb 6a bd bf fe cb bd
       0.047740996 0.065444246 -0.05735395 -0.09960698
0002f0 49 6d 26 3d 85 19 25 3c 53 47 bb bd 03 0f 5a 3c
       0.040631566 0.010076885 -0.091444634 0.013309243
000300 39 90 8e bc 4f 77 d7 3c 22 ac 0a be 04 55 bc 3d
       -0.017402755 0.026302008 -0.13542226 0.09195903
000310 cb 1f 92 3d c0 53 f4 bc f4 7f d7 3d 05 e8 b4 3c
       0.0713497 -0.029825091 0.10522452 0.022083292
000320 57 b5 55 bc d1 7e bd 3d 8f 6c 7b 3c 29 77 a0 3b
       -0.013043723 0.09252704 0.015345707 0.0048970175
000330 5e 04 f4 bd 4e 0b a8 3c 36 ab 99 bb fd 59 d0 bc
       -0.119148955 0.020513203 -0.0046895994 -0.025433535
000340 4a b4 59 3d 27 83 e5 bd a8 9a 94 3d 64 14 a6 3d
       0.053150453 -0.11206656 0.07256061 0.08109358
000350 fa 6c 52 3b f1 a0 4e 3d 94 a2 15 bd 96 d4 87 3d
       0.0032108412 0.050446454 -0.036532 0.066323444
000360 07 d3 31 3c f8 8d 17 bc 1e 65 69 3d d4 42 10 3b
       0.0108535355 -0.009250157 0.0569812 0.002201249
000370 d2 78 bd 3a 3b 46 19 bd ca 1d 15 be eb 06 94 3d
       0.0014455563 -0.037420493 -0.14562145 0.07227882
000380 0c d8 9a 3b 22 ff 95 3d cc e6 3e bd fe 1b 38 bc
       0.004725462 0.07324053 -0.046606824 -0.011237143
000390 39 28 0b bd d4 dd 4a 3d 97 07 af 3b 96 e4 54 bd
       -0.033973906 0.049527958 0.005341481 -0.05197581
0003a0 7b ea 03 3e e0 8d 8f bd e1 f6 77 bd 4b df 6b 3d
       0.12882416 -0.070094824 -0.060538176 0.057585996
0003b0 06 29 d5 bd 39 e3 07 3d b7 41 71 bc 16 ee 31 3c
       -0.10408215 0.03317568 -0.01472514 0.010859987
0003c0 9f 97 91 bc 7c 50 34 3e 48 e2 04 3d ac 5a 42 bd
       -0.017772494 0.17608827 0.03244236 -0.047449753
0003d0 a1 12 4b bd d5 01 2c 3a 81 20 26 3d 26 9b 55 bd
       -0.049578313 0.0006561552 0.040558342 -0.052149914
0003e0 4b 36 eb bc 76 95 ca 3c 4b f3 c0 bc bd 07 7c 3d
       -0.028712412 0.024729472 -0.023553511 0.061530817
0003f0 ed b3 01 be a1 01 01 3d 97 c7 63 bd d6 11 c8 bd
       -0.12666292 0.031495694 -0.055610266 -0.09769027
