model/bert_dnn_1.model (torch, 4854 bytes, 1 tensors)

weight f4 [1, 768]
000000 46 a1 ca bc ed 3a 84 bd 0a f5 3f 3d 0b f9 17 bc
       -0.024735104 -0.06456552 0.046864547 -0.009275685
000010 c0 c3 a9 3c 1c 7f 28 3c 0c 61 b8 3c 47 d4 92 3c
       0.020723224 0.0102842115 0.022507213 0.017923487
000020 3e f4 ca bc e8 86 a1 3b 24 c4 9a 3a 44 4f 3b bc
       -0.024774667 0.004929412 0.0011807722 -0.011432473
000030 59 6e 5d 3c 0b c5 aa bc b4 9f 2a 3a 52 ff 14 3c
       0.013515078 -0.02084591 0.0006508783 0.009094076
000040 9d 0e 2d bc a5 c4 ba 3c 15 1e 28 bd 92 7c fb 3c
       -0.010562566 0.022798846 -0.041044313 0.030699048
000050 f0 b1 5b 3c 84 b7 93 bc ae ee 1b bd d3 5b f9 3b
       0.013409123 -0.018031843 -0.03806942 0.0076098233
000060 f8 48 f0 ba a9 a5 ef ba d6 36 ce bc 20 a3 c6 bd
       -0.0018332293 -0.0018283624 -0.025172632 -0.096990824
000070 b2 c9 0f 3d 55 fc 49 3c 67 76 05 3d 04 0f 87 3c
       0.03510446 0.012328227 0.03258362 0.016486652
000080 5d 31 1d 3d e1 95 9e 3c 55 3e d4 bc 77 36 03 bd
       0.038377155 0.019358577 -0.025908628 -0.032034364
000090 38 a4 4f bd 37 a1 40 3d 06 63 e0 3c 3b 0f 6f 3c
       -0.05069372 0.047028746 0.027390968 0.014591034
0000a0 79 ec 22 bd 1a 75 0a bd 02 d0 2d bd 23 7e 43 3c
       -0.0397763 -0.033803083 -0.0424347 0.011931929
0000b0 35 94 a1 3c e6 ad 60 3d 7b d8 a0 bc fa 4a 2d bd
       0.019723991 0.054853342 -0.019634476 -0.04230783
0000c0 1e 82 41 bd 4b 97 e6 ba d4 83 11 3d 7e 9d 9b 3c
       -0.04724323 -0.0017592696 0.03552611 0.018995997
0000d0 13 ad c7 bb db 3f 43 bd 99 ea 28 3c 2c f8 40 3d
       -0.00609363 -0.04766832 0.010309839 0.047111675
0000e0 29 fc 96 3d b8 81 d5 3a ea 81 81 3d b0 c1 b0 39
       0.073723145 0.001628927 0.06323607 0.00033713644
0000f0 0f 93 96 3d 27 45 de bc b6 33 f4 bc ca 8c 43 bc
       0.07352268 -0.027132584 -0.029809814 -0.011935422
000100 63 a4 9e 3d 49 ef 5a bd 5f 65 10 bd 09 51 73 3c
       0.07746198 -0.053450856 -0.035252925 0.014850863
000110 d6 86 72 3c ea 35 37 bd dc 48 51 bd dd 8a 24 bd
       0.014802655 -0.04472915 -0.051094875 -0.040171493
000120 08 f6 98 3c 16 dd 0b 3c 24 37 2c 3d ce 21 0c bd
       0.018672004 0.008536598 0.042044774 -0.034211926
000130 20 e2 34 bc 1d 80 13 bd 94 45 08 3b a2 a4 63 3d
       -0.0110402405 -0.03601085 0.0020793425 0.055576928
000140 58 68 0d 3d 48 56 84 bc bf c2 71 bb 79 53 9e 3d
       0.034523338 -0.016154423 -0.003688976 0.07730765
000150 aa 28 72 bb b5 7c ae bc 9e 02 44 bc d5 58 f3 3b
       -0.0036950507 -0.0212997 -0.011963515 0.007426361
000160 ee 91 25 3d bf b8 eb bc 1b 48 06 3d 72 c9 07 3c
       0.040422373 -0.028774617 0.03278361 0.008287774
000170 74 4b 00 3d d0 83 0c 3d 1e 8e c3 3c 72 f6 2d 3c
       0.031321958 0.034305394 0.023871478 0.010617839
000180 7c 9b f4 3c bb 19 3b 3d 48 d8 85 bc 7e 4f 15 bd
       0.029859297 0.045678835 -0.016338482 -0.036452763
000190 5d 89 cc 3b 7d 7e 72 bc 24 1f 03 bd 7d 84 54 bc
       0.006241961 -0.014800665 -0.03201212 -0.012971041
0001a0 5e cb fe bc 9a 76 2c 3d c9 fd 63 3d fe 08 5a bd
       -0.031102832 0.042105295 0.05566195 -0.053231232
0001b0 8e a9 a1 bc a8 79 95 bb 99 d0 04 3d 29 d9 10 3d
       -0.01973417 -0.0045616217 0.032425497 0.03536335
0001c0 ef 1c d7 3b 64 78 ff bc 84 b0 7d 3d 97 9d 1f 3a
       0.0065647285 -0.031185336 0.061935917 0.00060888514
0001d0 8e 42 0b 3d 42 e6 3f 3b de 8b 97 3c a4 37 ad 3b
       0.03399902 0.0029281531 0.018499311 0.005286174
0001e0 c2 a0 4a 3d 1d 00 e1 bc cd 60 0c 3d e7 32 05 bd
       0.049469717 -0.027465874 0.034272004 -0.032519247
0001f0 1b ed 9b 3c 85 53 d6 3c 65 4b 36 3d f8 51 32 3d
       0.01903396 0.026162872 0.044505496 0.043535203
000200 84 e2 dc 3c d9 a8 23 3c a3 13 ef bc 99 ab 11 3d
       0.02696348 0.009988987 -0.029184168 0.03556404
000210 25 13 38 3c 79 b7 13 3d 21 2c c0 3c 99 ca 89 3d
       0.011235033 0.036063645 0.023458542 0.067280956
000220 50 e3 4d bd e8 33 1a 3c b5 62 31 bc be 85 0e 3c
       -0.05026561 0.0094117895 -0.010826756 0.008698879
000230 f4 a2 c4 bc 7a f9 1d 3d 7c dc 65 bb 9b c9 a0 bd
       -0.024003483 0.038567998 -0.0035074046 -0.07850953
000240 93 ff 15 bd 4f 35 22 bd 43 bb 27 3d b7 4a 09 bc
       -0.036620688 -0.03960162 0.04095007 -0.00837963
000250 ff f4 4b 3d 8e 6f 19 3d 3b ba 77 ba 0e b4 27 3c
       0.049794193 0.037459902 -0.0009450053 0.0102357995
000260 70 5a a7 bb ef c9 3e 3d c3 8f 8a bd a0 b0 a6 bc
       -0.0051072165 0.046579298 -0.067657016 -0.020347893
000270 a7 7d c8 bc a1 f1 c6 3c 6f 45 c8 3b a8 cb a6 bb
       -0.024473978 0.02428514 0.0061117928 -0.0050901957
000280 ba 95 84 bc 95 97 71 ba 90 fb 0e 3d 67 02 4f 3c
       -0.016184676 -0.0009216008 0.034907877 0.01263485
000290 4b ea 04 3c e8 b5 9a 3d 1b 51 96 bb eb 4a 96 bc
       0.0081125 0.07554227 -0.0045873052 -0.01834627
0002a0 f9 70 3e 3c 64 54 7a 3d 98 a6 a3 3c 52 40 1d bc
       0.0116236145 0.061115637 0.019976899 -0.009597855
0002b0 56 c7 85 bd a4 31 55 3c 55 3b 17 ba 51 59 79 3d
       -0.06532161 0.0130123235 -0.0005769034 0.060876194
0002c0 a3 76 a4 3d 13 cc b4 3c 27 ce 98 bc 4f da 24 3d
       0.08030441 0.022069966 -0.018652989 0.040247258
0002d0 61 36 62 3d a8 7b 4e 3c c1 9c 28 bb 29 3b 80 3d
       0.05522764 0.012602724 -0.0025728198 0.06261284
0002e0 fc 78 65 3d 29 ad 21 3d 3e 37 05 bc 17 dc 49 bd
       0.056023583 0.03947178 -0.008130847 -0.04928216
0002f0 00 04 e8 3c 44 1f bf bb ec fe d9 bc ae 0a 9b 3a
       0.02832222 -0.0058325846 -0.026610814 0.0011828744
000300 aa 9a 38 bc 1a 60 e4 3c 54 4a 93 bd b1 70 e9 b9
       -0.011267344 0.027877856 -0.07191911 -0.00044525185
000310 4a 5a 73 3d 9b 1b e2 3c 35 37 05 3d c9 2f 9d 3c
       0.05941228 0.027601054 0.032523353 0.019187825
000320 33 29 49 bc 6d c3 42 3d d2 ee 70 3b ce be 60 bd
       -0.012277889 0.047549654 0.0036763442 -0.054869466
000330 c4 ef 6a bd 0d af d9 3c 0b 33 f1 bc f6 9a ca bc
       -0.057357565 0.026572729 -0.029443284 -0.024732094
000340 de 73 d6 bc 14 26 a3 bd 29 0d 94 3c a3 d3 6f 3d
       -0.026178297 -0.07966247 0.018072682 0.058551442
000350 34 55 aa 3b 31 de 2a 3c 5d e2 f5 bc 1e c3 3c 3d
       0.0051981453 0.010428951 -0.030015165 0.046084516
000360 b6 30 3d 3d 2e 9b 44 bd 3d 62 58 bb d4 86 3b bc
       0.046189032 -0.047999553 -0.003301754 -0.01144572
000370 89 77 0f bc 6a a7 09 bd 96 36 5e bd 24 e0 29 3b
       -0.008756527 -0.033606924 -0.054251276 0.0025920952
000380 9a f0 29 bd 0d 58 20 3d 6e 9e 28 bd 6d dd 08 3c
       -0.04148922 0.03914647 -0.041166715 0.008353573
000390 31 5a 2e bd 46 40 35 3d 0d f6 e0 bb 6a 33 11 bd
       -0.042566482 0.04425075 -0.006865269 -0.035449423
0003a0 9d 94 61 3d c9 f0 e7 bb 76 fe 15 bd 01 83 54 3d
       0.05507337 -0.0070782644 -0.036619626 0.051882748
0003b0 72 e4 4e bd 81 09 48 3d f9 69 b4 bc b2 ba 18 3c
       -0.05051083 0.04883719 -0.022023188 0.009321855
0003c0 37 2a 9f bb 7f b9 a1 3d 1e 48 d8 3c bc 3a d5 bc
       -0.0048573273 0.07896709 0.026401576 -0.026028983
0003d0 8f dc 52 bb 16 21 bb 3a 76 d1 fe 3c 84 81 64 bd
       -0.003217492 0.0014276828 0.031105738 -0.05578758
0003e0 3d f6 a5 3b e6 75 0d 3d 91 6b e0 bc c9 2c a0 3c
       0.0050647543 0.034536265 -0.027395042 0.019552605
0003f0 2a 35 95 bd a0 3c 33 3d 3a f9 58 3b 6e b7 87 bd
       -0.07285531 0.04375899 0.0033107535 -0.06626783
