model/bert_dnn_9.model (torch, 4854 bytes, 1 tensors)

weight f4 [1, 768]
00000000: 0dd4 40bd 21bc fdbd 66b5 223d 27c4 35bd
00000010: c8c5 9abb 5a66 83bc 36c4 9dbc 3cdf ab3c
00000020: a636 13bd c15b c93c a5de 7d3d 3e11 03bd
00000030: b333 63bd 88fb 3fbd 3ddb 25bc 939a eb3c
00000040: 42c0 9b3c b626 053d 16f6 9ebc 3a43 8b3b
00000050: 44bb 74bd 5471 c23c f325 d33c 21e0 1aba
00000060: 36f6 3738 90ba fc3c 8b2c e6bb e121 2bbe
00000070: 4312 2c3d 7117 d13c a31a f63c 7ad9 d43c
00000080: a30d 81bc 6f6b 903d 801c eebd 26e8 37be
00000090: a62f 61bd 2001 303e 6fda 453d d540 883c
000000a0: 8447 b7bd 7941 e6bc 40e3 bbbc 345a 003d
000000b0: 40c8 9bbc 030c 453d 62ee 8dbc a347 a1bd
000000c0: a89e 26be 7f80 e13c d7ca 053e da9f 903c
000000d0: c181 313c a1b8 5ebe 0a96 debb a0fa bf3d
000000e0: d25d 0d3e 8ca2 873c f4a4 193e ff1e f6bc
000000f0: ff9a 363e ff71 20bd 6263 50bd 778f 31bc
00000100: b316 8a3d 35cc 49bd ae00 fdbc 0dab a53d
00000110: 5fc6 bd3c aa4a 4dbd 85fd afbd 3af6 bfbd
00000120: 7f33 893c c92b d93c e1f5 a93d 3320 9abd
00000130: 3fbb 5ebd 6870 97bd 8673 153d d04a 053e
00000140: 139f ef3c a66e 0fbc 5c60 cbbc 301c 2b3e
00000150: dd3c 02bd 0f19 a8bd 53eb 24bd aa05 c53b
00000160: 9e07 f53c dc2a 6abd ed5c 2d3e 2e6e 073c
00000170: ac63 133d 5b41 6a3d 4dda 7c3b 818f 42bd
00000180: 1152 373d 6998 823d 4c66 963c bf7e c6bc
00000190: 3806 8b3d 1881 25bc f639 32bd 0973 2fbd
000001a0: 9fdc 78bc a3a3 203d 9cc9 213d 6cb2 11bd
000001b0: dbeb 12bd 9edb 6b3c d8e8 a93d 0ede 333d
000001c0: cc4f 113c 9bcc 13bd 1b7f 393c 0229 643d
000001d0: 4213 ca3b 7ec9 cfbc 178a 173d 5413 853d
000001e0: 12d5 ca3d 7306 28bd 2fd1 493d e897 65bd
000001f0: 95f0 8d3d fd4f 873c 99d8 003d bf3b cd3d
00000200: fca9 083d 4ab0 9abc 73c0 d2bc 6f04 4c3c
00000210: f284 f33c df86 e23d 9ab9 cf3c d645 023e
00000220: 7dbc 12be ddd6 033c f848 2cbc 32c7 353d
00000230: 6362 e0bd 5a55 b23c 1b25 40bd 582e 1bbe
00000240: 198d 1bbd 1d11 89bd 685d c8ba ed7b 3d3c
00000250: 37dc 0f3e c5d8 793d 4068 a6bc 3393 0d3d
00000260: 186e a2bc 5fb3 d43d a12f 9bbd f0ec ba3b
00000270: 1380 173d 24c5 163d 59d7 003d 15ca 2ebc
00000280: bc08 5c3c 5ec6 14bd e2ba 4e3d 2224 4ebb
00000290: b9ae 0abd b895 123e 0823 e2bc 46f0 f13c
000002a0: 6b65 2d3d 0b36 5f3d a24c 133e eeda f53c
000002b0: ba11 c0bd 0395 3ebc de18 1f3d 0408 a23d
000002c0: 2e4e 1a3e 3174 4e3c 97fa 4ebc 63c3 783d
000002d0: 6f35 233d 0c85 6a3c 0c7d 06bc 79a6 f03d
000002e0: c8c2 453d 976d 863d 1cff 5fbd b2a4 ccbd
000002f0: 080d 243d cc8a 043c b6a8 b7bd 88b9 3f3c
00000300: 9553 8bbc 5d66 e23c 570f 08be 3fcb b13d
00000310: 2f12 913d bcbc d8bc 3bd8 cf3d b450 b23c
00000320: 09a0 58bc 5fe4 b93d 47ae 703c c7e2 53ba
00000330: 9ae6 f0bd 4a31 b43c 6d5a b6bb fb18 c1bc
00000340: 33c8 463d 8982 e3bd cc4a 8d3d 6592 a43d
00000350: ea16 9c3b ed2f 4d3d 8738 18bd e130 883d
00000360: 28b2 653c 7c92 38bc 8911 633d cf8e 9539
00000370: b7a2 1939 f194 16bd 295a 11be 1311 893d
00000380: e1d2 903b 5644 923d ef1c 46bd 4723 35bc
00000390: 8556 07bd 44c9 4b3d a293 8d3b e135 54bd
000003a0: 320b 003e 8098 88bd 40ff 6ebd 136b 703d
000003b0: d2db d0bd cac8 053d 1c94 7dbc d25e 503c
000003c0: 2d55 8cbc 9c12 303e 4ebe 083d 4084 3ebd
000003d0: eaaf 45bd ee42 88b9 af67 233d 235b 58bd
000003e0: 3f16 cfbc e065 db3c b683 c9bc 5756 733d
000003f0: 6eb3 02be 41f1 073d 06fb 4bbd 8934 c6bd
-0.047077227 -0.12389398 0.039723776 -0.04437652 -0.0047232844 -0.016040016 -0.0192586 0.02098047
-0.03594079 0.024579884 0.06197991 -0.031998865 -0.055469226 -0.04687074 -0.010123071 0.02876023
0.019012574 0.03250762 -0.019404452 0.0042499574 -0.059748903 0.02373568 0.025774932 -0.00059080316
4.38599e-05 0.030850679 -0.007024353 -0.16712143 0.042009603 0.025523873 0.030041998 0.025982607
-0.015753573 0.07051741 -0.1162653 -0.17959651 -0.05497708 0.17187929 0.048304018 0.016632477
-0.089491874 -0.028107392 -0.02293551 0.031336024 -0.019016385 0.04810716 -0.017325584 -0.07874992
-0.1627146 0.027527092 0.13065659 0.017654348 0.010834158 -0.21750118 -0.0067927884 0.09373975
0.13805321 0.016557 0.15004331 -0.030044077 0.17832564 -0.039171215 -0.05087603 -0.010837427
0.06742611 -0.049267013 -0.030884113 0.08089266 0.02316588 -0.050120033 -0.08593277 -0.09373136
0.016748188 0.026510136 0.08298851 -0.07525673 -0.05437779 -0.07394487 0.036487125 0.1301682
0.029250657 -0.008754408 -0.024826221 0.16709971 -0.031796325 -0.082079045 -0.040263485 0.006012638
0.029910859 -0.05716978 0.1692998 0.008266015 0.035983726 0.057191234 0.0038582266 -0.047500137
0.044756 0.06376726 0.018359326 -0.02423036 0.067882955 -0.010101579 -0.043512307 -0.042834315
-0.015189319 0.039218556 0.03949891 -0.035570547 -0.03586946 0.014395623 0.082963645 0.04391294
0.008869123 -0.0360838 0.011321808 0.05570317 0.0061668465 -0.025364634 0.036996927 0.06497827
0.09903921 -0.041021775 0.04927176 -0.056053072 0.06930653 0.016517634 0.031456564 0.10021161
0.033365235 -0.01888289 -0.025726533 0.012452229 0.02972648 0.11060881 0.025357056 0.12721953
-0.14329715 0.008046833 -0.010515444 0.04437942 -0.10956266 0.021769214 -0.046910387 -0.15154397
-0.037976358 -0.06692717 -0.0015286626 0.011565191 0.14048849 0.060997743 -0.020313382 0.03456421
-0.019827887 0.10385775 -0.07577444 0.0057045147 0.036987375 0.0368091 0.03145537 -0.010668297
0.013429817 -0.03632199 0.050471194 -0.0031454642 -0.033858035 0.14314926 -0.027604595 0.029533517
0.042333048 0.0544949 0.14384702 0.03001162 -0.09378381 -0.011632207 0.038842075 0.07911685
0.15068886 0.012600944 -0.012632987 0.06073321 0.03984588 0.014313947 -0.008208524 0.11750502
0.04828146 0.06563871 -0.05468665 -0.09992351 0.04005149 0.008089732 -0.08967726 0.011701949
-0.017007628 0.027636701 -0.13287102 0.08681344 0.07083546 -0.026457183 0.101486646 0.021766998
-0.013221749 0.090767615 0.014689988 -0.00080828037 -0.11762734 0.02199616 -0.005564979 -0.023571482
0.04853077 -0.11108882 0.06899032 0.08035735 0.0047634738 0.050094534 -0.037163284 0.06649948
0.014019527 -0.011265393 0.055436645 0.00028525895 0.00014651833 -0.036763135 -0.1419455 0.0669271
0.00441967 0.0714194 -0.048367437 -0.011055774 -0.033041496 0.04975249 0.0043205777 -0.051809195
0.1250427 -0.06669712 -0.058348894 0.058695864 -0.101981774 0.03266219 -0.015477207 0.012717919
-0.017130459 0.17194599 0.033384614 -0.046512842 -0.048263468 -0.00025989808 0.039893802 -0.05282129
-0.025279162 0.026781976 -0.024598937 0.059408512 -0.1276376 0.033189062 -0.04979994 -0.09677989
