model/bert_dnn_7.model (torch, 4854 bytes, 1 tensors)

weight f4 [1, 768]
000000 39 6f 3b bd b6 c1 ee bd db c6 23 3d de 45 28 bd
       -0.045760367 -0.11658041 0.039984565 -0.041082256
000010 5c 61 0f ba 3d 4a 53 bc 62 20 83 bc c0 1c cf 3c
       -0.0005469525 -0.012896118 -0.016006652 0.025282264
000020 1b d9 18 bd 5b a1 d6 3c 28 1b 6a 3d 7d 87 e3 bc
       -0.037316423 0.026199987 0.057154804 -0.027774567
000030 2a 37 25 bd f8 6f 36 bd 07 9c 0f bc 49 64 d9 3c
       -0.04033581 -0.044540375 -0.008765227 0.026537078
000040 b1 bc 6c 3c 3d 51 05 3d ba 42 ca bc 7c 4d 13 3c
       0.014449284 0.032548178 -0.02469002 0.008990642
000050 e2 af 52 bd 8a 4e 92 3c 40 75 99 3c f0 a0 d8 39
       -0.051437266 0.017859716 0.018732667 0.00041318638
000060 41 4a a4 ba 79 6d d9 3c 04 45 27 bc 47 70 27 be
       -0.0012534336 0.026541458 -0.010209326 -0.16351424
000070 78 15 25 3d 95 ef dd 3c c5 ad 06 3d 8a 64 d7 3c
       0.040303677 0.02709178 0.032880563 0.026293058
000080 5a 39 eb bb 95 cf 8a 3d 6a 2b d7 bd 82 79 25 be
       -0.0071784677 0.067778744 -0.105063275 -0.16159633
000090 b1 78 6e bd 0c a8 22 3e 46 ce 39 3d 36 5b 86 3c
       -0.05822057 0.15884417 0.045362733 0.016400915
0000a0 d4 c5 b0 bd 88 70 f7 bc 7a 04 c7 bc a0 de f5 3c
       -0.08631483 -0.030205026 -0.024294127 0.030013382
0000b0 04 a4 6b bc 9a d8 51 3d 5a ea 99 bc 50 86 92 bd
       -0.014382366 0.051231958 -0.018788505 -0.07154524
0000c0 93 79 16 be 16 3c a5 3c 42 f2 f7 3d 33 24 92 3c
       -0.14694814 0.020170253 0.12106754 0.017839527
0000d0 a0 36 30 3c 22 6e 49 be c3 36 81 bb 89 bc b1 3d
       0.010755211 -0.19670919 -0.0039432957 0.08678538
0000e0 e3 87 04 3e af 13 6f 3c ac d5 11 3e 89 8f ce bc
       0.12942462 0.014592095 0.14241666 -0.025214927
0000f0 5a a2 2c 3e 20 82 1c bd cf 3a 57 bd bb 91 18 bc
       0.16858807 -0.038210034 -0.05254632 -0.009312089
000100 6f 34 91 3d 90 6e 69 bd aa 1a e3 bc 5a ab 95 3d
       0.07090079 -0.056990206 -0.027722675 0.07308073
000110 46 b5 af 3c c5 4f 4d bd 9b 0a a8 bd 98 85 b1 bd
       0.021448743 -0.050124902 -0.08205148 -0.08668059
000120 28 df 91 3c a8 fd d6 3c 75 bb 9e 3d 8c c3 92 bd
       0.017806605 0.026244 0.07750598 -0.07166204
000130 bc 95 63 bd c8 50 94 bd ba 12 05 3d cc 31 00 3e
       -0.05556272 -0.0724197 0.032488562 0.12518996
000140 bc a1 df 3c 4d 73 24 bc 1c 22 ce bc f7 c3 22 3e
       0.0272988 -0.0100372555 -0.025162749 0.15895067
000150 51 e0 d5 bc b8 dd 95 bd 0c d7 19 bd 5d ab d7 3b
       -0.026107939 -0.0731768 -0.0375586 0.0065817074
000160 92 41 02 3d 81 f0 62 bd ed 4e 1e 3e 14 5c 24 3c
       0.031800814 -0.055405144 0.15459795 0.010031719
000170 a3 bb 0a 3d 9e d9 63 3d 64 8d aa 3b 88 7f 1a bd
       0.03387035 0.055627458 0.0052048434 -0.03771928
000180 e2 67 35 3d 87 49 86 3d b0 47 31 3c 49 47 d7 bc
       0.044288523 0.06556993 0.010820314 -0.026279109
000190 20 af 71 3d e1 4f 44 bc 54 f2 36 bd 0f 4b 20 bd
       0.059004903 -0.011981935 -0.044664696 -0.03913408
0001a0 9b 56 81 bc 01 53 23 3d 76 15 2b 3d 64 0a 27 bd
       -0.015788367 0.03987408 0.041768514 -0.040781394
0001b0 6f ee 00 bd 56 ac 5a 3c 4b 3b a0 3d e7 35 3e 3d
       -0.031477388 0.013346752 0.07823809 0.046438124
0001c0 0a 1c 86 3b c4 af 0c bd 0c f2 a9 3c 3a 9b 4a 3d
       0.004092698 -0.03434731 0.0207453 0.04946444
0001d0 2a d3 0e 3c bc 77 b9 bc 3c b7 0e 3d de 9a 79 3d
       0.008717338 -0.022640102 0.034842715 0.06093871
0001e0 08 81 bd 3d 8b 1f 24 bd bc a6 4d 3d c9 5f 62 bd
       0.092531264 -0.040069144 0.05020784 -0.05526713
0001f0 b0 45 7f 3d ad 93 80 3c 54 11 07 3d f4 a6 c0 3d
       0.06232232 0.015695417 0.03297551 0.09406844
000200 72 3e 03 3d 74 37 21 bc 32 6c e1 bc f6 de 76 3c
       0.032041974 -0.009839881 -0.027517412 0.0150678065
000210 46 21 0e 3d a7 a2 d8 3d 34 6c cf 3c b5 c5 fe 3d
       0.0346997 0.105778985 0.02532015 0.124400534
000220 89 2b 0b be 11 59 03 3c 4a 1b 27 bc e0 c0 26 3d
       -0.13590826 0.008016841 -0.010199377 0.040711284
000230 e0 fe cb bd 44 3d cb 3c be 36 27 bd cd e7 14 be
       -0.09960723 0.024809487 -0.04082369 -0.1454155
000240 9a 06 1d bd 63 bd 87 bd 4f 27 1b 3b 56 7b f5 3b
       -0.038336374 -0.066279195 0.0023674553 0.0074915094
000250 ab ac 03 3e 84 2b 69 3d 7c d9 9c bc 31 3b f9 3c
       0.12858836 0.056926265 -0.019146673 0.030423732
000260 82 8d 90 bc cd a4 c8 3d da c8 a7 bd 96 ff 09 3b
       -0.017645601 0.09797058 -0.08192606 0.0021056882
000270 0c d8 d5 3c bd 62 15 3d 08 d0 ed 3c 86 c9 07 bc
       0.026103996 0.036471117 0.029029861 -0.008287793
000280 00 e7 e1 3b 85 c6 01 bd 6f 06 3e 3d b4 c0 f6 3a
       0.0068939924 -0.031683464 0.046392854 0.001882574
000290 ce 32 d8 bc ff 5e 0b 3e f8 25 bc bc 0d cb 8d 3c
       -0.026391413 0.13610457 -0.022967324 0.017308736
0002a0 89 b7 16 3d b3 25 74 3d 70 53 02 3e 2f 1a c1 3c
       0.036796127 0.059606265 0.12727141 0.023572056
0002b0 0c 6e c0 bd 91 18 23 bc 2b 92 0d 3d 12 7d a1 3d
       -0.0939599 -0.009954588 0.034563225 0.078851834
0002c0 80 d4 15 3e 2a 21 72 3c 18 35 3f bc b6 74 6b 3d
       0.14631844 0.014778415 -0.011670373 0.05748435
0002d0 d8 ac 2e 3d 29 ed 69 3c 3f e3 01 bc c2 ff e7 3d
       0.042645305 0.014277735 -0.007927715 0.11328079
0002e0 95 5c 51 3d c4 c1 82 3d 7b 7c 46 bd f5 90 cf bd
       0.051113684 0.06384614 -0.048458558 -0.1013507
0002f0 d7 81 17 3d a9 d6 e0 3b 16 46 ac bd a9 d6 21 3c
       0.03698906 0.006861527 -0.08411805 0.009877839
000300 db 15 85 bc e0 75 02 3d 54 2f 01 be df df 91 3d
       -0.016245773 0.031850696 -0.1261571 0.07122778
000310 7c e8 8e 3d 20 77 a6 bc a6 00 c0 3d 01 aa b3 3c
       0.069779366 -0.020320475 0.09375124 0.02193165
000320 ee 01 67 bc 50 26 b2 3d 96 6f 4a 3c 1b b7 33 bc
       -0.014099581 0.08698714 0.012355706 -0.010968949
000330 29 f3 e5 bd f0 cc d6 3c c0 01 0f bc 51 d3 b9 bc
       -0.1122802 0.026220769 -0.008728445 -0.022683771
000340 11 9d 11 3d bb 29 e1 bd cc 4b 76 3d 2a c3 a1 3d
       0.03555018 -0.109942876 0.06013088 0.07898553
000350 52 75 cf 3b 9d 3d 3c 3d 59 73 1b bd 94 b0 85 3d
       0.0063311243 0.045957197 -0.0379518 0.0652782
000360 5c 22 ad 3c 9f f9 81 bc b7 36 48 3d 11 88 7d bb
       0.021134548 -0.015866099 0.048880305 -0.0038685838
000370 5c 33 2f ba 8c 00 17 bd 12 06 08 be a0 51 5c 3d
       -0.00066833734 -0.036865756 -0.13283566 0.05378878
000380 30 e5 b2 3a 26 70 89 3d 26 f0 46 bd 5a b9 16 bc
       0.0013648625 0.06710844 -0.048568867 -0.009199465
000390 f2 97 02 bd 39 d9 49 3d 7b 70 31 3b de df 56 bd
       -0.031883188 0.049279425 0.00270751 -0.05245959
0003a0 ec 77 f3 3d c7 b0 73 bd 57 32 6c bd a5 53 6d 3d
       0.11888108 -0.05949476 -0.057665195 0.057941098
0003b0 d6 ba cb bd b5 79 fe 3c 58 d5 91 bc ce 79 64 3c
       -0.099477455 0.031063894 -0.017801926 0.013945056
0003c0 27 d6 7b bc 55 96 28 3e 90 73 0d 3d 35 11 34 bd
       -0.015370882 0.16463597 0.034534037 -0.043961722
0003d0 96 a1 38 bd b2 63 4e bb 4a 10 0b 3d 17 40 69 bd
       -0.045075975 -0.0031492529 0.03395108 -0.056945886
0003e0 bf fd aa bc 3b b2 04 3d 67 f9 d1 bc c8 8d 62 3d
       -0.020872949 0.032396536 -0.02563162 0.055310994
0003f0 6f 56 fe bd 1f a3 16 3d 4f 03 1b bd dd d1 bd bd
       -0.1241883 0.03677666 -0.037844952 -0.09268544
