model/bert_dnn_6.model (torch, 4854 bytes, 1 tensors)

weight f4 [1, 768]
-0.042917524 -0.1133368 0.04148984 -0.037911627 0.002705347 -0.011289048 -0.011622817 0.02613158
-0.03710816 0.022148265 0.05624657 -0.02537433 -0.03360488 -0.043974426 -0.007628656 0.02394384
0.011720828 0.03300315 -0.028395323 0.011294967 -0.046748206 0.014837549 0.01526258 0.0016322373
-0.002252403 0.023790991 -0.012931349 -0.15998109 0.04058592 0.02634727 0.033810474 0.026247727
-0.0034342615 0.062013432 -0.097064234 -0.14986914 -0.059294052 0.15112768 0.04203994 0.019256571
-0.08596645 -0.031276166 -0.026974604 0.02966521 -0.009230312 0.05122689 -0.020256108 -0.068562895
-0.13941075 0.0137858875 0.11229942 0.018183228 0.009516664 -0.18238184 -0.0019412744 0.085206315
0.124355525 0.013025762 0.13727379 -0.023981577 0.16283403 -0.0372591 -0.052487034 -0.007527389
0.074891284 -0.06099823 -0.030361827 0.06862791 0.020095682 -0.051670182 -0.08108336 -0.08311116
0.018169584 0.023968527 0.07597045 -0.06809407 -0.056885004 -0.06984615 0.029415471 0.117401086
0.029924642 -0.008911072 -0.024870956 0.15352319 -0.025245253 -0.06731401 -0.03588187 0.006705979
0.032009494 -0.05321058 0.1421927 0.012557227 0.033105917 0.053787947 0.007843949 -0.033009954
0.04203269 0.06692404 0.008392466 -0.027542392 0.05707253 -0.0130514195 -0.04477582 -0.03843057
-0.018833874 0.043418784 0.042752724 -0.045353364 -0.028461576 0.011353983 0.0743301 0.045262087
0.0023059158 -0.033281542 0.026242163 0.047809903 0.011425026 -0.020207964 0.0330879 0.05512125
0.08644043 -0.040602285 0.04880575 -0.05464934 0.057613917 0.015999429 0.03616487 0.09171646
0.029974205 -0.0059688976 -0.028077135 0.015693888 0.03362951 0.10462938 0.024796763 0.122090556
-0.1282375 0.0057589835 -0.010627759 0.03614181 -0.09021452 0.026415577 -0.03936797 -0.14136866
-0.038109172 -0.06571815 0.009637267 0.0063072196 0.1212093 0.05556945 -0.017802183 0.02830747
-0.015047924 0.0949421 -0.08284117 -0.001442562 0.020271141 0.03563539 0.02859997 -0.009699799
0.0053445413 -0.029227009 0.04494824 0.0057292785 -0.021926386 0.13317558 -0.021377074 0.012290203
0.034445915 0.06333596 0.11749788 0.019697167 -0.09319475 -0.0071348976 0.035526235 0.07746844
0.1409625 0.014694216 -0.011095402 0.057379182 0.045705054 0.012076163 -0.0076729264 0.10862593
0.052323196 0.06274915 -0.04311118 -0.10116873 0.034976326 0.0052474556 -0.078280695 0.007813166
-0.016251924 0.03486959 -0.12085917 0.061220624 0.068471484 -0.017683638 0.08913323 0.02255645
-0.01504139 0.08433271 0.009805404 -0.01999377 -0.106418855 0.027169876 -0.012245328 -0.023587883
0.027951745 -0.10883303 0.05421487 0.07715515 0.0074001956 0.04350332 -0.036562923 0.06404327
0.025266329 -0.018396936 0.044724274 -0.0051484336 -0.00048609797 -0.03869662 -0.12596254 0.047595754
-0.0018067693 0.06632387 -0.049532037 -0.007965663 -0.032394532 0.048215494 0.002632417 -0.052062232
0.115265936 -0.055017397 -0.0577494 0.059419144 -0.09833898 0.029761834 -0.017609628 0.017006353
-0.017202418 0.15994109 0.035550423 -0.04414488 -0.042982288 -0.0020343591 0.030610703 -0.061514538
-0.020874219 0.036843117 -0.025847519 0.051049653 -0.12089833 0.037837785 -0.032430615 -0.09050529
00000000: 49ca 2fbd 201d e8bd 40f1 293d 3949 1bbd
00000010: 314c 313b b3f5 38bc a16d 3ebc e511 d63c
00000020: bafe 17bd 4770 b53c ce62 663d d4dd cfbc
00000030: 45a5 09bd 871e 34bd cef9 f9bb df25 c43c
00000040: b708 403c 502e 073d 4f9d e8bc 860e 393c
00000050: 0c7b 3fbd 3119 733c e60f 7a3c ccf0 d53a
00000060: 0d9d 13bb 53e5 c23c 02de 53bc 15d2 23be
00000070: 6c3d 263d 3bd6 d73c da7c 0a3d 7905 d73c
00000080: 5911 61bb cc01 7e3d 9dc9 c6bd 4c77 19be
00000090: 52de 72bd 37c1 1a3e 1232 2c3d f5bf 9d3c
000000a0: 2e0f b0bd 701b 00bd d8f9 dcbc 7404 f33c
000000b0: bc3a 17bc 4ad3 513d 23f0 a5bc b46a 8cbd
000000c0: b1c1 0ebe 34de 613c 3dfd e53d fef4 943c
000000d0: c8eb 1b3c 4ec2 3abe 5c72 feba a680 ae3d
000000e0: 1cae fe3d 016a 553c 8091 0c3e 0375 c4bc
000000f0: f7bd 263e ff9c 18bd a5fc 56bd 51a8 f6bb
00000100: 9a60 993d 48d9 79bd 5eb9 f8bc ca8c 8c3d
00000110: b39f a43c 1da4 53bd 080f a6bd 2f36 aabd
00000120: 61d8 943c a559 c43c 6596 9b3d e774 8bbd
00000130: 4000 69bd 800b 8fbd b7f8 f03c fb6f f03d
00000140: 8624 f53c bfff 11bc 2dbe cbbc 2f35 1d3e
00000150: 22cf cebc eddb 89bd def8 12bd d4bd db3b
00000160: 631c 033d 56f3 59bd f79a 113e d4bc 4d3c
00000170: 129a 073d c050 5c3d e883 003c 7235 07bd
00000180: 782a 2c3d 790f 893d 8e80 093c 95a0 e1bc
00000190: e3c4 693d 9fd5 55bc da66 37bd 6069 1dbd
000001a0: 7f49 9abc e5d7 313d 7b1d 2f3d 73c4 39bd
000001b0: 4028 e9bc 0e06 3a3c 613a 983d bd64 393d
000001c0: d91e 173b 3a52 08bd cef9 d63c 51d4 433d
000001d0: 0830 3b3c 2c8b a5bc 2e87 073d d2c6 613d
000001e0: ae07 b13d 954e 26bd 8ae8 473d fdd7 5fbd
000001f0: 92fc 6b3d 3c11 833c 9d21 143d d7d5 bb3d
00000200: 778c f53c be96 c3bb 0502 e6bc 7890 803c
00000210: 19bf 093d ee47 d63d 9522 cb3c 9d0a fa3d
00000220: b150 03be dbb5 bc3b 0d20 2ebc 6f09 143d
00000230: 64c2 b8bd 7b65 d83c 4f40 21bd f2c2 10be
00000240: 5d18 1cbd 3d97 86bd a1e5 1d3c cbac ce3b
00000250: 953c f83d cb9c 633d e2d5 91bc 11e5 e73c
00000260: 918b 76bc 0171 c23d a2a8 a9bd 5914 bdba
00000270: aa0f a63c 6af6 113d 7c4a ea3c e8eb 1ebc
00000280: 4321 af3b 7b6d efbc a51b 383d acbc bb3b
00000290: f79e b3bc 2e5f 083e f91e afbc d95c 493c
000002a0: 2917 0d3d 49b6 813d baa2 f03d f45b a13c
000002b0: e4dc bebd dccb e9bb f583 113d c6a7 9e3d
000002c0: 7958 103e 02c0 703c 7dc9 35bc 6f06 6b3d
000002d0: 3935 3b3d 19db 453c 2c6d fbbb 4677 de3d
000002e0: d950 563d a082 803d 5995 30bd 8d31 cfbd
000002f0: 5643 0f3d d9f2 ab3b a151 a0bd cb02 003c
00000300: c122 85bc 6ad3 0e3d 0385 f7bd 7ac2 7a3d
00000310: c73a 8c3d 47dd 90bc 7c8b b63d 4ec8 b83c
00000320: 2a70 76bc a1b6 ac3d d8a6 203c fac9 a3bc
00000330: 21f2 d9bd 5c93 de3c a1a0 48bc 603b c1bc
00000340: 0ffb e43c dae3 debd 6910 5e3d 8503 9e3d
00000350: 577d f23b 8a30 323d 01c3 15bd 1e29 833d
00000360: 55fb ce3c 2cb5 96bc cd30 373d 31b4 a8bb
00000370: f7da feb9 5980 1ebd 53fc 00be c4f3 423d
00000380: 1ed1 ecba cfd4 873d 1be2 4abd 6a82 02bc
00000390: 21b0 04bd 9c7d 453d a184 2c3b 353f 55bd
000003a0: 8c10 ec3d ec59 61bd a38a 6cbd 7d61 733d
000003b0: f265 c9bd 17cf f33c 1142 90bc e850 8b3c
000003c0: 16ec 8cbc 99c7 233e 529d 113d 43d1 34bd
000003d0: 320e 30bd e252 05bb 4cc3 fa3c abf6 7bbd
000003e0: 6900 abbc cfe8 163d 2dbe d3bc 7119 513d
000003f0: 8b99 f7bd cbfb 1a3d f7d5 04bd d65a b9bd
