model/bert_dnn_4.model (torch, 4854 bytes, 1 tensors)

weight f4 [1, 768]
0	0xbd21c466	-0.03949394
1	0xbdd03c21	-0.10167719
2	0x3d27ce00	0.04096794
3	0xbd00562b	-0.031332176
4	0x3c1b8677	0.009492508
5	0xbbc73f18	-0.0060805194
6	0xbbb337f7	-0.005469318
7	0x3cdbd1ab	0.026833376
8	0xbd1a165a	-0.037618972
9	0x3ca43f89	0.020049827
10	0x3d4863cd	0.048923302
11	0xbc90becf	-0.01766911
12	0xbc5c047c	-0.0134288035
13	0xbd1a89e2	-0.03772915
14	0xbba0de45	-0.004909309
15	0x3ca58358	0.020204231
16	0x3ba8c128	0.005149979
17	0x3d02e568	0.03195706
18	0xbd138353	-0.036013912
19	0x3c93638e	0.017991807
20	0xbd048d0d	-0.03236108
21	0x3bc84d2c	0.006112715
22	0xbaa74b18	-0.0012763469
23	0x3b4aaf2c	0.0030927164
24	0xbb3cb78e	-0.002879593
25	0x3c902701	0.017596724
26	0xbc92e5c8	-0.017931834
27	0xbe1b8ca4	-0.15190369
28	0x3d1f284c	0.03885679
29	0x3cea01c9	0.028565304
30	0x3d171654	0.036886528
31	0x3ccc4202	0.024933819
32	0x3c003713	0.007825631
33	0x3d62ba9c	0.055353746
34	0xbda114cb	-0.07865294
35	0xbdf7f020	-0.12106347
36	0xbd7ec179	-0.06219623
37	0x3e023e72	0.12719133
38	0x3d260422	0.040531285
39	0x3c9d1fc3	0.019180184
40	0xbda17168	-0.07882959
41	0xbd04f9e0	-0.032464862
42	0xbcfbfa7c	-0.030759089
43	0x3cd2d905	0.025738249
44	0xba201ee5	-0.0006108119
45	0x3d5f2b04	0.054484382
46	0xbcad616b	-0.021164617
47	0xbd7f83d2	-0.062381573
48	0xbde703fb	-0.11280056
49	0x3b825269	0.003977109
50	0x3dca0bd3	0.098655365
51	0x3c969437	0.018381221
52	0x3bd6a5f1	0.0065505435
53	0xbe123f2a	-0.14281908
54	0x3af96d18	0.0019029705
55	0x3d95d8f1	0.07316769
56	0x3de34d66	0.11098747
57	0x3c23bc50	0.009993628
58	0x3dfaebda	0.12252016
59	0xbc83bade	-0.016080316
60	0x3e12fdf7	0.14354692
61	0xbd114545	-0.03546645
62	0xbd526b47	-0.05137184
63	0xbbd5f903	-0.0065299287
64	0x3da40a73	0.080098055
65	0xbd8c0092	-0.06836046
66	0xbce91919	-0.02845435
67	0x3d628aa8	0.055308014
68	0x3c95cada	0.018285204
69	0xbd561066	-0.052261733
70	0xbd9c848c	-0.07642469
71	0xbd949185	-0.07254318
72	0x3c9c2894	0.019062318
73	0x3cc42da8	0.023947552
74	0x3d8f87e2	0.070083395
75	0xbd7c43ac	-0.061587974
76	0xbd581c25	-0.052761216
77	0xbd818783	-0.06324675
78	0x3cb4af12	0.022056136
79	0x3dd6cd19	0.10488338
80	0x3d073347	0.033007886
81	0xbc37328b	-0.011181484
82	0xbcc2d016	-0.023780864
83	0x3e0ed622	0.13948873
84	0xbc9c8c35	-0.019109825
85	0xbd63891d	-0.055550683
86	0xbcfd1304	-0.030892856
87	0x3beb1ab1	0.0071748127
88	0x3d1444f5	0.036198575
89	0xbd48c7f1	-0.049018804
90	0x3deb8481	0.114998825
91	0x3c746562	0.01491675
92	0x3d04c94c	0.032418534
93	0x3d51e991	0.051248137
94	0x3c3e7b09	0.011626014
95	0xbc921589	-0.017832534
96	0x3d303ba5	0.04302563
97	0x3d8ad0f1	0.06778134
98	0xbb2036c2	-0.00244467
99	0xbcf39ed6	-0.029738825
100	0x3d2e55f9	0.04256246
101	0xbc826ab4	-0.01592002
102	0xbd3e3bae	-0.046443634
103	0xbd02614a	-0.031831063
104	0xbcb16fbf	-0.02165973
105	0x3d2f603a	0.04281638
106	0x3d4928f9	0.04911134
107	0xbd5a96b9	-0.053366397
108	0xbcc66cf7	-0.02422188
109	0x3c05db8c	0.00817002
110	0x3d85f892	0.06541552
111	0x3d47a4db	0.048741203
112	0xb9e24d1e	-0.00043163536
113	0xbcfbb5a5	-0.030726263
114	0x3d1f1187	0.038835075
115	0x3d0e1e63	0.034696948
116	0x3cae3059	0.021263288
117	0xbc766237	-0.015038065
118	0x3ceec7c2	0.029147986
119	0x3d4263f2	0.047458597
120	0x3d9d9f33	0.076963805
121	0xbd1c9697	-0.03822955
122	0x3d42ecb5	0.047589023
123	0xbd55e498	-0.052219957
124	0x3d3cef5b	0.046126705
125	0x3c8a9a3c	0.016919248
126	0x3d1bc370	0.03802818
127	0x3da71509	0.08158309
128	0x3ced386f	0.028957574
129	0x3adbec60	0.0016778819
130	0xbcf8631e	-0.0303207
131	0x3cb1919e	0.021675881
132	0x3d05d263	0.032671344
133	0x3dbc7e8d	0.09203825
134	0x3cc6a93f	0.024250625
135	0x3dec844d	0.11548672
136	0xbde63e5a	-0.11242361
137	0x3bfb1518	0.0076624267
138	0xbc2ed9a0	-0.010672003
139	0x3d02e8a5	0.03196015
140	0xbd96a7af	-0.07356202
141	0x3d050890	0.03247887
142	0xbcf31917	-0.02967505
143	0xbe036564	-0.12831646
144	0xbd1b4bf7	-0.037914243
145	0xbd80cca8	-0.06289035
146	0x3c9ca325	0.019120762
147	0x3a399d3a	0.00070806185
148	0x3dccefca	0.10006674
149	0x3d4c821a	0.049928762
150	0xbc8750c3	-0.016518002
151	0x3cbdc716	0.02316622
152	0xbc66cd1d	-0.014086989
153	0x3dab813b	0.08374258
154	0xbdaf66a1	-0.08564497
155	0xbbdc7911	-0.0067282994
156	0x3bce9dbf	0.006305426
157	0x3d0d230a	0.034457244
158	0x3cc8d5c8	0.024516001
159	0xbc111927	-0.008856094
160	0xbb701311	-0.0036632458
161	0xbcb2555d	-0.02176922
162	0x3d234ab9	0.039866183
163	0x3c54ebc2	0.012995662
164	0xbc299392	-0.010350125
165	0x3df50540	0.11963892
166	0xbc7cf97f	-0.015440344
167	0xbacea77f	-0.001576647
168	0x3ce3a76c	0.027789794
169	0x3d8f7ee0	0.07006621
170	0x3db526c3	0.08845284
171	0x3c1aaad0	0.009440139
172	0xbdb91c7b	-0.09038635
173	0xbbdde1f0	-0.0067713186
174	0x3cd9ae5b	0.026572397
175	0x3d9d2129	0.076723404
176	0x3e06b184	0.13153654
177	0x3c8bd24b	0.017068049
178	0xbc2b0db8	-0.0104402825
179	0x3d5991d4	0.05311759
180	0x3d4a3060	0.04936254
181	0x3c414ffa	0.011798853
182	0xbbafe6a2	-0.0053680697
183	0x3dc9a759	0.09846372
184	0x3d68d780	0.05684614
185	0x3d6b520a	0.057451285
186	0xbd037bfd	-0.032100666
187	0xbdc5207c	-0.096253365
188	0x3d07bb54	0.033137634
189	0x3af5f657	0.0018765432
190	0xbd89eb3e	-0.06734322
191	0x3b9d9822	0.0048093954
192	0xbc73f309	-0.014889487
193	0x3d1c7ac4	0.038203016
194	0xbdde7479	-0.10862059
195	0x3d22d725	0.03975596
196	0x3d8a0f03	0.067411445
197	0xbb9d73c6	-0.004805061
198	0x3d99fa41	0.07518435
199	0x3cb9da29	0.022687035
200	0xbc764d4f	-0.01503308
201	0x3d9c16d1	0.076215394
202	0x3bd5a863	0.0065203174
203	0xbd173488	-0.036915332
204	0xbdc64b32	-0.09682311
205	0x3ce18e19	0.027533578
206	0xbc808a19	-0.01569085
207	0xbcc60003	-0.024169927
208	0x3c27fe89	0.010253557
209	0xbdd9c329	-0.10632927
210	0x3d299957	0.041406002
211	0x3d973d88	0.07384783
212	0x3c0abdcf	0.008468105
213	0x3d1e2a9c	0.038614854
214	0xbd165279	-0.036699746
215	0x3d7f06ce	0.06226235
216	0x3d0e0b2d	0.034678627
217	0xbcdd87dd	-0.027042324
218	0x3d0d9f6f	0.034575876
219	0xbc05b934	-0.008161832
220	0xbae5227b	-0.001748159
221	0xbd1a45d2	-0.037664242
222	0xbddcf333	-0.10788574
223	0x3ce8455f	0.028353391
224	0xbc084beb	-0.0083188815
225	0x3d72db43	0.059291136
226	0xbd4c3e80	-0.049864292
227	0xbb9bd97c	-0.004756151
228	0xbd09c548	-0.033635408
229	0x3d3ed21b	0.04658709
230	0x3a3cd61b	0.0007203535
231	0xbd50c7f0	-0.050971925
232	0x3dd13ac3	0.10216286
233	0xbd23ad2c	-0.03996007
234	0xbd6c09f3	-0.057626676
235	0x3d715acd	0.058924485
236	0xbdb77333	-0.089575194
237	0x3cfd67d3	0.030933296
238	0xbca3fbbd	-0.0200175
239	0x3c991ee1	0.018691482
240	0xbc6edc7b	-0.014578934
241	0x3e113739	0.14181222
242	0x3d158167	0.03650036
243	0xbd22a2c7	-0.039706018
244	0xbd0f6b8d	-0.035014678
245	0xbb8f9379	-0.004381594
246	0x3cd098dc	0.025463514
247	0xbd826658	-0.06367177
248	0xbc2e9cf3	-0.010657537
249	0x3d2f977b	0.042869072
250	0xbcdc0008	-0.026855484
251	0x3d2fbc60	0.042904258
252	0xbdec5f66	-0.11541633
253	0x3d2df5ed	0.04247086
254	0xbc93e153	-0.018051779
255	0xbdad9a39	-0.08476681
