model/bert_dnn_8.model (torch, 4854 bytes, 1 tensors)

weight f4 [1, 768]
000000 df 31 3a bd 20 c2 f6 bd ae d6 1d 3d ac 4e 2e bd
       -0.045457717 -0.12048745 0.038534813 -0.042555496
000010 ad a1 cf ba b2 17 7c bc 56 35 94 bc 65 3c c3 3c
       -0.001584103 -0.015386509 -0.018091839 0.02383251
000020 7d 4f 1b bd ce b4 d0 3c 25 91 7b 3d e8 5c ee bc
       -0.037917603 0.02547684 0.061417717 -0.029097036
000030 04 b8 4f bd a0 02 38 bd 80 5d 19 bc 1a cd e2 3c
       -0.0507126 -0.04492438 -0.009360671 0.02768569
000040 b7 48 8f 3c 3e 10 06 3d 7d 31 ba bc c9 d5 81 3b
       0.017490728 0.032730334 -0.022728676 0.0039622528
000050 58 0c 62 bd c1 db af 3c 04 bd b3 3c 5c b2 a2 b9
       -0.055187553 0.021467092 0.021940716 -0.00031031936
000060 6f 5e 3b b8 45 f2 e2 3c b9 24 14 bc 60 17 29 be
       -4.4672222e-05 0.027703414 -0.0090419585 -0.16512823
000070 bf c7 2c 3d 6d 76 d2 3c b0 5c f6 3c 93 e4 d9 3c
       0.04218268 0.025691235 0.030073494 0.02659825
000080 8f 5a 4b bc 34 e6 8d 3d f6 89 e2 bd 41 a0 2e be
       -0.012411728 0.069286734 -0.1106147 -0.1705332
000090 2f 88 60 bd 28 7f 29 3e 2c 49 3a 3d a8 dc 96 3c
       -0.054817375 0.16552413 0.04547994 0.018415764
0000a0 1c 9a b8 bd ac 80 ef bc b6 3d c6 bc d1 be fd 3c
       -0.09013769 -0.02923616 -0.024199348 0.030974777
0000b0 d1 58 85 bc 56 5e 47 3d 60 36 94 bc 74 58 98 bd
       -0.016277703 0.04867395 -0.018092334 -0.07438746
0000c0 3e 58 1e be a0 02 bc 3c 2f 8e 01 3e a9 6a 94 3c
       -0.15463349 0.02295047 0.12651895 0.018117266
0000d0 00 39 20 3c ee 06 56 be f2 62 d1 bb 84 3e bb 3d
       0.009779215 -0.20901081 -0.006389969 0.09142783
0000e0 27 1c 0a 3e 19 a2 7a 3c eb 13 17 3e 02 67 df bc
       0.13487302 0.015297436 0.14753692 -0.027270798
0000f0 53 0b 31 3e f9 39 1f bd 51 92 57 bd 78 7b 20 bc
       0.17289476 -0.038873646 -0.052629773 -0.009795062
000100 d9 fb 8a 3d c7 70 5b bd 1b 5d fb bc 2b 0b a1 3d
       0.067863174 -0.05357435 -0.030684045 0.07863458
000110 36 92 b6 3c 02 23 52 bd 22 db a8 bd 28 2b b7 bd
       0.022286516 -0.051302917 -0.08244921 -0.08943778
000120 c7 ab 88 3c 79 e1 da 3c e5 02 a5 3d ec 37 95 bd
       0.016683472 0.026718842 0.08057193 -0.07286057
000130 b3 b0 61 bd 38 0b 96 bd 1e e4 0b 3d 5b b4 02 3e
       -0.055100154 -0.073263586 0.034153096 0.12764113
000140 51 39 ed 3c 8d 40 02 bc 48 f3 d2 bc f1 4f 28 3e
       0.028957995 -0.00794996 -0.025750771 0.16436745
000150 5c 46 f5 bc 47 64 9d bd f3 52 23 bd 8e 3d ca 3b
       -0.029940777 -0.07685142 -0.03987403 0.0061718887
000160 1f 62 f0 3c 75 6a 63 bd 85 8a 25 3e e6 d1 3b 3c
       0.029343663 -0.055521447 0.16166122 0.011463618
000170 10 36 12 3d 15 a2 67 3d 9c ad a9 3b 1b 82 2a bd
       0.03569609 0.056551058 0.0051781666 -0.041627984
000180 60 75 3e 3d 63 28 85 3d 58 79 76 3c c8 1f cc bc
       0.046498656 0.06501844 0.015043579 -0.024917498
000190 a1 47 86 3d a5 9c 40 bc cb ee 33 bd be b5 27 bd
       0.06556631 -0.011756097 -0.043928903 -0.040944807
0001a0 ae b7 85 bc 26 86 2a 3d 61 15 26 3d bb bc 26 bd
       -0.016322937 0.04163184 0.040547732 -0.04070733
0001b0 be b3 0b bd aa 1a 59 3c 02 c1 a4 3d f5 0b 35 3d
       -0.034106962 0.013250986 0.08044626 0.044200856
0001c0 67 dc e1 3b 70 4d 0e bd e0 ca 7c 3c 58 16 56 3d
       0.006892729 -0.03474182 0.015429229 0.052267402
0001d0 0b e5 1a 3c af 97 bc bc 88 2b 14 3d 9f c8 80 3d
       0.009454022 -0.023021547 0.036174327 0.062882654
0001e0 ca 8a c3 3d de d3 27 bd ba bc 46 3d 57 d6 66 bd
       0.09547956 -0.040973537 0.048519827 -0.056356754
0001f0 c5 f3 86 3d ee 88 84 3c 92 1a 04 3d 21 d3 c3 3d
       0.06589464 0.016178574 0.032251902 0.09561754
000200 20 14 00 3d 81 17 7c bc 42 08 d9 bc 6f 17 67 3c
       0.031269193 -0.015386463 -0.026493195 0.014104708
000210 1e fc f6 3c 6d 13 de 3d 9d 15 ce 3c 4c 11 01 3e
       0.030149516 0.10843549 0.02515679 0.12604254
000220 d1 ee 0e be 98 c0 08 3c 0e 92 32 bc 3d f4 26 3d
       -0.13958289 0.008346699 -0.01089908 0.040760268
000230 41 c0 d3 bd 18 99 b9 3c 1a c7 37 bd 92 16 19 be
       -0.10339404 0.022656009 -0.044867612 -0.14950016
000240 29 4e 1c bd 22 ce 88 bd 31 bc 82 ba 37 08 1e 3c
       -0.038160477 -0.06679942 -0.0009974298 0.009645513
000250 5d 5a 08 3e 20 d0 76 3d f1 6c a8 bc 23 32 03 3d
       0.13315721 0.060257077 -0.02055976 0.032030236
000260 31 b1 a7 bc ea f1 ce 3d 90 f6 a1 bd 05 4a 78 3b
       -0.020470234 0.10104735 -0.07908356 0.0037885916
000270 91 b5 f4 3c 55 9b 10 3d 8f f3 ed 3c 56 92 0c bc
       0.029871734 0.035304386 0.029046802 -0.008579811
000280 88 6b 31 3c 48 73 0a bd a3 19 41 3d 23 f7 32 ba
       0.01082886 -0.033801347 0.04714359 -0.00068269874
000290 ea 64 f5 bc 8b 62 0e 3e f6 ce d7 bc ea bf c2 3c
       -0.029955346 0.13904779 -0.026343804 0.023773152
0002a0 90 23 27 3d 82 f0 67 3d 8f 17 0c 3e e0 62 df 3c
       0.0408054 0.05662585 0.13680862 0.027268827
0002b0 18 73 bc bd 18 ff 3d bc 72 0f 16 3d 02 6d a0 3d
       -0.0920164 -0.011596464 0.036635824 0.078332916
0002c0 b4 83 17 3e 9c f8 5d 3c 67 be 4b bc 2a cf 72 3d
       0.14796335 0.013548043 -0.012435532 0.0592796
0002d0 89 9f 28 3d cf 64 5c 3c 9b 86 06 bc 2b b4 ea 3d
       0.04116777 0.013451769 -0.008210803 0.114601456
0002e0 f5 6e 4d 3d d6 8e 82 3d 3a 70 56 bd 8c 29 cc bd
       0.050154645 0.063749 -0.05235312 -0.09968862
0002f0 8c 8f 21 3d 7e 99 00 3c 34 a4 b0 bd 49 b2 30 3c
       0.039443538 0.007849095 -0.08625069 0.010784694
000300 f8 54 89 bc d6 46 fc 3c ed ca 04 be 23 68 a0 3d
       -0.01676415 0.030795496 -0.12968035 0.078323625
000310 d6 2f 90 3d 6e 99 c6 bc 26 8d c9 3d 27 54 b7 3c
       0.07040374 -0.024243083 0.09841375 0.022378994
000320 c1 59 63 bc f1 f1 b6 3d 8d 4e 5d 3c a3 78 b7 bb
       -0.0138763795 0.089328654 0.0135074975 -0.005599098
000330 e0 48 eb bd 58 2c bf 3c cb 91 e2 bb 7e bd d0 bc
       -0.11488509 0.023336574 -0.0069143525 -0.025480982
000340 fe 7d 2f 3d b6 dd e4 bd 0d 45 81 3d 5e cf a2 3d
       0.042844765 -0.111751005 0.063119985 0.079497084
000350 64 0f 92 3b 77 f5 43 3d 7e e9 19 bd e0 05 87 3d
       0.004457401 0.047841515 -0.03757619 0.065929174
000360 77 5b 8b 3c 9b 35 5d bc f8 20 57 3d d5 98 2b bb
       0.017011387 -0.01350155 0.052521676 -0.0026183624
000370 c2 27 87 3a f5 2a 1a bd 46 34 0d be 5a 6a 7a 3d
       0.0010311531 -0.037638623 -0.13789472 0.06113658
000380 9b 8a 1b 3b be 2d 8f 3d 1e d8 42 bd 83 a0 17 bc
       0.0023733738 0.069911465 -0.047569387 -0.009254578
000390 b9 ae 05 bd be 7c 45 3d 65 28 9a 3b 88 f9 56 bd
       -0.03263733 0.048214667 0.0047045224 -0.052484065
0003a0 c5 c5 fa 3d 9d 0a 7c bd 6f 6d 73 bd 02 d8 6b 3d
       0.12244753 -0.06153356 -0.059430536 0.057579048
0003b0 98 c6 d1 bd 92 3f 03 3d ab 9f 87 bc 71 fa 50 3c
       -0.10242957 0.032043047 -0.016555628 0.012755022
0003c0 13 58 86 bc 1e ee 2d 3e 80 99 0c 3d 66 8c 3b bd
       -0.016399419 0.16985366 0.034326077 -0.04578819
0003d0 b2 bf 3e bd b4 1a e3 ba 21 7e 13 3d 20 16 66 bd
       -0.046569534 -0.0017326684 0.036008958 -0.056173444
0003e0 60 bc bc bc 69 05 f5 3c df c5 c6 bc 55 07 6b 3d
       -0.023039043 0.029909806 -0.024264274 0.05738004
0003f0 04 44 00 be 57 33 0d 3d 50 11 3b bd ba d2 c4 bd
       -0.12525946 0.03447279 -0.045670807 -0.096105054
