model/bert_dnn_5.model (torch, 4854 bytes, 1 tensors)

weight f4 [1, 768]
00000000: 4ed9 2dbd ccd4 dbbd 1403 2d3d fe8c 10bd
00000010: 2598 af3b 5b82 0fbc f261 17bc 872c d73c
00000020: c6d5 1cbd b953 c43c ed87 513d c29a afbc
00000030: 769c b7bc a63e 28bd 0e67 d5bb 666d b83c
00000040: fcbe fd3b aac2 033d 16be 08bd b389 703c
00000050: 9628 2abd 2d8a 323c 04a4 f03b 4a56 333b
00000060: fe4e 1cbb 51b8 aa3c 844e 6abc 3941 1fbe
00000070: 2745 203d 8cb2 dd3c 10a3 123d 5fee cf3c
00000080: 0fb3 533b f1ed 703d 4a79 b7bd 30df 0bbe
00000090: 9dd5 7abd 3b83 0e3e 7825 1e3d fe22 953c
000000a0: c584 a8bd f302 02bd a041 e1bc 4f87 e63c
000000b0: 0f29 a2bb 5bbd 573d 21b4 a2bc 43bf 83bd
000000c0: 210e 03be c504 203c 74a0 db3d 64c9 933c
000000d0: 2ea0 1c3c 7cfa 28be 2f23 3e38 b301 a23d
000000e0: 541e f13d 0156 5a3c 7268 063e ec94 aabc
000000f0: 33ef 1c3e 29fa 15bd 947b 53bd 5ee8 d2bb
00000100: ef61 a33d 6f58 85bd b69e e5bc a69d 7d3d
00000110: 921c 9d3c b790 52bd 661f a1bd 9fcb 9ebd
00000120: 367c 9d3c c1b5 c83c cfd1 953d 90c9 85bd
00000130: 8068 6cbd 2ebb 8bbd 230e df3c da6e e63d
00000140: 9640 ed3c faa6 20bc 5c38 cebc 4927 163e
00000150: dcdc abbc 4f81 7dbd 72da 09bd 8c7c e83b
00000160: 6938 083d 41bb 53bd bc50 053e 96a6 623c
00000170: 0e88 013d bd22 5a3d a085 1c3c 61df e2bc
00000180: d5cd 2f3d 8ae3 863d 056b a23b 995a ebbc
00000190: 200f 533d 9562 66bc 5d6d 3bbd 5bda 0fbd
000001a0: a50b a2bc 71f8 353d 1b65 393d 4567 46bd
000001b0: 7f51 d7bc 09f6 313c 21b4 8d3d bc9a 3e3d
000001c0: 10f2 313a 16de 02bd 71ed fc3c 507f 2f3d
000001d0: 9f75 823c a7b3 91bc bd16 013d d464 563d
000001e0: 99f8 a73d af64 2abd b93b 493d 57a5 5ebd
000001f0: e9f4 5a3d 8c98 7e3c a115 1e3d 296c b33d
00000200: 49e9 f03c 688f f7ba 49ea eebc 9f12 933c
00000210: a920 123d d507 c63d 2662 ca3c f07f f33d
00000220: 8fa7 f7bd 04d1 d33b d928 28bc 6651 0f3d
00000230: 9760 aabd b015 f03c 0d34 0dbd d365 0bbe
00000240: 0495 1bbd 3b5c 82bd ccb4 553c ec43 933b
00000250: 1e97 e83d c46f 5a3d 18b1 90bc 9c3d d23c
00000260: d845 64bc 9d51 ba3d 297f b0bd 40bf 45bb
00000270: 0ecf 6f3c d97d 113d 3d08 de3c aca0 13bc
00000280: 0170 ae3a 3940 d4bc 174b 2d3d 015e 183c
00000290: 3261 86bc cadd 013e 4119 92bc 0a7a ae3b
000002a0: 2fe8 003d bfb3 863d 3f0c d73d 54ee 6e3c
000002b0: cc1f bebd d299 e0bb 28cc 063d 7fc1 9c3d
000002c0: 1d99 0d3e 8054 803c 5ddb 36bc 5138 603d
000002d0: 9497 403d b081 3d3c 626a d3bb 6d7f d63d
000002e0: e0f1 5d3d 18e7 773d 60d7 1dbd 2bda ccbd
000002f0: 84f7 053d e982 6e3b 0cb8 96bd bd1e cf3b
00000300: fc10 81bc 061b 163d b010 edbd b5d8 503d
00000310: 7bf6 8a3d 59c5 2dbc 4008 a83d 8225 b93c
00000320: e6fa 7abc 41d1 a43d 58f2 fd3b 4522 cfbc
00000330: 2654 d1bd fff1 e23c 880b 60bc 75d8 b0bc
00000340: 6933 9e3c c451 ddbd 249c 453d 9d45 9a3d
00000350: 0ac3 f43b 7c55 273d 9c37 16bd ef99 823d
00000360: d1b9 f33c f0e3 adbc c67d 253d c076 fabb
00000370: 4c11 17ba 0147 16bd 814a f1bd b37b 223d
00000380: 4ab0 45bb 0e56 803d 8d18 4cbd 0277 ebbb
00000390: 8f43 06bd b470 473d 5770 923a b68c 52bd
000003a0: d380 dd3d e5b2 4abd 47f0 6abd 281a 753d
000003b0: 1321 bfbd 34b3 f53c 55b3 9cbc e95a 993c
000003c0: c610 77bc c8f9 1d3e 623f 123d fd6b 2abd
000003d0: b2be 20bd 887d 91bb e5f9 db3c 0197 7fbd
000003e0: b7bb 72bc e921 243d adb0 d7bc 439e 403d
000003f0: cf7a f3bd 0aad 233d 71fc c4bc e428 b3bd
-0.042443566 -0.10733947 0.042239264 -0.03529071 0.005358713 -0.0087591065 -0.009239661 0.02626635
-0.038289808 0.023965703 0.05115502 -0.021436099 -0.022413474 -0.04107537 -0.006512529 0.022513103
0.0077437144 0.032168068 -0.033384405 0.014681268 -0.041542612 0.0108972015 0.007343771 0.0027364665
-0.0023850794 0.020839842 -0.014300946 -0.15552224 0.03912845 0.027062677 0.03580004 0.025382219
0.0032302772 0.05882067 -0.08958681 -0.13659358 -0.061238874 0.13917248 0.03860995 0.018205162
-0.08228449 -0.031741094 -0.027497113 0.028140692 -0.004948742 0.052670818 -0.019861283 -0.06432965
-0.12798359 0.009766762 0.107239634 0.018040366 0.009559674 -0.16501802 4.5332297e-05 0.0791048
0.11773363 0.013326169 0.1312578 -0.020822965 0.15325622 -0.036615524 -0.051631525 -0.0064363917
0.07977664 -0.06511008 -0.02802978 0.061917923 0.019178662 -0.051407542 -0.07867317 -0.077536814
0.019224267 0.02450073 0.073154084 -0.065325856 -0.057716846 -0.06822811 0.02722842 0.11251612
0.028961461 -0.009805435 -0.025173359 0.14663424 -0.020979337 -0.061890896 -0.03365559 0.0070949253
0.033256922 -0.05169225 0.13019079 0.0138336625 0.031623892 0.053255785 0.009553343 -0.027694406
0.042920906 0.065863684 0.0049566054 -0.028729724 0.051528096 -0.01406159 -0.045758594 -0.03512035
-0.019780943 0.044426385 0.045262437 -0.04843833 -0.026283978 0.010861882 0.069191225 0.046534285
0.0006788084 -0.03195008 0.03087494 0.042846024 0.015925227 -0.01778586 0.031515826 0.05234225
0.08201713 -0.041599926 0.04912922 -0.0543569 0.05345622 0.0155393 0.038594846 0.08760864
0.029408114 -0.0018887343 -0.02916445 0.017953215 0.03567568 0.096694626 0.024705004 0.118896365
-0.12092506 0.0064641256 -0.010263645 0.034989737 -0.08319204 0.029307216 -0.034473468 -0.13613062
-0.03798391 -0.06365248 0.013043594 0.004494181 0.11356948 0.053329244 -0.01766257 0.025664143
-0.013932668 0.09097598 -0.08618004 -0.0030173808 0.014636768 0.03552041 0.027103538 -0.009010475
0.0013308526 -0.02590953 0.04230794 0.009299756 -0.016403768 0.12682262 -0.017834308 0.005324607
0.031471428 0.065772526 0.10500383 0.014583189 -0.092834085 -0.0068542743 0.032909542 0.07654094
0.1382794 0.015665293 -0.011160699 0.054741208 0.047019556 0.011566564 -0.006451891 0.10473523
0.054185748 0.060523123 -0.038535476 -0.1000255 0.032706752 0.0036393947 -0.07359323 0.006320803
-0.01575517 0.036646865 -0.115754485 0.050987918 0.06785294 -0.010606133 0.082046986 0.022600893
-0.015318608 0.080477245 0.007749837 -0.025284896 -0.10221128 0.027703283 -0.013674624 -0.02158759
0.019311624 -0.10806611 0.04824461 0.07532809 0.0074695395 0.04085301 -0.036674127 0.06377017
0.02975169 -0.021226853 0.04040315 -0.0076435506 -0.00057627703 -0.03668881 -0.117817886 0.03966875
-0.003016489 0.06266414 -0.0498281 -0.0071858177 -0.032779273 0.048691466 0.0011172396 -0.051403724
0.10815587 -0.049487013 -0.057358053 0.059839398 -0.0933248 0.029992677 -0.01912848 0.018720107
-0.015079683 0.15427315 0.035704978 -0.041606892 -0.03924436 -0.0044400133 0.026852557 -0.062399868
-0.0148152625 0.0400714 -0.026329363 0.04702593 -0.11888658 0.039959945 -0.024046155 -0.08748034
