model/bert_dnn_2.model (torch, 4854 bytes, 1 tensors)

weight f4 [1, 768]
-0.03269791 -0.08373118 0.045521077 -0.020513318 0.01686506 0.003350642 0.009073725 0.02584983
-0.0315013 0.012716601 0.026480973 -0.012508869 0.009160631 -0.027739054 -0.0023038858 0.015721586
-0.004129491 0.02931364 -0.042001307 0.027811691 -0.00640233 -0.008356866 -0.024426673 0.005844287
-0.0013612239 0.0059019392 -0.022392482 -0.12759238 0.03527404 0.023351751 0.03753316 0.022053186
0.028547913 0.03967968 -0.052291173 -0.07069679 -0.060369834 0.08498787 0.033171833 0.018576646
-0.060196936 -0.03205788 -0.03775718 0.017720327 0.0138639435 0.057727516 -0.021872886 -0.05285974
-0.07599579 -0.00453247 0.06699879 0.017356424 -0.0010696782 -0.087404884 0.008566767 0.061190948
0.09109652 0.0060196547 0.09199565 -0.0050322767 0.10697667 -0.02990871 -0.0451924 -0.009020644
0.08397969 -0.0679971 -0.03232732 0.030578846 0.017366925 -0.04858457 -0.06432084 -0.054680835
0.016868886 0.014123444 0.056582507 -0.04891013 -0.034431282 -0.050276544 0.008876537 0.07881592
0.034590393 -0.012432011 -0.014766027 0.1062097 -0.009402783 -0.038015094 -0.020673055 0.0089826025
0.04331702 -0.0401249 0.06903711 0.011814764 0.030242864 0.044646624 0.017136963 -0.0006616497
0.037978835 0.06029263 -0.014208408 -0.03295389 0.01935586 -0.01749172 -0.043902274 -0.02306355
-0.026943631 0.046013307 0.057866216 -0.059303485 -0.018959865 0.0022601115 0.04878446 0.047628153
-0.0015357806 -0.030075055 0.055251226 0.018848507 0.032717198 -0.0070163845 0.024938226 0.02278574
0.060039297 -0.032638166 0.043095145 -0.04192249 0.02886083 0.02338402 0.042108174 0.0626638
0.029268103 0.009910154 -0.03280784 0.0329238 0.02614287 0.065325975 0.022294817 0.095029525
-0.081660025 0.009534285 -0.008564367 0.021106433 -0.04580152 0.03950633 -0.012447832 -0.10363826
-0.038319785 -0.055299073 0.03499427 -0.0045022494 0.06975041 0.040888812 -0.008168551 0.018328095
-0.00964742 0.06403183 -0.08159308 -0.014400624 -0.017463585 0.031642344 0.01816722 -0.0070768986
-0.012789961 -0.012021516 0.036308005 0.018424738 0.0023308094 0.097923 -0.007604381 -0.011343065
0.017342903 0.07206562 0.048468 -0.0024560879 -0.082483925 0.0029993842 0.012043439 0.07196807
0.10364242 0.02121843 -0.009428013 0.050378043 0.05797273 0.013394266 -0.0021076812 0.07666102
0.06147722 0.05039175 -0.016014062 -0.07663472 0.030925753 -0.0027936508 -0.044555392 0.00074056897
-0.012120486 0.035209198 -0.08964181 0.014212128 0.0663825 0.016120622 0.05413859 0.021783894
-0.013479263 0.063546054 0.004051563 -0.053033073 -0.076368004 0.027373223 -0.022227155 -0.025627812
-0.014370256 -0.0978829 0.027055005 0.06961231 0.009605187 0.026377639 -0.03625726 0.05159613
0.04253362 -0.041783605 0.014469275 -0.0118506765 -0.006018303 -0.03773536 -0.081707396 0.008854881
-0.02509375 0.044201516 -0.048247833 -0.00020723788 -0.0381426 0.046914514 -0.0033553115 -0.044142127
0.07919498 -0.019459654 -0.049555 0.05542151 -0.07605466 0.041011035 -0.023038322 0.01597455
-0.013218182 0.110777006 0.035706207 -0.031762637 -0.016780112 -0.0037152867 0.028187908 -0.065754965
0.0029838923 0.04465276 -0.028933916 0.030710358 -0.097733825 0.04692037 -0.001644471 -0.07843058
00000000: 3eee 05bd 417b abbd 4f74 3a3d 8c0b a8bc
00000010: 9828 8a3c 7296 5b3b f6a9 143c 06c3 d33c
00000020: 8207 01bd 4a59 503c a0ee d83c 00f2 4cbc
00000030: 7916 163c 033d e3bc cafc 16bb 8eca 803c
00000040: ae50 87bb 2923 f03c 9009 2cbd 58d5 e33c
00000050: a3ca d1bb 3deb 08bc 721a c8bc 6f81 bf3b
00000060: 186b b2ba 0e65 c13b 7070 b7bc 94a7 02be
00000070: 837b 103d 2c4c bf3c 5fbc 193d e2a8 b43c
00000080: 50dd e93c 2987 223d 452f 56bd 7bc9 90bd
00000090: 5c46 77bd 1f0e ae3d 30df 073d 0d2e 983c
000000a0: 1091 76bd 204f 03bd 46a7 1abd 382a 913c
000000b0: 9825 633c b073 6c3d c42e b3bc 7483 58bd
000000c0: aea3 9bbd 1d85 94bb a936 893d 0f2f 8e3c
000000d0: 7234 8cba 5501 b3bd a05b 0c3c 5ca3 7a3d
000000e0: d090 ba3d 8640 c53b 3768 bc3d cce5 a4bb
000000f0: 9616 db3d 1c03 f5bc ab1b 39bd 53cb 13bc
00000100: 8bfd ab3d 1042 8bbd a769 04bd 7d80 fa3c
00000110: 1545 8e3c 9d00 47bd a5ba 83bd 03f9 5fbd
00000120: 9e30 8a3c 0566 673c 0fc3 673d fd55 48bd
00000130: d107 0dbd c7ee 4dbd e56e 113c 3e6a a13d
00000140: a8ae 0d3d a2af 4bbc 35ed 71bc 7984 d93d
00000150: 210e 1abc b7b5 1bbd 8a5a a9bc c42b 133c
00000160: 306d 313d 025a 24bd 5463 8d3d b692 413c
00000170: e2bf f73c 61df 363d d162 8c3c 8f72 2dba
00000180: b28f 1b3d 68f5 763d 62ca 68bc a8fa 06bd
00000190: 2e90 9e3c cc4a 8fbc dfd2 33bd c5ef bcbc
000001a0: e4b8 dcbc 7378 3c3d 2005 6d3d 36e8 72bd
000001b0: b851 9bbc 611e 143b 37d2 473d bd15 433d
000001c0: 3f4c c9ba f65f f6bc 1c4f 623d 2f68 9a3c
000001d0: 7802 063d b3e9 e5bb 404b cc3c 29a9 ba3c
000001e0: c4eb 753d 99af 05bd 8984 303d ebb6 2bbd
000001f0: 8c6d ec3c d88f bf3c 9f79 2c3d e155 803d
00000200: a9c3 ef3c 335e 223c 8361 06bd 1bdb 063d
00000210: 9229 d63c a0c9 853d 9fa3 b63c d79e c23d
00000220: 5f3d a7bd b135 1c3c 8f51 0cbc 66e7 ac3c
00000230: 609a 3bbd 64d1 213d fef1 4bbc 4c40 d4bd
00000240: 35f5 1cbd 4881 62bd 2756 0f3d 9b87 93bb
00000250: 4ed9 8e3d 077b 273d 63d5 05bc cd24 963c
00000260: 3610 1ebc 1f23 833d 461a a7bd 98f0 6bbc
00000270: cb0f 8fbc 679b 013d 6cd3 943c 54e5 e7bb
00000280: fc8c 51bc e5f5 44bc b4b7 143d 7aef 963c
00000290: 7ec0 183b db8b c83d 2c2e f9bb 43d8 39bc
000002a0: b412 8e3c 2497 933d 6286 463d 51f6 20bb
000002b0: 55ed a8bd 5191 443b d851 453c ff63 933d
000002c0: 7a42 d43d 46d2 ad3c f477 1abc 3559 4e3d
000002d0: d074 6d3d a073 5b3c 0621 0abb 7400 9d3d
000002e0: 8acf 7b3d 9467 4e3d ec2f 83bc aaf2 9cbd
000002f0: 0158 fd3c af15 37bb b77f 36bd be22 423a
00000300: 0195 46bc 8537 103d 2096 b7bd fcd9 683c
00000310: 8cf3 873d 650f 843c 6dc0 5d3d 2374 b23c
00000320: 20d8 5cbc 6f24 823d f9c2 843b 3539 59bd
00000330: d466 9cbd cf3d e03c b915 b6bc 6bf1 d1bc
00000340: 3971 6bbc d476 c8bd 75a2 dd3c e690 8e3d
00000350: 135f 1d3c eb15 d83c 7e82 14bd 7756 533d
00000360: bc37 2e3d 4925 2bbd 8a10 6d3c 5729 42bc
00000370: 2f35 c5bb 6590 1abd 3556 a7bd 1014 113c
00000380: 6891 cdbc a60c 353d 859f 45bd ff4d 59b9
00000390: 6a3b 1cbd 6f29 403d c9e4 5bbb 60ce 34bd
000003a0: fa30 a23d da69 9fbc 2ffa 4abd aa01 633d
000003b0: 8cc2 9bbd 30fb 273d ddba bcbc 0fdd 823c
000003c0: 1391 58bc 0edf e23d ac40 123d 8a19 02bd
000003d0: 7276 89bc 2b7c 73bb 54ea e63c 8aaa 86bd
000003e0: 688d 433b d0e5 363d d206 edbc 4a94 fb3c
000003f0: ac28 c8bd 932f 403d 4a8b d7ba 36a0 a0bd
