model/lstm_4.model (torch, 669851 bytes, 17 tensors)

weight_ih_l0 f4 [256, 64]
0	0xbd52a44b	-0.051426213
1	0x3c98d57c	0.018656485
2	0xbd8ce6e3	-0.06879976
3	0xbe1f083b	-0.15530483
4	0xbdc15203	-0.094394706
5	0x3d4b5e4f	0.049650487
6	0x3d11c4ea	0.035588183
7	0xbc607eb3	-0.013702082
8	0x3db53727	0.0884841
9	0x3a4f0624	0.00078973384
10	0xbddc2206	-0.10748677
11	0x3cc35c64	0.023847766
12	0xbd8d8aab	-0.069112144
13	0x3e18252f	0.14857934
14	0xbbeeaffb	-0.007284162
15	0x3d1c34d2	0.03813631
16	0xbc030d81	-0.007998825
17	0xbb92366a	-0.004462053
18	0x3d28aab2	0.041178413
19	0x3da31c1c	0.07964346
20	0xbdc30f21	-0.0952437
21	0x3cce9b22	0.025220457
22	0x3df33e70	0.118771434
23	0xbdb1f52b	-0.0868934
24	0x3c345cbc	0.011008438
25	0xbd0889b0	-0.033334434
26	0x3bb945f7	0.0056540924
27	0xbbf5493f	-0.0074855383
28	0x3dd68acd	0.10475693
29	0xbe01126e	-0.12604687
30	0xbd986bcb	-0.07442435
31	0x3d62d941	0.05538297
32	0xbdaca0ef	-0.08429133
33	0x3d8e4939	0.0694756
34	0xbd2fc21b	-0.042909723
35	0x3db0bf58	0.08630246
36	0x3d223479	0.039600823
37	0xbdca9615	-0.09891907
38	0x3d3abc3d	0.045589674
39	0xbd8f7cdb	-0.07006236
40	0xbd4528ba	-0.048134543
41	0xbdbc8c41	-0.09206439
42	0x3d53f8df	0.051751014
43	0x3df20f0e	0.11819278
44	0xbb8153ee	-0.003946773
45	0x3dbee78a	0.09321506
46	0xbd501a1d	-0.050806154
47	0x3e16aac5	0.14713581
48	0x3d165fab	0.03671233
49	0xbd03a0ca	-0.032135762
50	0xbdff081c	-0.124527186
51	0x3ce50fa7	0.027961565
52	0xbb4bb6a5	-0.0031084206
53	0x3db2112d	0.08694682
54	0xbd031a91	-0.032007758
55	0xbd3feda2	-0.046857484
56	0xbe24c24a	-0.1608974
57	0xbdb15b58	-0.086600006
58	0x3d67dc98	0.05660686
59	0x3db562a9	0.088567086
60	0xbe22cf23	-0.15899329
61	0x3d64e1c0	0.055879354
62	0xbd943621	-0.07236887
63	0x3c5add4c	0.013358425
64	0xb9ade929	-0.0003317085
65	0x3d717668	0.05895081
66	0xbdc5a536	-0.09650652
67	0x3cab5be1	0.020917835
68	0xbd8c0385	-0.06836609
69	0x3d94bcc5	0.072625674
70	0x3d3c048b	0.04590277
71	0xbde86a7d	-0.11348436
72	0xbd911390	-0.070838094
73	0x3dad6b3e	0.084677204
74	0x3b731ed4	0.0037097232
75	0x3dbd2a70	0.0923661
76	0x3ced21c4	0.028946765
77	0x3e00536a	0.1253182
78	0x3dbe8f55	0.09304682
79	0x3db8d848	0.090256274
80	0xbb34982e	-0.0027556526
81	0xbd8aded7	-0.067807846
82	0xbdb38ff7	-0.087676935
83	0xbcdcaaac	-0.026936851
84	0x3dd2dca5	0.10295991
85	0xbdc77e78	-0.09740919
86	0x3d09af82	0.033614643
87	0xbdb5b9e2	-0.08873345
88	0x3cce74fb	0.025202265
89	0x3defbc3b	0.11705824
90	0x3daccc19	0.08437366
91	0xbcdee5ab	-0.027209124
92	0x3da1a2bb	0.078923665
93	0x3da5a9b5	0.0808901
94	0x3dd02cbb	0.10164782
95	0xbc2664c5	-0.010155861
96	0x3dc4634d	0.095892526
97	0x3d68edb7	0.056867328
98	0xbda5ae9a	-0.08089943
99	0xbcd427dd	-0.025897915
100	0x3d561806	0.052269004
101	0xbe0798f6	-0.13241944
102	0xbd62cf48	-0.05537346
103	0x3d7d4998	0.061837763
104	0xbd07b8a0	-0.033135056
105	0x3b94fe9d	0.004546954
106	0x3d0746f9	0.03302667
107	0x3dc129bb	0.094317876
108	0x3d518417	0.05115136
109	0x3ded7b0c	0.11595735
110	0x3d7d6efc	0.06187342
111	0x3d6d1e86	0.057890438
112	0xbd0e836d	-0.034793306
113	0xbaa39d52	-0.0012482798
114	0x3d261796	0.040549837
115	0x3d95d3e4	0.073158056
116	0x3b1d5ad4	0.0024010437
117	0x3d08633b	0.03329776
118	0xbd1bbc42	-0.038021334
119	0xbd728065	-0.059204478
120	0xbdd15446	-0.10221152
121	0x3d7fc68e	0.062445216
122	0x3caeede4	0.02135367
123	0xbdd42f4b	-0.10360583
124	0xbba19d81	-0.004932106
125	0x3d8b2bd5	0.0679547
126	0x3cc0bc42	0.023527268
127	0x3e059fb1	0.13049199
128	0x3d90ddc8	0.070735514
129	0x3df848de	0.12123273
130	0xbdde0bb4	-0.10842076
131	0xbdb143c0	-0.086555004
132	0x3ce821b9	0.028336393
133	0xbac68219	-0.0015144973
134	0x3d2cb4b4	0.04216452
135	0xbda3439d	-0.079718806
136	0xbdb8f669	-0.09031374
137	0xbc3d3191	-0.011547462
138	0xbdaf62a3	-0.08563735
139	0x3da995e3	0.08280542
140	0x3e0778a1	0.1322961
141	0xbca551c1	-0.020180585
142	0xbd5b513b	-0.053544264
143	0x3cc6ad59	0.02425258
144	0x3d1e091a	0.0385829
145	0xbccd94a4	-0.025095291
146	0xbbd69442	-0.0065484354
147	0xbe0e4527	-0.13893567
148	0x3b832aa7	0.0040028873
149	0x3d94c2f2	0.07263745
150	0xbd28f62f	-0.041250404
151	0x3de30b89	0.110861845
152	0xbc41bdfa	-0.011825079
153	0x3cf902fb	0.030396929
154	0xbd2567de	-0.04038226
155	0x3dbf3688	0.09336573
156	0x3d284ea4	0.041090623
157	0x3db0621c	0.08612463
158	0xbd567b01	-0.0523634
159	0xbd03adb0	-0.032148063
160	0x3d7bce85	0.06147625
161	0xbdeef5cb	-0.11667975
162	0xbdf54895	-0.119767345
163	0x3df487c3	0.11939957
164	0xbc096521	-0.008385927
165	0xbd90ec7d	-0.070763566
166	0xbc39a09a	-0.011329794
167	0xbc9a5b5a	-0.018842388
168	0xbdb92ca8	-0.09041721
169	0xbd5143b7	-0.05108997
170	0x3c515060	0.012775511
171	0x3dd32ffb	0.10311886
172	0xbcce8bb5	-0.025213102
173	0xbdd9b859	-0.10630865
174	0x3d490835	0.049080092
175	0x3c72b069	0.014812567
176	0x3d81de41	0.0634122
177	0xbd88de3b	-0.06683012
178	0xbd196f4b	-0.037459653
179	0x3cbdf556	0.023188274
180	0x3d889f0d	0.066709615
181	0x3d1b641a	0.03793726
182	0x3d18e954	0.037331894
183	0x3c9b8a9f	0.018986998
184	0xbd8041dc	-0.06262562
185	0x3dbb4327	0.09143668
186	0x3df06059	0.11737127
187	0xbd00c42a	-0.031437077
188	0xbde72b94	-0.11287609
189	0x3db9627f	0.0905199
190	0xbce6afcb	-0.028159996
191	0x3d395660	0.04524839
192	0x3df1b6a4	0.11802414
193	0x3d4b7b58	0.049678177
194	0xbd94afeb	-0.07260116
195	0xbba4db55	-0.005031029
196	0xbcc7634a	-0.024339337
197	0xbce6ec58	-0.02818887
198	0x3dd154fe	0.10221289
199	0xbdd2eaf0	-0.10298717
200	0x3d1c1f8b	0.03811602
201	0xbd0dd085	-0.034622688
202	0x3dfceff8	0.12350458
203	0x3d714f1b	0.05891333
204	0x3d32bce0	0.043637156
205	0x3c80b2d6	0.015710276
206	0xbbfd58ee	-0.0077315485
207	0x3de24310	0.110479474
208	0xbcfa1d53	-0.030531561
209	0xbdde723f	-0.108616345
210	0xbd50f8e7	-0.05101862
211	0xbdbe68ba	-0.09297319
212	0xbd408526	-0.04700198
213	0x3dc8c376	0.09802906
214	0x3d92e17b	0.07171913
215	0x3c9129a3	0.01772005
216	0xbd2101af	-0.039308246
217	0x3c679381	0.014134289
218	0x3dafd97e	0.08586405
219	0xbca924af	-0.020647375
220	0xbe1eb738	-0.1549958
221	0xbd32826f	-0.043581422
222	0xbd8b7427	-0.06809264
223	0x3d22c014	0.03973396
224	0x3d231ecf	0.039824303
225	0xbd2a90f1	-0.041642133
226	0xbdce7c9f	-0.10082363
227	0xbd469c20	-0.048488736
228	0x3d0e33f5	0.03471752
229	0x3dc30773	0.09522905
230	0xbe1ef4c4	-0.15523058
231	0xbde570f9	-0.112031884
232	0x3dccc90a	0.09999283
233	0x3d5ec175	0.054383714
234	0xbd0477fa	-0.03234098
235	0xbde51774	-0.11186114
236	0xbe1abdab	-0.15111415
237	0x3dcf73f1	0.10129536
238	0xbdd21dd5	-0.10259596
239	0x3dd3b9c6	0.10338168
240	0x3d7b5f76	0.061370336
241	0xbd792b6a	-0.06083242
242	0xbd92cebd	-0.071683384
243	0xbd252325	-0.04031672
244	0x3be82267	0.007084179
245	0x3d4184c2	0.04724575
246	0xbd9cfbe5	-0.076652326
247	0x3da73ba9	0.08165676
248	0x3db585f7	0.088634424
249	0xbd84f653	-0.06492295
250	0xbd27f4cd	-0.041004945
251	0x3dc0c017	0.09411638
252	0xbccb2ba4	-0.024801083
253	0x3d4f7f1f	0.05065834
254	0x3ddad8c2	0.106858745
255	0x3d9b2561	0.07575489

weight_hh_l0 f4 [256, 64]
0	0xbdd24c60	-0.102684736
1	0x3df57dd3	0.1198689
2	0xbd1644f3	-0.03668685
3	0x3de8672c	0.113478035
4	0xbd94d1c6	-0.072665736
5	0x3de81be7	0.11333447
6	0x3d7eb08a	0.06218008
7	0x3d2396e0	0.039938807
8	0x3e2b5a4c	0.16733664
9	0x3c15756a	0.009122232
10	0xbdfb373e	-0.12266396
11	0xbcee5cf6	-0.029097062
12	0xbd170488	-0.036869556
13	0xbce69034	-0.028144933
14	0x3d695b09	0.056971584
15	0xbd651824	-0.055931225
16	0x3d7af9f7	0.06127354
17	0xbd44728e	-0.04796081
18	0x3dcba0c8	0.09942776
19	0xbd019217	-0.031633463
20	0x3d401421	0.046894196
21	0x3ce64239	0.02810775
22	0x3db3bf1c	0.087766856
23	0xbd97b35e	-0.074072585
24	0x3d26bf36	0.040709697
25	0x3dc14aae	0.09438072
26	0x3a1003c3	0.00054937246
27	0xbcad3649	-0.02114405
28	0xbc022bd6	-0.007945022
29	0xbda85404	-0.0821915
30	0xbe08a44b	-0.13343923
31	0xbdffc814	-0.12489334
32	0x3df6e3ae	0.12055145
33	0x3d110120	0.035401464
34	0x3d0e6eb3	0.03477354
35	0xbd864728	-0.06556541
36	0x3dfbb54e	0.122904405
37	0x3dcd76fc	0.1003246
38	0x3d7d22d2	0.061800785
39	0xbb5a5ee1	-0.0033320712
40	0x3d04d7a8	0.03243223
41	0xbd1965d4	-0.037450626
42	0x3dd27ec0	0.10278082
43	0x3daa247a	0.083077386
44	0xbdcafedc	-0.09911892
45	0x3ca2219f	0.019791422
46	0xbb80e679	-0.0039337245
47	0xbe04816e	-0.12939999
48	0xbd1980d3	-0.037476372
49	0x3cc9ceda	0.024634767
50	0x3d150ef1	0.036391202
51	0x3af841a3	0.001894046
52	0xbd703007	-0.058639552
53	0x3bb7da30	0.005610727
54	0x3ddb25ad	0.107005455
55	0xbd326265	-0.043550868
56	0xbdce187f	-0.10063266
57	0x3daa258b	0.08307942
58	0xbe05729a	-0.13031998
59	0xbbe591a3	-0.0070058866
60	0xbe21f00b	-0.15814225
61	0x3d5a5858	0.053306907
62	0x376b162a	1.4012252e-05
63	0xbb474646	-0.0030406876
64	0x3d777180	0.060410976
65	0xbdfb531a	-0.1227171
66	0xbd88f639	-0.06687588
67	0xbc92d0ea	-0.017921884
68	0x3d99b54c	0.07505283
69	0x3d39b01b	0.045333963
70	0xb9ea1dba	-0.00044654106
71	0xbe135257	-0.14386879
72	0xbdc741e2	-0.09729363
73	0x3d07f6b6	0.033194266
74	0xbdd7b0ad	-0.10531745
75	0x3dc394c6	0.09549861
76	0xbd985b8a	-0.07439335
77	0x3ca6a1a6	0.020340752
78	0xbda2e34b	-0.07953509
79	0xbe1735e0	-0.14766645
80	0xbd1127c5	-0.035438318
81	0xbdc57880	-0.09642124
82	0x3df2a256	0.118473694
83	0xbdb36895	-0.08760182
84	0xbdac5290	-0.08414185
85	0x3b7d5a93	0.0038658723
86	0xbe08c24a	-0.13355365
87	0xbd8c6ad8	-0.06856316
88	0x3db62246	0.08893256
89	0x3db44374	0.08801928
90	0x3d2b61a0	0.04184115
91	0x3cd13b40	0.025540948
92	0x3dab26f8	0.08357042
93	0xbad53a9b	-0.0016268076
94	0x3d8ccd9b	0.06875154
95	0xbdf45725	-0.11930684
96	0x3d0f2407	0.034946468
97	0xbd8632eb	-0.065526806
98	0xbce0d601	-0.027445795
99	0xbc1ce33d	-0.009575662
100	0xbc3819f3	-0.0112366555
101	0x3d0b7ec4	0.03405644
102	0x3de5485c	0.11195442
103	0xbc81df0e	-0.015853431
104	0xbe09b54f	-0.1344807
105	0x3d9b504a	0.07583673
106	0xbd105543	-0.035237562
107	0x3d86eb80	0.06587887
108	0xbc853bdb	-0.016263893
109	0xba9c92de	-0.0011945625
110	0xbc2769be	-0.010218082
111	0x3db3eb28	0.08785087
112	0x3e24337b	0.16035263
113	0x3cdd91ca	0.027047057
114	0xbde427bb	-0.111403905
115	0xbdd1549e	-0.102212176
116	0x3db08d31	0.0862068
117	0x3dc943f7	0.098274164
118	0xbc47fa11	-0.012205617
119	0x3d88c57f	0.066782944
120	0x3d4463f1	0.047946874
121	0xbc79a89b	-0.015237953
122	0xbc6fd3c6	-0.014637893
123	0xbdb110a6	-0.086457536
124	0x3d211914	0.039330557
125	0x3d89fff3	0.067382716
126	0x3dc07f7e	0.09399317
127	0xbd6c153b	-0.057637434
128	0x3d7d25d3	0.06180365
129	0x3dddec4f	0.10836088
130	0x3db46f81	0.0881033
131	0x3deec6ca	0.1165901
132	0x3da25f57	0.07928341
133	0xbc9f66a1	-0.019458117
134	0xbdc42a67	-0.095784
135	0xbb914ace	-0.0044339662
136	0xbd66169b	-0.056173902
137	0xbcc420be	-0.023941394
138	0xbdc8fb7f	-0.09813594
139	0x3cfe1ba2	0.031019036
140	0x3d4e1336	0.05031129
141	0xba1809ae	-0.0005799782
142	0xbc0aa97f	-0.008463263
143	0x3ca4d9db	0.020123413
144	0xbddfee3e	-0.10934113
145	0xba98d344	-0.0011659642
146	0xbd72ce79	-0.05927894
147	0x3d782b01	0.060587887
148	0xbcbd36d4	-0.023097433
149	0xbd8dcd5a	-0.06923933
150	0xbe01df4a	-0.12682834
151	0xbe07ab3f	-0.13248919
152	0x3d0cbacb	0.034357827
153	0xbd3dea14	-0.046365812
154	0xbd0a3f1b	-0.03375159
155	0xbdfe2818	-0.12409991
156	0xbde173b8	-0.110084
157	0x3dfea902	0.124345794
158	0x3cc241c9	0.02371301
159	0x3c870a06	0.016484272
160	0xbd41fe33	-0.047361564
161	0x3d181c86	0.037136577
162	0x3c5a652a	0.013329783
163	0xbd444d2b	-0.047925156
164	0x3df0f212	0.11764921
165	0x3dba0faa	0.09085019
166	0x3c652934	0.013986874
167	0xbdd0270a	-0.10163696
168	0x3dc4d0ed	0.09610162
169	0xbcd8bf12	-0.026458297
170	0xbbc6778f	-0.006056733
171	0x3d7adefc	0.06124781
172	0xbd8a3b62	-0.067496076
173	0xbd4038a8	-0.04692903
174	0x3d71c9ba	0.059030272
175	0x3dbbb88b	0.09166058
176	0x3dca0eee	0.09866129
177	0x3cc8fc9c	0.024534516
178	0x3d9df44f	0.07712614
179	0x3e029355	0.12751515
180	0xbd982617	-0.0742914
181	0x3dfdc72b	0.12391504
182	0x3dd80e96	0.10549657
183	0x3de760e7	0.112977795
184	0xbd926991	-0.071490414
185	0xbd80bd38	-0.062860906
186	0x3ddd364a	0.108013704
187	0x3baac6eb	0.005211701
188	0xbda1d981	-0.07902814
189	0x3d8d2a7d	0.068928696
190	0x3d4214c0	0.04738307
191	0xbdc8b5fc	-0.09800336
192	0xbd46233c	-0.048373446
193	0x3da9c187	0.082888655
194	0x3d194424	0.0374185
195	0xbd412729	-0.047156487
196	0xbd7daca2	-0.061932214
197	0xbdda247e	-0.106514916
198	0x3d7e2acf	0.062052544
199	0xbdf1f3b3	-0.1181406
200	0xbc9f8f00	-0.019477367
201	0x3d246ac3	0.04014088
202	0x3c32a6f6	0.010904064
203	0xbdb33c35	-0.08751718
204	0x3bfe1b20	0.0077546984
205	0x3d5c459b	0.05377732
206	0xbde57ffc	-0.11206052
207	0xbd428b6f	-0.047496255
208	0xbdf8f0f8	-0.12155336
209	0x3ddb6774	0.107130915
210	0xbd9e2550	-0.077219605
211	0xbaaee3ac	-0.0013342998
212	0xbda54c4e	-0.080711946
213	0x3c9b358e	0.018946435
214	0xbdd1e658	-0.10249013
215	0x3d405626	0.046957158
216	0x3c941be9	0.018079715
217	0x3da82b0f	0.08211338
218	0xb9bca77c	-0.0003598294
219	0xbdbe1c22	-0.0928271
220	0xbcc6c128	-0.024262026
221	0x3d892114	0.06695762
222	0xbbcc381f	-0.006232276
223	0x3da31b42	0.079641834
224	0x3d010ae7	0.031504538
225	0x3cb41dc9	0.021986859
226	0xbdb11c6d	-0.08648
227	0x3d0f9a97	0.035059538
228	0xbe059a37	-0.1304711
229	0x3deda4f1	0.11603726
230	0xbd690aae	-0.05689495
231	0x3da52461	0.08063579
232	0x3d26e8b3	0.040749263
233	0x3e1560d8	0.14587724
234	0xbd952f81	-0.07284451
235	0x3d88a2be	0.066716656
236	0x3de61e6d	0.11236272
237	0x3deb2529	0.11481697
238	0xbda420a8	-0.08014041
239	0x3d368160	0.044556975
240	0x3d8e2ab3	0.06941738
241	0xbe29ac61	-0.16569664
242	0x3dc3edbe	0.0956683
243	0xbd9d0eb4	-0.0766882
244	0x3da55d6a	0.08074458
245	0x3c975eea	0.018477876
246	0x3d450e43	0.048109304
247	0x3cbd81ae	0.023133125
248	0xbd87db79	-0.06633658
249	0xbd7c37ee	-0.061576776
250	0x3dccec88	0.10006052
251	0xbddc179e	-0.10746692
252	0xbd76fba0	-0.060298562
253	0x3de122c2	0.10992958
254	0x3ccec167	0.025238706
255	0x3d972fb2	0.07382144

bias_ih_l0 f4 [256]
0	0x3e073e1d	0.13207288
1	0xbce3576d	-0.027751649
2	0x3de200b2	0.11035289
3	0xbd07f54a	-0.03319291
4	0xbc8e0ce6	-0.017340135
5	0x3d55cb0a	0.052195586
6	0x3dffc02e	0.12487827
7	0x3e058bd7	0.13041626
8	0xbcc76881	-0.024341824
9	0x3d3e7fd5	0.04650863
10	0x3d945977	0.072436266
11	0xbce93247	-0.028466357
12	0xbda97b8b	-0.08275517
13	0x3e0b6bfb	0.1361541
14	0xbd413ea4	-0.04717888
15	0xbcdee1d3	-0.02720729
16	0x3e090e42	0.13384345
17	0x3df02248	0.11725289
18	0xbc271e7a	-0.010200137
19	0x3d5343b8	0.051578254
20	0x3d95971f	0.07304215
21	0x3d947c56	0.07250278
22	0xbdbfa4c1	-0.09357596
23	0xbd41ea36	-0.0473425
24	0x3defca7a	0.11708541
25	0xbd0b4ac6	-0.034006856
26	0x3da032f3	0.07822218
27	0x3d9099b7	0.07060569
28	0x3d03b5d3	0.032155823
29	0x3d0cbbea	0.034358896
30	0x3c96469e	0.01834422
31	0x3e003b0a	0.12522522
32	0xbd940f8e	-0.07229529
33	0xbe032813	-0.12808256
34	0xbd5f983c	-0.05458854
35	0xbdb059ef	-0.086109035
36	0x3d4e1cc0	0.050320387
37	0xbd990938	-0.074724615
38	0xbdf0238a	-0.117255285
39	0x3d978094	0.07397571
40	0xbd38dda3	-0.045133244
41	0x3ddc2b01	0.1075039
42	0x3df4a278	0.11945051
43	0x3ca1822e	0.019715395
44	0xbd516407	-0.051120784
45	0xbb00123b	-0.0019542116
46	0xbdb56556	-0.08857219
47	0xbd96b067	-0.07357865
48	0xbd0f8506	-0.03503897
49	0x3db623d7	0.08893555
50	0x3dd2a16f	0.10284697
51	0xbbce7b1c	-0.006301297
52	0x3dae8f21	0.085233934
53	0xbd5ca9ce	-0.053872876
54	0xbcccaf1c	-0.024985842
55	0xbd8184af	-0.063241355
56	0xbd978b34	-0.07399598
57	0x3d8a8794	0.06764141
58	0x3d766f5b	0.06016479
59	0x3dd9e8f2	0.10640134
60	0x3db998c6	0.09062342
61	0x3d27fa5d	0.04101025
62	0x3d561ccf	0.052273568
63	0x3bae2a41	0.0053150957
64	0xbc1716d9	-0.009221756
65	0xbd6db477	-0.058033433
66	0x3deeb56c	0.11655697
67	0xbdc20295	-0.09473149
68	0x3bd88a79	0.006608304
69	0xbd5d7299	-0.054064367
70	0x3c0cfbd9	0.008604967
71	0xbd314a29	-0.043283615
72	0x3e02c79f	0.12771462
73	0x3ded4b97	0.11586683
74	0x3dc8670c	0.0978528
75	0xbdce2331	-0.10065306
76	0xbd95ee52	-0.073208466
77	0xbdbb3314	-0.09140602
78	0xbd9c4b21	-0.07631517
79	0x3df13ec3	0.11779549
80	0xbc6ac4f8	-0.014329188
81	0xbdd5bdc8	-0.104365885
82	0x3d90bb0b	0.070669256
83	0x3cd889d4	0.02643291
84	0x3d457ce8	0.048214823
85	0xbc89bd50	-0.016813904
86	0xbdafd27c	-0.085850686
87	0xbd44e644	-0.04807116
88	0x3d0c919e	0.03431856
89	0x3df3fe15	0.11913697
90	0x3d7dc144	0.06195189
91	0xbdedd683	-0.116131805
92	0x3ccb1911	0.024792226
93	0x3dd7325a	0.10507651
94	0xbd329ce5	-0.043606658
95	0xbdac74bb	-0.08420702
96	0xbcc8aaa9	-0.02449544
97	0x3df3121c	0.118686885
98	0x3d1409bb	0.036142092
99	0x3cd34480	0.0257895
100	0xbd383d67	-0.044980433
101	0x3dbebf7a	0.09313865
102	0x3d996ad2	0.074910775
103	0x3dba552c	0.090982765
104	0x3da22814	0.079178005
105	0xbd5b0db5	-0.05347987
106	0xbd9c3c5a	-0.07628699
107	0x3e0be2c4	0.13660723
108	0xbd85b25e	-0.065281615
109	0xbd72cc31	-0.059276763
110	0xbdb7330a	-0.08945282
111	0x3d9736f5	0.07383529
112	0xbc686170	-0.014183387
113	0x3c1d9a54	0.009619314
114	0xbd6d9be8	-0.058010012
115	0x3ca2eded	0.019888842
116	0xbdfe6123	-0.12420871
117	0x3da425ae	0.08014999
118	0x3dbaf68a	0.09129055
119	0x3e0ba749	0.13638033
120	0xbdb42718	-0.08796519
121	0x3db23bec	0.087028354
122	0x3e065c0e	0.13121054
123	0x3d7fc0ea	0.062439837
124	0xbbf035a5	-0.0073306137
125	0xbda48f7f	-0.08035182
126	0xbdc5b70a	-0.096540526
127	0xbd7e4256	-0.06207498
128	0xbe03aaed	-0.12858172
129	0x3c94b44e	0.018152382
130	0xbdeb1947	-0.11479431
131	0x3d373c62	0.04473532
132	0x3c9eba59	0.019375967
133	0xbdd22ba2	-0.102622285
134	0x3db6cc45	0.0892568
135	0xbb74fd8d	-0.0037382573
136	0x3dd6f5b4	0.10496083
137	0x3d83aa3a	0.064289525
138	0xbc3cdb7e	-0.01152694
139	0xbcdff57a	-0.027338732
140	0xbc44d621	-0.012013943
141	0x3bae0507	0.005310658
142	0x3dea5b85	0.11443237
143	0xbc214fe4	-0.009845708
144	0xbdbfce10	-0.09365475
145	0x3e13fa33	0.14450912
146	0x3dc7a0be	0.09747456
147	0xbdc78d34	-0.09743729
148	0xbded0a7a	-0.11574264
149	0xbc938a83	-0.018010383
150	0xbdcffb47	-0.10155349
151	0xbdacd164	-0.084383756
152	0xbe008722	-0.12551549
153	0xbc1631b8	-0.009167127
154	0xbd9d0700	-0.07667351
155	0xbdc9bbe6	-0.09850292
156	0xbd30817b	-0.043092232
157	0xbd1147fe	-0.035469048
158	0x3d5e97ba	0.054343916
159	0xbd6aad10	-0.05729395
160	0xbd3664c0	-0.044529676
161	0x3d3cef4a	0.04612664
162	0x3dfeb7bb	0.124373876
163	0x3cad8b52	0.021184597
164	0x3e020cbc	0.1270017
165	0x3b94c3f7	0.0045399624
166	0xbe1eb125	-0.15497263
167	0xbd7fedb3	-0.062482547
168	0x3df83148	0.12118775
169	0x3d88c14d	0.06677494
170	0x3db67e6b	0.08910831
171	0x3d02ff97	0.03198203
172	0x3d93f4c6	0.07224421
173	0xbd395a68	-0.045252234
174	0x3b49222e	0.0030690539
175	0x3d01137f	0.031512734
176	0x3a87c6ef	0.001035897
177	0x3a652af0	0.0008742055
178	0x3d2b99d6	0.041894756
179	0xbd535d60	-0.05160272
180	0x3d847496	0.064675495
181	0x3d9f107a	0.077668145
182	0x3dda8136	0.10669176
183	0xbd6155da	-0.055013515
184	0x3df3792a	0.118883446
185	0xbd9b6cbf	-0.07589101
186	0x3dcd7a0f	0.100330465
187	0xbda6480f	-0.08119213
188	0xbc033f81	-0.008010746
189	0x3c1c08af	0.009523555
190	0xbbc4c255	-0.0060046115
191	0x3d9f8735	0.077894606
192	0xbc3d6419	-0.01155951
193	0x3ca68620	0.020327628
194	0x3d87c188	0.0662871
195	0xbdb322d6	-0.08746879
196	0xbd74c0a1	-0.059754018
197	0xbd0c7837	-0.034294333
198	0x3dcbf8b4	0.09959546
199	0xbdd681c4	-0.104739696
200	0xbdcf31a9	-0.10116894
201	0x3dad9c00	0.0847702
202	0xbd2f52bc	-0.04280351
203	0xbd9551b7	-0.072909765
204	0xbda98b86	-0.08278565
205	0x3d47d1ef	0.048784193
206	0x3aabcad3	0.0013106711
207	0xbc9f5747	-0.019450797
208	0xbd2e5387	-0.042560127
209	0xbd24786c	-0.040153906
210	0xbd6a7db7	-0.057248797
211	0xbd580450	-0.052738488
212	0xbb5df7b8	-0.0033869576
213	0x3ddd8575	0.108164705
214	0x3df1c25a	0.11804648
215	0x3d4431d8	0.047899097
216	0xbdb5f0f1	-0.088838466
217	0x3e1ab831	0.15109326
218	0x3cb55e3c	0.022139661
219	0x3de20c86	0.11037545
220	0x3d34e9b4	0.04416819
221	0x3de46edd	0.11153958
222	0xb8d2dd3f	-0.000100547906
223	0xbc9ff428	-0.019525602
224	0x3db8559c	0.09000704
225	0x3d690c85	0.056896705
226	0xbcd16a3e	-0.025563356
227	0xbdb18054	-0.08667055
228	0xbd90bc8b	-0.07067212
229	0xbd6a4145	-0.057191152
230	0xbdd647e6	-0.10462932
231	0x3c2859af	0.0102752885
232	0x3decfc60	0.11571574
233	0xbd1ed6f3	-0.03877921
234	0x3d88e11b	0.066835605
235	0x3db539b3	0.08848896
236	0x3e12e017	0.14343296
237	0xbd245f1a	-0.04012976
238	0xbc8fe31d	-0.01756435
239	0x3bab08c9	0.005219553
240	0x3e0a8cac	0.13530225
241	0x3d8140a7	0.063111596
242	0xbd97b9a0	-0.07408452
243	0xbd7cf404	-0.06175615
244	0xbd5b8491	-0.053593222
245	0x3d82b505	0.06382183
246	0xbd9b7f0e	-0.07592593
247	0xbd58839d	-0.05285989
248	0x3d051991	0.032495085
249	0xbd620ebc	-0.055189833
250	0x3e0b642e	0.13612434
251	0xbd9f9229	-0.0779155
252	0x3d1d1b87	0.03835633
253	0x3c86bfbf	0.016448854
254	0xbca5c06a	-0.020233352
255	0xbdb96077	-0.09051602

bias_hh_l0 f4 [256]
0	0xbd8a3289	-0.0674792
1	0xbdf0b7d9	-0.11753816
2	0x3d7f128c	0.062273547
3	0x3ddb59db	0.10710498
4	0xbb022c25	-0.0019862738
5	0xbc47490c	-0.012163412
6	0x3d80eb0c	0.06294832
7	0x3cb3d6c7	0.021953
8	0xbd872cd8	-0.0660035
9	0xbc2624c0	-0.010140598
10	0xbdcac9b4	-0.09901753
11	0xbdaeac46	-0.08528952
12	0x3dfe3ad9	0.12413568
13	0x3c97cf15	0.018531362
14	0xbd6663cc	-0.056247517
15	0x3dca8421	0.09888483
16	0x3c6b74cd	0.014371109
17	0x3d9c07d8	0.076186836
18	0xbabcaf54	-0.0014395514
19	0xbb8c5234	-0.0042822603
20	0xbd82d75e	-0.06388734
21	0xbd762558	-0.060094208
22	0x3dc6c61a	0.097057536
23	0x3d45aeff	0.048262592
24	0x3e02fc0c	0.12791461
25	0xbca7ed85	-0.020499
26	0xbdbc9014	-0.09207168
27	0xbd46560f	-0.048421916
28	0xbc7419de	-0.014898745
29	0xbddbf547	-0.10740142
30	0x3d0f3104	0.034958854
31	0x3de9753f	0.11399316
32	0x3d1ad45a	0.03780017
33	0xbdbe7f79	-0.09301657
34	0x3dce0a39	0.100605436
35	0x3da5f5f7	0.08103555
36	0xbd00de83	-0.031462204
37	0xbd82147e	-0.06351565
38	0xbd9cf31e	-0.076635584
39	0x3e0201b7	0.12695967
40	0xbc9cc7ba	-0.019138206
41	0xbd0f6c0c	-0.03501515
42	0x3df14dde	0.1178243
43	0x3b2ccb57	0.0026366317
44	0x3d80b835	0.06285135
45	0x3cf4a70f	0.029864816
46	0x3db1f1c4	0.08688691
47	0x3bba3319	0.005682361
48	0xbc2a5ddc	-0.010398354
49	0x3dffab28	0.12483817
50	0x3d8cda55	0.06877581
51	0x3df07880	0.117417336
52	0x3b60e211	0.0034314434
53	0x3d943b18	0.07237834
54	0x3d47d761	0.048789386
55	0xbdde8779	-0.10865683
56	0x3d8424fc	0.06452367
57	0x3df508c2	0.11964561
58	0xbd48c839	-0.049019072
59	0xbcace1fb	-0.02110385
60	0xbc6b8d02	-0.014376881
61	0xbcdd30b0	-0.027000755
62	0x3d4256db	0.047446113
63	0x3d1dff73	0.038573693
64	0xbd8bbd23	-0.06823184
65	0x3b7cfec9	0.0038604012
66	0xbdceea47	-0.101032786
67	0xbdb7be29	-0.08971817
68	0xbd593894	-0.053032473
69	0xbdb79f4f	-0.089659326
70	0xbd88eb90	-0.06685555
71	0xbdc0c2d6	-0.09412162
72	0xbd4e61db	-0.05038629
73	0xbd91acaa	-0.07113011
74	0x3d0809e8	0.033212572
75	0xbcbcb2a5	-0.023034403
76	0x3cef2d12	0.029196296
77	0xbd2fa5ac	-0.042882606
78	0xbd91eb44	-0.071249515
79	0x3ddc1ddf	0.10747885
80	0x3d042f2a	0.03227154
81	0xbd94e139	-0.0726952
82	0x3da8ed89	0.08248431
83	0xbd4021fe	-0.046907417
84	0x3e1038c8	0.1408416
85	0xbde1708c	-0.11007795
86	0x3d599b15	0.053126413
87	0xbdc2e1a2	-0.09515692
88	0x3cb79026	0.022407603
89	0x3e145ac4	0.1448775
90	0xbd2259fc	-0.039636597
91	0x3db0af33	0.086271666
92	0xbcb8160d	-0.022471452
93	0xbd635a2d	-0.05550592
94	0xbd241035	-0.04005452
95	0xbda277cc	-0.07933006
96	0x3d7fd86a	0.062462248
97	0x3d6c41a6	0.057679795
98	0x3deff0d0	0.11715853
99	0x3d8a4950	0.067522645
100	0x3d2fdd67	0.042935755
101	0xbd6fb089	-0.058517966
102	0x3c942061	0.018081846
103	0xbd9c9b43	-0.07646801
104	0x3cda6ea9	0.026664095
105	0x3c89ae3d	0.016806716
106	0x3e0cb4c2	0.13740829
107	0x3d4648ac	0.04840915
108	0x3e06196e	0.13095638
109	0xbd2cb806	-0.042167686
110	0x3d5ed123	0.054398667
111	0x3d6000f1	0.054688398
112	0x3d9d5bff	0.076835625
113	0xbd2b0935	-0.041756827
114	0x3dee7102	0.11642648
115	0xbc3787ef	-0.011201843
116	0xbd94ed0e	-0.07271777
117	0x3db3ee0b	0.087856375
118	0xbabb112c	-0.0014272085
119	0xbc878e01	-0.016547205
120	0x3d2c1c5b	0.04201923
121	0xbd0ac005	-0.03387453
122	0x3d3be08a	0.045868434
123	0x3d6cf61c	0.057851896
124	0x3de40d22	0.111353174
125	0xbd9efb4b	-0.07762774
126	0x3de8de38	0.1137051
127	0xbd6886a7	-0.05676904
128	0x3d9f722d	0.07785449
129	0x3e046c2f	0.12931894
130	0xbdbbade5	-0.09164027
131	0xbd7a7532	-0.061146922
132	0x3dceb2b8	0.10092682
133	0xbdaf6feb	-0.085662685
134	0xbd1b9b29	-0.03798977
135	0x3d062867	0.032753374
136	0xbc9b6823	-0.018970555
137	0xbbb729b6	-0.005589689
138	0x3d2b2123	0.04177965
139	0x3dc28471	0.094979174
140	0xbd0652f8	-0.03279397
141	0x3cd2500d	0.025672937
142	0xbd99586b	-0.074875675
143	0xbda8ab98	-0.08235854
144	0xbe024340	-0.12720966
145	0x3d2b5d4c	0.04183702
146	0xbde68b9b	-0.112570964
147	0xbd84e67e	-0.064892754
148	0xbc980c24	-0.018560477
149	0x3c89c247	0.016816271
150	0xbe18526a	-0.14875188
151	0xbaf2e4b8	-0.0018531298
152	0xbd8d2db2	-0.06893481
153	0xbd95fb3c	-0.0732331
154	0x3c90d913	0.017681634
155	0x3d5a9eb4	0.053374007
156	0xbc908dcf	-0.017645745
157	0x3c98c0d9	0.018646644
158	0xbc069485	-0.008214121
159	0xbcf62480	-0.030046701
160	0xbbf942d9	-0.007606846
161	0x3cb03ecd	0.02151432
162	0x3deac0df	0.114625685
163	0xbdcfb40a	-0.101417616
164	0x3d813363	0.06308629
165	0xbd8c7d7d	-0.068598725
166	0xbda00c99	-0.07814903
167	0xbd74cd80	-0.059766293
168	0xbda35d83	-0.0797682
169	0x3c238282	0.009979846
170	0x3c59f1ec	0.013302308
171	0x3e11ad50	0.1422627
172	0xbd01d5be	-0.03169798
173	0xbd8ea531	-0.069651015
174	0x3c0798c3	0.008276167
175	0x3de39a26	0.11113386
176	0xbd8d20ba	-0.06891008
177	0x3dec2f81	0.11532498
178	0x3d4f52de	0.050616138
179	0xbd98f7a4	-0.07469109
180	0xbd33817a	-0.04382465
181	0x3c6f147a	0.014592284
182	0x3b87a288	0.0041392483
183	0xbdaa9b88	-0.083304465
184	0xbc1d9b39	-0.0096195275
185	0x3d24b750	0.040213883
186	0x3d3b537e	0.04573392
187	0xbccb5521	-0.024820866
188	0xbbe85e75	-0.0070913383
189	0xbd827308	-0.06369597
190	0xb927eff8	-0.00016015756
191	0xbca0794c	-0.019589089
192	0x3e1b0ab5	0.15140803
193	0x3dab99e6	0.08378963
194	0x3d7953ff	0.06087112
195	0x3e02ab80	0.12760735
196	0x3dc384c0	0.095468044
197	0x3df25eb8	0.118344724
198	0x3d937ea2	0.07201888
199	0xbde33415	-0.11093918
200	0xbdbcb414	-0.09214035
201	0x3da8608a	0.08221538
202	0xbba56596	-0.0050475104
203	0x3e062a67	0.13102113
204	0xbdad656f	-0.084666125
205	0x3c8a4860	0.016880214
206	0x3db28ff1	0.08718861
207	0x3dcfd9a5	0.10148934
208	0xbd573380	-0.05253935
209	0xbda3c998	-0.07997435
210	0x3d055d59	0.032559726
211	0xbd88419d	-0.0665314
212	0x3da22aa3	0.079182886
213	0xbd28555f	-0.04109704
214	0xbd873961	-0.06602741
215	0x3de6d379	0.11270804
216	0xbcdb9f80	-0.026809454
217	0xbc910e39	-0.017706977
218	0xbd9faf3b	-0.077970944
219	0x3d955e8d	0.07293425
220	0x3d04a952	0.03238804
221	0x3dc94661	0.09827877
222	0x3dd22e5c	0.102627486
223	0xbdbb5928	-0.091478646
224	0x3dd83e01	0.10558701
225	0xbd045d17	-0.03231534
226	0xbd5d65ce	-0.054052167
227	0x3d323312	0.043505736
228	0x3d32e40b	0.04367451
229	0xbd9e0013	-0.07714858
230	0x3d08c6d3	0.03339274
231	0xbdb3d185	-0.08780197
232	0x3d940453	0.07227387
233	0xbcc39225	-0.023873398
234	0x3dbf0719	0.09327526
235	0x3d3fad1c	0.04679595
236	0xb9b493cd	-0.00034442396
237	0x3e04738a	0.129347
238	0xbd8c492e	-0.068498954
239	0xbbb825ab	-0.0056197247
240	0xbda1262e	-0.0786861
241	0x3cc73433	0.024316883
242	0x3ddea2fb	0.1087093
243	0xbceb1657	-0.028697176
244	0x3d76994b	0.060204785
245	0x3cdac17a	0.026703585
246	0xbd80a5fd	-0.0628166
247	0xbd18ffef	-0.037353452
248	0x3da9ed26	0.082971856
249	0x3c56a3a9	0.013100543
250	0x3d63e10e	0.05563455
251	0xbcc72fe9	-0.024314838
252	0x3b8f3120	0.00436987
253	0x3dba3348	0.09091812
254	0x3e02ce5d	0.12774034
255	0x3ded692f	0.11592328

weight_ih_l0_reverse f4 [256, 64]
0	0xbcb23ac1	-0.021756532
1	0xbe14024f	-0.14454006
2	0xbc85bccc	-0.016325377
3	0x3cdc32b2	0.026879642
4	0x3d628dea	0.05531112
5	0xbd6e9a80	-0.05825281
6	0xbd1337db	-0.03594194
7	0x3d1ec4d6	0.038761936
8	0x3d1a00f5	0.03759857
9	0x3db67fe9	0.08911116
10	0x3d078135	0.033082206
11	0xbda0808d	-0.07837019
12	0xbd9e52c2	-0.077306286
13	0x3da1bdcb	0.07897528
14	0xbd8734d3	-0.06601872
15	0x3d0ae2ef	0.033907827
16	0x3e1d6138	0.15369117
17	0x3c3ba815	0.011453648
18	0x3e1f753e	0.15572068
19	0xbc509c1d	-0.012732533
20	0x3c2c9cf2	0.010535466
21	0xbde17297	-0.110081844
22	0x3cfea052	0.031082306
23	0xbe0a648b	-0.13514917
24	0xbbd290c1	-0.0064259474
25	0x3ddfe7d6	0.10932891
26	0xbe05eba4	-0.13078171
27	0x3c9740bd	0.018463487
28	0x3d0cee1d	0.03440677
29	0x3d60c2da	0.054873325
30	0xbcdc3c0e	-0.026884105
31	0x3c1c79ea	0.009550551
32	0xbc15a501	-0.009133578
33	0x3df85d94	0.121272236
34	0x3d3523c8	0.044223577
35	0xbc9f3ae8	-0.019437268
36	0x3d8059e2	0.06267144
37	0xbe34de4a	-0.17662922
38	0xbda69f12	-0.08135809
39	0xbdb87eaa	-0.09008534
40	0x3dcb9d80	0.0994215
41	0x3d7d380a	0.06182102
42	0x3dae3532	0.0850624
43	0x3c82210a	0.015884895
44	0xbc855d3c	-0.01627981
45	0x3d29b182	0.04142905
46	0xbdd48188	-0.103762686
47	0x3de1037a	0.10986991
48	0xbb813982	-0.003943623
49	0x3d8cf17a	0.068819955
50	0x3df29ec9	0.11846692
51	0x3d61d22b	0.055132072
52	0xbd2d51ae	-0.042314224
53	0x3cb4e681	0.02208257
54	0xbd45fe27	-0.04833808
55	0x3c309597	0.0107778525
56	0xbd5e794d	-0.0543149
57	0x3defb014	0.11703506
58	0xbc317ed9	-0.0108334655
59	0x3d83dc3b	0.0643849
60	0x39f70654	0.00047116226
61	0xbcd58bbc	-0.026067607
62	0x3c3924b1	0.011300252
63	0x3e09c755	0.13454945
64	0x3d6d1cc5	0.057888765
65	0xbe07229b	-0.13196795
66	0xbcff00bd	-0.031128282
67	0xbd81c6dc	-0.063367575
68	0x3d2835d7	0.04106697
69	0xbd96f179	-0.07370276
70	0xbdcae5b4	-0.09907094
71	0xbdf532e9	-0.11972601
72	0x3d102708	0.035193473
73	0x3c990952	0.018681202
74	0xbce63938	-0.028103456
75	0x3dddee88	0.10836512
76	0x3bb83223	0.005621211
77	0xbda2331e	-0.07919906
78	0x3d99015c	0.074709624
79	0x3c6bad73	0.014384615
80	0xbd3dfea0	-0.046385407
81	0x3e069154	0.13141376
82	0x3d3d8315	0.046267588
83	0x3dfc8b7a	0.123312905
84	0xbd675aa9	-0.056482945
85	0x3d5986fe	0.053107254
86	0x3ab098db	0.0013473289
87	0xbdca0703	-0.09864619
88	0xbdbc9839	-0.09208722
89	0x3d7fa61a	0.062414266
90	0x3de0d245	0.10977606
91	0xbde751f4	-0.11294928
92	0x397e28f0	0.00024238578
93	0x3cb74bcd	0.022375012
94	0x3d948367	0.072516255
95	0xbd86b22e	-0.06576954
96	0x3db8a9ed	0.09016786
97	0x3de3396a	0.11094935
98	0x3e0444da	0.1291689
99	0x3d0e60b2	0.034760185
100	0xbd11b572	-0.03557343
101	0x3dc957a4	0.09831169
102	0xbdb21e39	-0.08697171
103	0xbd86b0a5	-0.06576661
104	0xbc0641e1	-0.008194418
105	0xbcca6010	-0.02470401
106	0x3be50542	0.006989152
107	0x3d4a896e	0.04944747
108	0x3d9150be	0.070954785
109	0xbda07eca	-0.07836683
110	0xbd6a926f	-0.057268556
111	0xbdadf698	-0.084943
112	0x3dfb677b	0.12275597
113	0x3d5b899e	0.05359804
114	0x3d5cf340	0.05394292
115	0x3b0523de	0.0020315568
116	0xbbbc22f7	-0.005741473
117	0xbd9cf20c	-0.07663354
118	0xbb4f389c	-0.0031619435
119	0x3ddf931a	0.10916729
120	0x3d4e64bf	0.050389048
121	0xbdbb66e3	-0.091504835
122	0x3e02e316	0.12781939
123	0xbdf3cfd1	-0.11904872
124	0x3d619e91	0.05508286
125	0xbdf36ad7	-0.118856125
126	0xbdc104b6	-0.09424727
127	0x3d1c248c	0.03812079
128	0x3df3c445	0.1190267
129	0xbbc0f5be	-0.0058886698
130	0x3df3ba07	0.11900716
131	0xbdda9fac	-0.10674986
132	0x3d8ebac1	0.06969214
133	0xbd4d8108	-0.050171882
134	0x3c25ecf1	0.010127292
135	0xbd391df2	-0.045194574
136	0xbd2c0304	-0.041995063
137	0x3d1037bd	0.035209406
138	0x3dfda9e2	0.12385918
139	0x3dfb439d	0.122687556
140	0xbd4599a2	-0.04824222
141	0x3d68809d	0.05676328
142	0xbd413690	-0.047171175
143	0x3dedc47e	0.116097435
144	0x3ca84026	0.0205384
145	0xbcd55df0	-0.02604577
146	0xbca122c5	-0.0196699
147	0x3d4a9913	0.04946239
148	0xbda6d065	-0.08145217
149	0x3d4475e4	0.04796399
150	0x3d7ae55f	0.0612539
151	0x3d7c750e	0.06163507
152	0xbe125546	-0.14290342
153	0xbd2fccde	-0.042919986
154	0x3daf6b11	0.08565343
155	0x3c1d64fd	0.009606597
156	0xbd470f23	-0.04859842
157	0xbd854523	-0.065073274
158	0x3de1fd89	0.11034686
159	0x3cda52a7	0.02665074
160	0x3db48d5b	0.08816024
161	0xbda0a4de	-0.07843946
162	0x3ce2b222	0.027672831
163	0x3d02118b	0.03175501
164	0xb917aa01	-0.00014463814
165	0x3e0c0b8e	0.13676283
166	0xbd23e20c	-0.040010497
167	0xbe04f8be	-0.12985513
168	0x3ddba0e0	0.10724044
169	0x3df0cfbc	0.11758372
170	0x3d32fa67	0.043695834
171	0xbd9ea9e9	-0.077472515
172	0xbdb7bc94	-0.08971515
173	0xbaae58f4	-0.0013301657
174	0xbb9a1efb	-0.0047034
175	0xbb8bda97	-0.0042680013
176	0x3d296d9b	0.041364294
177	0xbd43ad65	-0.047772784
178	0xbb2e0830	-0.0026555173
179	0xbda25871	-0.07927025
180	0x3c6b22d4	0.014351565
181	0xbdd72941	-0.105059154
182	0xbd54e5be	-0.05197691
183	0x3d16c310	0.03680712
184	0xbdb9b2e3	-0.09067323
185	0xbd72142b	-0.059101265
186	0x3da77dfd	0.08178327
187	0xbdb2e6f5	-0.08735458
188	0x3c8477f7	0.016170485
189	0xbc8fbf02	-0.017547134
190	0x3da241b1	0.07922686
191	0xbda40ddc	-0.08010456
192	0x3d0037a0	0.031303048
193	0xbd0f96df	-0.03505599
194	0xbd80146f	-0.062538974
195	0x3c2f605c	0.010704126
196	0xbd73a0b4	-0.05947943
197	0xbc1d1a80	-0.009588838
198	0xbd19c6ea	-0.037543215
199	0xbd304051	-0.043030087
200	0x3d0577b6	0.03258487
201	0xbd416bc8	-0.04722193
202	0xbe0520b6	-0.1300076
203	0xbd91461d	-0.07093451
204	0xbcac7548	-0.021052018
205	0x3e1a55ca	0.15071788
206	0x3ca09088	0.019600168
207	0x3d9deebb	0.0771155
208	0x3db19fd7	0.08673065
209	0x3c74bfbf	0.014938294
210	0xbc2de224	-0.010612998
211	0x3d184a70	0.037180364
212	0x3da01dd7	0.078181915
213	0x3dfc250c	0.12311754
214	0xbc7e3beb	-0.015517215
215	0x3defe617	0.11713808
216	0xbd9af8db	-0.07566997
217	0xbdef86c1	-0.11695624
218	0x3d5096e3	0.050925147
219	0x3d7a802a	0.061157383
220	0x3dc5aac4	0.096517116
221	0xbd81a44f	-0.063301675
222	0x3dbec7b0	0.09315431
223	0x3c38c561	0.011277528
224	0x3c877de5	0.016539523
225	0xbd247025	-0.04014601
226	0x3db47e66	0.08813171
227	0xbd89c7f4	-0.06727591
228	0x3d905fbe	0.070495114
229	0xbb17c4d7	-0.0023158097
230	0xbce5ff85	-0.028075943
231	0xbd07a9af	-0.033120807
232	0xbdb2c6d2	-0.08729328
233	0xbe069b29	-0.13145126
234	0xbe16e7b8	-0.14736831
235	0x3dc3374a	0.0953203
236	0xbb0def1f	-0.002165742
237	0x3c9c92a0	0.019112885
238	0x3d02a575	0.031896073
239	0xbd950185	-0.072756805
240	0x3dc7d45b	0.097573005
241	0xbdd28eba	-0.10281129
242	0x3d792e56	0.060835205
243	0x3d200615	0.0390683
244	0xba9cb0d9	-0.001195456
245	0xbcbcf69d	-0.023066813
246	0xbc5b3bbb	-0.01338094
247	0x3dc4a49e	0.09601711
248	0xbe1200ba	-0.1425809
249	0xbde806e4	-0.11329439
250	0x3c0030d5	0.007824142
251	0x3d98ed34	0.07467118
252	0xbd674208	-0.056459457
253	0xbda1aee4	-0.07894686
254	0xbdf67feb	-0.12036117
255	0x3d80a208	0.06280905

weight_hh_l0_reverse f4 [256, 64]
0	0xbddde311	-0.10834325
1	0x3d92c9d0	0.07167399
2	0x3d9b62b3	0.07587185
3	0xbde1f647	-0.11033302
4	0x3d40211a	0.046906568
5	0x3dccf8f4	0.100084215
6	0xbd8bffb1	-0.06835879
7	0x3d392d8e	0.04520946
8	0x3d54462a	0.051824726
9	0x3dcade14	0.09905639
10	0x3de52edd	0.11190579
11	0x3d7b7073	0.061386537
12	0x3de1f4ff	0.110330574
13	0x3dc8bde5	0.098018445
14	0xbda2444a	-0.07923181
15	0x3c434b15	0.011919756
16	0x3cfe436e	0.031038012
17	0x3d9bf10e	0.07614337
18	0x3be7c22d	0.007072708
19	0x3a5cfb46	0.00084297766
20	0xbd90fe96	-0.070798084
21	0x3d842390	0.064520955
22	0x3d01886b	0.03162424
23	0xbd60efed	-0.05491631
24	0xbccf00af	-0.02526888
25	0xbcbd42e5	-0.023103187
26	0x3be63598	0.007025432
27	0x3da41edd	0.08013699
28	0x3d89eed1	0.06735004
29	0x3d323ffc	0.04351805
30	0x3d8a1f3a	0.06744237
31	0xbd823987	-0.06358629
32	0xbb44bae7	-0.003001863
33	0xbd803c9b	-0.062615596
34	0x3d1572a1	0.03648627
35	0x3da51d71	0.08062256
36	0xbe097a9b	-0.13425677
37	0xbc853969	-0.016262727
38	0xbc33a511	-0.010964648
39	0x3d771323	0.060320985
40	0x3da869c1	0.08223296
41	0xbd9c64d7	-0.07636421
42	0xbd723d4e	-0.059140496
43	0xbd25f630	-0.040517986
44	0x3d61fb77	0.055171456
45	0x3dce9f22	0.10088946
46	0xb9c6cc09	-0.0003791752
47	0x3c3d3d2b	0.011550228
48	0x3d89d861	0.06730724
49	0x3db0f90b	0.08641251
50	0x3d60473c	0.054755434
51	0xbd6dd886	-0.05806782
52	0xbd8a0da6	-0.067408845
53	0xbdc42f7c	-0.095793694
54	0x3c8340c7	0.0160221
55	0x3d786ab9	0.060648654
56	0x3ce9cf88	0.028541341
57	0xbd80fb73	-0.0629796
58	0xbc9be3da	-0.019029547
59	0x3d09248a	0.033482112
60	0xbc7f5fde	-0.015586821
61	0xbd22e867	-0.039772417
62	0xbdd686e8	-0.1047495
63	0xbbfe41c9	-0.007759307
64	0x3b8c6848	0.004284892
65	0x3c6f114c	0.014591526
66	0xbc01c7e3	-0.007921192
67	0x3d920c5e	0.07131265
68	0xbca222b2	-0.019791935
69	0x3dd529bf	0.10408353
70	0xbcf80212	-0.030274425
71	0x3d722735	0.059119422
72	0x3d552845	0.052040357
73	0x3d17e8e9	0.037087355
74	0xbd273dac	-0.0408303
75	0x3d5294c3	0.0514114
76	0xbd86f897	-0.065903835
77	0x3dc0df5b	0.09417602
78	0xbdd4b874	-0.10386744
79	0x3da55f35	0.080748
80	0xbdc79482	-0.097451225
81	0x3de41878	0.111374795
82	0x3dbd96a5	0.09257249
83	0x3d46ca30	0.048532665
84	0x3d5939fd	0.053033818
85	0x3def9034	0.116974264
86	0xbce1244a	-0.027483124
87	0xbc0adf98	-0.0084761605
88	0xbdd01ea1	-0.10162092
89	0x3c7cb4f4	0.015424002
90	0xbb04f078	-0.0020284932
91	0xbd7d47f8	-0.061836213
92	0x3c4ef04e	0.012630535
93	0xbcb09536	-0.021555524
94	0xbd6bdf48	-0.057585984
95	0x3cf97630	0.030451864
96	0x3e01f188	0.12689793
97	0x3d131298	0.035906404
98	0xbc9543ac	-0.018220745
99	0xbd6e2022	-0.058136113
100	0xbd55a444	-0.05215861
101	0xbcca4684	-0.024691828
102	0xbc630113	-0.013855237
103	0x3cb146f6	0.021640282
104	0x3ddce9cb	0.1078678
105	0xbdd9633b	-0.1061463
106	0x3da3ce19	0.079982944
107	0xbd12ff04	-0.035887733
108	0x3dfb6c6c	0.12276539
109	0x3d7125a5	0.05887379
110	0x3d0c3d92	0.034238406
111	0xbdc56978	-0.09639257
112	0xbd78fa8b	-0.06078581
113	0xbdf90840	-0.12159777
114	0xbcb42356	-0.021989506
115	0xbce5b108	-0.028038517
116	0xbb93f92a	-0.0045157867
117	0x3dafc092	0.08581652
118	0xbd6e3d7b	-0.0581641
119	0x3de95415	0.113929905
120	0xbcfc9723	-0.030833786
121	0xb93d50dc	-0.00018054567
122	0xbd8b5dc9	-0.068049975
123	0xbcffd7fc	-0.031230919
124	0x3db7ec2a	0.089805916
125	0x3da6d940	0.08146906
126	0x3ddd52d7	0.10806816
127	0x3d184de2	0.03718365
128	0x3d6b88af	0.0575034
129	0xbd9739ed	-0.07384095
130	0xbcc54c66	-0.024084281
131	0x3c971656	0.018443268
132	0xbdde580f	-0.108566396
133	0xbc9ef421	-0.01940352
134	0xbd950d5c	-0.07277939
135	0x3ca89bf7	0.020582182
136	0x3cd431aa	0.025902588
137	0x3dd928c3	0.10603478
138	0xbdefb63b	-0.117046796
139	0xbcb4262f	-0.021990864
140	0x3d73f7b1	0.05956239
141	0x3bca4d53	0.0061737685
142	0xbbaa65bc	-0.005200116
143	0xbd500b9c	-0.05079232
144	0x3cd294ff	0.025705812
145	0x3d3b0b0f	0.045664843
146	0xbd6f0ae7	-0.058360007
147	0xbce79e67	-0.028273774
148	0xbda31d70	-0.07964599
149	0x3ddbeeb6	0.1073889
150	0xbd05fb33	-0.032710265
151	0xbdb6da02	-0.089283004
152	0x3de3ad1e	0.11117004
153	0xbb81fc1c	-0.0039668214
154	0x3b16a4b9	0.0022986366
155	0xb8d97fe8	-0.00010371191
156	0xbdc2a6ed	-0.09504495
157	0xbdc76165	-0.097353734
158	0xbd3672c7	-0.044543054
159	0x3d0a57c7	0.033775117
160	0x3dea88a9	0.11451847
161	0xbd81aebd	-0.06332157
162	0x3dfd7d10	0.123773694
163	0xbd83706a	-0.06417926
164	0xbe0198dc	-0.12655967
165	0x3dc8a5c5	0.09797243
166	0xbde82fb5	-0.113372244
167	0xbcd2d40c	-0.025735877
168	0xbdad54c6	-0.08463435
169	0x3d8866b1	0.06660212
170	0x3d1e320d	0.03862195
171	0x3dc74a21	0.09730936
172	0x3d9d3742	0.07676555
173	0xbd016e91	-0.031599585
174	0xbdf3a968	-0.11897546
175	0xbdc64167	-0.09680443
176	0xbdd1412e	-0.1021751
177	0x3dc827b4	0.09773198
178	0x3d958cee	0.07302271
179	0x3d8e0944	0.06935361
180	0x3d55b517	0.052174654
181	0xbdb55eb1	-0.088559516
182	0x3cfbfda9	0.030760603
183	0x3c36cda9	0.011157432
184	0x3dc0d71c	0.09416029
185	0xbd897210	-0.06711209
186	0xbd3e7ddf	-0.04650676
187	0x3c603394	0.013684172
188	0x3d6f7e8d	0.058470298
189	0x3d4c2483	0.049839508
190	0x3dc86f53	0.097868584
191	0xbdd0bf46	-0.101927325
192	0x3dd0e2aa	0.10199483
193	0x3c8b3760	0.016994178
194	0xbe21225a	-0.1573576
195	0xbd1658f5	-0.03670593
196	0x3ca921dd	0.02064603
197	0xbdae8aa5	-0.08522538
198	0x3db567f4	0.08857718
199	0x3ce40caa	0.02783807
200	0xbdf1ce9c	-0.11806986
201	0xbc2b6897	-0.010461948
202	0xbd91b864	-0.07115248
203	0xbd8772bf	-0.06613683
204	0xbdb8c206	-0.09021382
205	0xbdb07d18	-0.0861761
206	0x3ca3039e	0.019899186
207	0x3e11ca0b	0.1423723
208	0x3d767e22	0.060178883
209	0x3def77a1	0.11692739
210	0xbd8f80b4	-0.0700697
211	0x3db4d912	0.088304654
212	0x3d51c2f8	0.051211327
213	0x3c861721	0.01636845
214	0x3da05169	0.07828028
215	0x3e022774	0.12710363
216	0xbc0c353f	-0.008557617
217	0x3d606d6f	0.054791864
218	0x3c12040e	0.0089120995
219	0xbd2f3bc9	-0.042781625
220	0x3d9dcea8	0.07705432
221	0x3df6704f	0.1203314
222	0x3d1375cc	0.03600101
223	0x3e1cf57b	0.15328018
224	0xbc8eb9a1	-0.0174225
225	0xbdc519c2	-0.096240535
226	0x3dea8d71	0.11452759
227	0x3c0f99d0	0.008764699
228	0x3ddabf36	0.10681002
229	0x3e1bc512	0.15211895
230	0xbdac0eaf	-0.08401238
231	0xbd58be5d	-0.05291592
232	0xbd52d0e4	-0.051468745
233	0x3c852bc8	0.016256228
234	0x3cc6d709	0.024272459
235	0xbdce1c93	-0.10064044
236	0xbd7fdd36	-0.062466823
237	0xbddc3ada	-0.107534125
238	0x3dd540ec	0.104127735
239	0xbd6d0ce8	-0.057873636
240	0xbd2d66b8	-0.04233429
241	0xbdc23559	-0.094828315
242	0x3df9d1a4	0.12198189
243	0x3e1bf1ed	0.15229006
244	0x3dd160cb	0.1022354
245	0x3dd028d6	0.10164039
246	0xbdb26186	-0.08710007
247	0xbd993539	-0.074808545
248	0xbdda4236	-0.1065716
249	0x3db0769b	0.08616372
250	0xbdd64e29	-0.104641266
251	0x3d8a473b	0.067518674
252	0xbdf6aeb1	-0.120450385
253	0x3d1d65ea	0.03842727
254	0xbd516905	-0.051125545
255	0x3d06d0bd	0.032913912

bias_ih_l0_reverse f4 [256]
0	0x3db9e156	0.090761825
1	0xbd160dc2	-0.036634214
2	0xbd6d72f2	-0.05797095
3	0x3c432d55	0.0119126635
4	0xbdc44260	-0.095829725
5	0x3dd48511	0.10376943
6	0xbd851ac8	-0.06499249
7	0x3caade7a	0.020858038
8	0xbd1c8064	-0.03820838
9	0xbb835465	-0.0040078633
10	0x3de2c692	0.110730305
11	0x3d1da888	0.038490802
12	0x3d47d5d0	0.048787892
13	0xbd97f9b5	-0.07420675
14	0xbdd810e9	-0.105501
15	0x3c5a79f8	0.013334744
16	0x3c9e8e58	0.019354984
17	0xbdaea58a	-0.08527668
18	0x3c2cef2c	0.01055507
19	0xbd3d6e8b	-0.046248
20	0x3e14af1c	0.14519924
21	0xbd516536	-0.051121913
22	0x3dc3e4d5	0.095651306
23	0xbc2cf7fe	-0.010557173
24	0xbdae990f	-0.08525287
25	0x3e013ff4	0.12622052
26	0x3dab94ad	0.08377967
27	0xbd09e53b	-0.033665877
28	0xb5ec4300	-1.760287e-06
29	0xbcbc31fd	-0.022973055
30	0x3d48de97	0.049040403
31	0xbd047380	-0.032336712
32	0x3daf9859	0.0857398
33	0xbd8bd403	-0.068275474
34	0xbde814ff	-0.1133213
35	0xbd9e23e8	-0.07721692
36	0xbdfd00f9	-0.12353701
37	0xbc82ea4b	-0.01598086
38	0x3de855b0	0.113444686
39	0xbc47680d	-0.012170804
40	0x3db23e1b	0.08703252
41	0xbb9a8117	-0.0047150957
42	0x3cd5aa94	0.026082315
43	0x3dcd70d5	0.100312866
44	0x3d92cdfe	0.07168196
45	0x3cf88065	0.03033466
46	0xbcba5887	-0.022747291
47	0xbd864b99	-0.06557388
48	0xbd967b9d	-0.07347796
49	0xbdee72c8	-0.116429865
50	0x3cb4e03d	0.022079581
51	0x3c607ec4	0.013702098
52	0x3b6b0208	0.0035859365
53	0x3d7c0780	0.06153059
54	0x3dfc644c	0.123238176
55	0xbc51338b	-0.012768636
56	0xbdb462a8	-0.0880788
57	0x3d182aa1	0.03715003
58	0x3d267e62	0.04064787
59	0xbc982af8	-0.018575177
60	0x3dc12b41	0.09432078
61	0x3d79c7b2	0.06098146
62	0xbd2da144	-0.042390123
63	0xbcf51268	-0.029916003
64	0x3e032f43	0.12810998
65	0x3c5006f8	0.012696974
66	0x3de5e23b	0.11224791
67	0xbc9cd974	-0.019146658
68	0x3d2e1286	0.042498134
69	0x3d973846	0.0738378
70	0xbcb8dda5	-0.022566626
71	0xbd19d585	-0.037557144
72	0x3d106bc9	0.035259042
73	0xbcee4740	-0.029086709
74	0xbde8cbbb	-0.113669835
75	0x3e1c0623	0.15236716
76	0x3d95f821	0.073227175
77	0x3d11022e	0.03540247
78	0x3ce73055	0.028221289
79	0x3cdb8c50	0.026800305
80	0x3d826f31	0.06368864
81	0xbd9a7322	-0.07541491
82	0x3e0d49cb	0.13797681
83	0x3c7940e2	0.015213223
84	0x3d1b1223	0.037859093
85	0x3ddb2d70	0.10702026
86	0x3d92a3ea	0.071601704
87	0xbcbd1ce5	-0.023085067
88	0x3defb01a	0.117035106
89	0x3d86e6fa	0.06587024
90	0xbd30a44b	-0.043125432
91	0xbd0eaeb7	-0.03483459
92	0x3cf5016a	0.0299079
93	0x3c03169e	0.008000998
94	0x3dc12971	0.094317324
95	0xbd98a811	-0.07453931
96	0xbd6dae79	-0.05802772
97	0xbdaf37b4	-0.085555464
98	0x3d968c11	0.07350934
99	0x3cc2b195	0.023766318
100	0xbd696fd2	-0.056991406
101	0x3dae8fea	0.08523543
102	0x3c9b9551	0.018992098
103	0xbc8f7884	-0.017513521
104	0x3c8c94b3	0.017160749
105	0x3de8d004	0.11367801
106	0x3df2ca82	0.118550315
107	0xbd1e3d43	-0.038632642
108	0x3dd470fa	0.10373111
109	0xbd280e47	-0.04102924
110	0x3dc37b42	0.09544994
111	0x3d9a2672	0.07526864
112	0x3c3e3671	0.0116096595
113	0x3e097dde	0.13426921
114	0x3d035d14	0.032071188
115	0x3b009096	0.001961743
116	0x3ddf4e5a	0.10903616
117	0x3dd4474d	0.10365162
118	0x3a520a37	0.00080123864
119	0xbc8e2bdf	-0.017354904
120	0xbdd9f1ce	-0.10641824
121	0x3d1ba507	0.03799918
122	0xbd9115fc	-0.07084271
123	0xbdba91e2	-0.09109856
124	0x3dcc7121	0.09982515
125	0xbcd831dd	-0.026390964
126	0x3cd326bb	0.025775304
127	0x3dd4ac46	0.10384421
128	0xbdf19f0f	-0.11797916
129	0x3c3b65a6	0.011437809
130	0x3dab942b	0.0837787
131	0x3d66642c	0.056247875
132	0x3c6b3e74	0.014358152
133	0xbdf32043	-0.11871388
134	0x39260004	0.00015831
135	0x3d147169	0.03624097
136	0x3dbb99d7	0.09160202
137	0xbd855ccf	-0.065118425
138	0x3dd06327	0.10175162
139	0x3cc9e03f	0.024643062
140	0x3d9c576a	0.076338604
141	0xbde3fbf5	-0.11132041
142	0xbc79a669	-0.015237429
143	0xbda4f460	-0.08054423
144	0x3d8055a4	0.06266335
145	0xbe080929	-0.13284744
146	0x3dd28828	0.10279876
147	0x3d1c39de	0.038141124
148	0x3d3ddcd6	0.046353184
149	0x3d10be3d	0.035337675
150	0xbdbefe60	-0.09325862
151	0x3db55e87	0.0885592
152	0x3bd6d90a	0.006556635
153	0xbd736afc	-0.0594282
154	0xbc5721a8	-0.013130583
155	0xbcc48d28	-0.02399309
156	0x3d3d5a7a	0.046228863
157	0xbdf708a7	-0.12062197
158	0xbd61ed20	-0.05515778
159	0xbdbcb5c8	-0.092143595
160	0xbbc31276	-0.0059531284
161	0xbd921f70	-0.071349025
162	0x3db41b8a	0.08794315
163	0x3d1b4f84	0.03791763
164	0x3db2b508	0.08725935
165	0xbddfb3dd	-0.10922978
166	0x3db7e0f2	0.08978452
167	0x3d810e09	0.06301505
168	0x3d859058	0.06521672
169	0xbc909850	-0.017650753
170	0x3be82b60	0.007085249
171	0xbd7933b2	-0.060840316
172	0xbdb8ad1f	-0.09017395
173	0xbced9a7f	-0.029004334
174	0xbd80f0f1	-0.06295956
175	0x3da2ca17	0.07948702
176	0x3d62c151	0.055360142
177	0xbce8487c	-0.028354876
178	0x3dea565e	0.114422545
179	0xbdbf396f	-0.093371265
180	0x3df5317d	0.1197233
181	0x3deeb869	0.11656267
182	0xbb015491	-0.0019734243
183	0x3d651545	0.055928487
184	0x3cf4c564	0.02987928
185	0xbc945309	-0.018106
186	0x3db4be95	0.08825413
187	0x3e0131df	0.1261668
188	0xbce3aee6	-0.027793359
189	0xbc389a8c	-0.011267316
190	0x3d70d96d	0.058801103
191	0x3d8e2bbe	0.06941937
192	0xbd2356d1	-0.039877716
193	0xbd9ba2f9	-0.07599444
194	0x3d326cc1	0.043560747
195	0x3d273f27	0.04083171
196	0x399be6b9	0.00029735806
197	0xbcdca254	-0.026932873
198	0xbdd273cd	-0.102759935
199	0xbdec2644	-0.11530736
200	0x3da2b819	0.0794527
201	0x3dadbd11	0.08483327
202	0x3cdffcbe	0.027342197
203	0x3dd0f07d	0.102021195
204	0xbde3f49c	-0.1113064
205	0x3de67b6b	0.11254009
206	0x3d163bf1	0.03667826
207	0x3d0fbaad	0.035090137
208	0xbdbe0d5c	-0.09279892
209	0x3df9e30f	0.12201511
210	0xbd6b0017	-0.057373133
211	0x3de06dd3	0.10958447
212	0x3de47056	0.11154239
213	0xbc8a3710	-0.016871959
214	0x3bf33401	0.007421971
215	0xbd399c57	-0.045315113
216	0x3d41e6b4	0.047339156
217	0xbca66730	-0.020312876
218	0xbd6dd49d	-0.058064092
219	0x3ca1fcbb	0.019773832
220	0xbb39c084	-0.0028343508
221	0x3cf53c80	0.029936075
222	0xbd68b265	-0.056810755
223	0xba242d72	-0.00062628754
224	0x3e00ae86	0.12566575
225	0x3d27c1ec	0.040956423
226	0x3c954c54	0.018224873
227	0x3d961e8b	0.07330044
228	0x3d5741cf	0.052552994
229	0x3d5edffe	0.054412834
230	0x3db71370	0.08939254
231	0x3d1b3acf	0.03789788
232	0x3dac24ee	0.08405481
233	0x3cdca6e1	0.026935043
234	0xbd40c1f5	-0.04705997
235	0x3de35d2f	0.11101758
236	0xbd9710c4	-0.07376245
237	0x3ca9922b	0.020699581
238	0xbddc3f0e	-0.10754214
239	0x3cb5d48f	0.022196082
240	0x3d5fdaa4	0.05465187
241	0xbdae8fec	-0.08523545
242	0x3de30a2b	0.11085924
243	0x3dfe0649	0.124035425
244	0x3d3dbd32	0.04632301
245	0xbdaee819	-0.08540363
246	0xbc6ff849	-0.014646598
247	0xbde309e8	-0.11085874
248	0x3df93e98	0.12170142
249	0xbd052485	-0.03250553
250	0x3d335b07	0.043787982
251	0xbcd2d82c	-0.025737844
252	0xbb8c0716	-0.0042733056
253	0x3e236874	0.15957814
254	0xbd03625c	-0.032076225
255	0xbd856b9e	-0.06514667
