model/lstm_3.model (torch, 669851 bytes, 17 tensors)

weight_ih_l0 f4 [256, 64]
000000 0c 87 5e bd 4c b3 9c 3c b2 e8 98 bd 18 e7 1b be
       -0.05432801 0.019128464 -0.07466258 -0.15224874
000010 78 7b bc bd fb bf 37 3d 69 e8 17 3d 62 57 3f bc
       -0.09203237 0.04486082 0.037086878 -0.0116785485
000020 25 30 a3 3d cb 36 72 3c 13 b8 d6 bd 6b 64 ab 3c
       0.07968167 0.0147835715 -0.10484328 0.020921906
000030 cb 19 91 bd c8 bb 09 3e 0a 9c 6e bb 87 3d 39 3d
       -0.07084998 0.13450539 -0.0036408924 0.045224693
000040 d6 1a 37 bc 9d 65 58 bb ba 66 06 3d a5 1c b0 3d
       -0.011175832 -0.003301955 0.03281281 0.085992135
000050 21 91 bf bd a4 7b eb 3c 6d 0a eb 3d 1c 5b ad bd
       -0.09353853 0.02874548 0.11476598 -0.08464643
000060 2d 03 44 3c 6a 29 ed bc a4 e5 09 3c 12 12 d2 bb
       0.011963648 -0.028950412 0.008416567 -0.0064108456
000070 f0 0a ea 3d 8f 67 e9 bd f7 62 a2 bd cb a1 7a 3d
       0.114278674 -0.11396705 -0.07929032 0.061189454
000080 e6 bd a9 bd d5 31 a3 3d 8e 50 40 bd d7 ab bd 3d
       -0.082881734 0.07968489 -0.046951823 0.092612915
000090 09 76 1b 3d 21 b0 a4 bd 46 08 2e 3d 6f c2 85 bd
       0.037954364 -0.080414064 0.04248836 -0.06531226
0000a0 d1 76 3b bd 7a 03 b7 bd 52 ef 69 3d d4 21 f2 3d
       -0.04576761 -0.0893621 0.057113 0.118228585
0000b0 8c da e6 bb f9 2e b4 3d 63 84 5e bd f4 e0 07 3e
       -0.007045096 0.08798022 -0.054325473 0.13269407
0000c0 de e9 29 3d e5 57 ed bc cb 4b fb bd fa 8e b1 3c
       0.0414828 -0.028972575 -0.12270316 0.021674622
0000d0 97 7b 8f bb 46 f7 b9 3d 8a f5 bd bc 74 c3 71 bd
       -0.0043787467 0.09080367 -0.023188371 -0.05902429
0000e0 30 be 18 be ae 82 c3 bd bd 01 6a 3d fd a6 be 3d
       -0.14916301 -0.095464095 0.057130564 0.09309194
0000f0 58 2a 1a be 49 fd 68 3d 35 77 9f bd 7c 4b 71 3c
       -0.15055215 0.056882177 -0.07786409 0.0147274695
000100 03 24 52 bb 80 ca 5c 3d a0 fe c6 bd 1d 88 9f 3c
       -0.0032064922 0.053904057 -0.097165346 0.019474084
000110 7e 19 89 bd bb 64 99 3d 34 89 39 3d 4c 59 e6 bd
       -0.066943154 0.07489916 0.045296863 -0.11247501
000120 f0 0a 90 bd c9 ec ad 3d 46 66 cf b9 5d a8 c6 3d
       -0.07033336 0.08492429 -0.00039558316 0.097000815
000130 3b 65 09 3d d9 c6 00 3e 26 22 bb 3d 04 d6 b7 3d
       0.033543807 0.12575854 0.09137373 0.08976367
000140 6e 95 eb ba 6c 79 96 bd c4 5b b9 bd ed ce dd bc
       -0.0017973611 -0.07347378 -0.09050706 -0.027076209
000150 0f c7 cf 3d 74 43 ca bd 32 11 09 3d 32 97 b2 bd
       0.10145389 -0.09876147 0.033463664 -0.087202445
000160 33 ba e2 3c af 3c ee 3d 3a c4 af 3d be 93 c5 bc
       0.027676677 0.11632668 0.08582349 -0.0241183
000170 17 b9 a1 3d 49 08 a5 3d 32 9e cd 3d b6 82 2e bc
       0.07896631 0.08058221 0.10039939 -0.010651281
000180 18 32 ca 3d 28 ff 83 3d b1 78 a6 bd a6 04 e5 bc
       0.09872836 0.064451516 -0.08128489 -0.027956318
000190 15 6c 53 3d bc c0 02 be 67 8d 24 bd e8 1d 82 3d
       0.051616747 -0.12768835 -0.040173914 0.063533604
0001a0 13 dd b3 bc 52 80 de 3a 85 6f 0b 3d 8f 58 c2 3d
       -0.021956002 0.0016975498 0.0340419 0.094895475
0001b0 04 ff 55 3d e5 87 e9 3d 13 ab 81 3d d4 64 6b 3d
       0.052245155 0.11402873 0.06331458 0.057469204
0001c0 8a a2 05 bd 60 8e 26 bb c5 32 1f 3d 19 1b 8d 3d
       -0.032625712 -0.0025414452 0.038866777 0.06889934
0001d0 7e 8c bf 3a f3 93 03 3d b8 1c 16 bd 3b 6f 6e bd
       0.0014614013 0.032123517 -0.036648482 -0.058211546
0001e0 c8 7c d5 bd e5 f5 7b 3d 9f ef ac 3c f1 3b d8 bd
       -0.10424191 0.0615138 0.021110354 -0.10558308
0001f0 50 32 a4 bb 75 4d 85 3d ef 37 88 3c 9c 17 05 3e
       -0.0050108805 0.065089144 0.016628234 0.12997288
000200 05 f9 85 3d 5b 8f f4 3d 00 09 d9 bd 9d 91 ae bd
       0.06541637 0.119414054 -0.1059742 -0.08523867
000210 22 da 0c 3d 24 2d 3e bb 60 cf 24 3d 4b 39 a5 bd
       0.034387715 -0.0029018605 0.04023683 -0.080675684
000220 2e cb b7 bd 55 54 2b bc a8 be ac bd d4 af a3 3d
       -0.089743 -0.010457118 -0.08434802 0.07992521
000230 38 22 02 3e ae ed da bc 45 c8 60 bd af 78 c7 3c
       0.12708366 -0.026724663 -0.054878492 0.024349539
000240 da 6a c4 3c 7c 26 d5 bc 47 21 4b bc 64 c7 0c be
       0.023976732 -0.026019327 -0.012398071 -0.13747936
000250 a3 41 2b 3b 52 a4 91 3d 1a d5 2e bd b9 e8 e5 3d
       0.0026131652 0.0711142 -0.0426837 0.11226029
000260 a7 95 f6 bb 77 13 01 3d d6 53 1c bd b7 69 b9 3d
       -0.007525164 0.031512704 -0.03816589 0.09053367
000270 00 59 1e 3d 7c 00 b5 3d 31 01 59 bd 57 0b f6 bc
       0.038659096 0.08837983 -0.05297965 -0.030034704
000280 85 47 76 3d b4 80 ec bd 51 c2 f1 bd 81 46 eb 3d
       0.0601268 -0.11547986 -0.11804641 0.11488057
000290 94 2c ef bb 64 16 8d bd e3 01 70 bc ca be c4 bc
       -0.0072990153 -0.06889036 -0.014648887 -0.024016757
0002a0 06 b3 c4 bd 36 a3 56 bd 25 e9 b0 3c d9 2c e0 3d
       -0.096044585 -0.052401744 0.021595547 0.10946054
0002b0 ef 66 b0 bc 5e cb e1 bd 4c 83 4d 3d ef a9 4e 3c
       -0.021533458 -0.11025117 0.050174043 0.0126137575
0002c0 cf 35 94 3d 1a 21 8d bd 2a 8d 03 bd 26 98 db 3c
       0.07236826 -0.06891079 -0.032117046 0.026805948
0002d0 56 25 87 3d 8a a4 20 3d 9a 6a 25 3d 64 5d a9 3c
       0.06598918 0.039219417 0.040384866 0.020674415
0002e0 99 9c 7d bd b4 38 b8 3d a6 e2 f0 3d f8 2c ff bc
       -0.06191692 0.0899519 0.1176198 -0.031149372
0002f0 28 b9 d4 bd a1 81 cc 3d 7b 19 a7 bc 5c 67 3f 3d
       -0.10386878 0.09985662 -0.020397892 0.04672943
000300 f7 66 f7 3d 4f 1e 54 3d cb f4 93 bd 34 e2 b5 bb
       0.12080186 0.051786717 -0.07224425 -0.005550647
000310 fd 95 fd bc 3f 17 fc bc 7f db c9 3d c3 24 cc bd
       -0.030955309 -0.030772803 0.09856319 -0.09967949
000320 00 9d 15 3d e3 5b 1e bd 1e 3d f6 3d 49 eb 78 3d
       0.03652668 -0.03866185 0.12023376 0.06077126
000330 b2 33 3f 3d f1 6a a0 3c ab 54 21 bc e8 87 e2 3d
       0.04668016 0.019582244 -0.009846847 0.11061078
000340 b2 c5 e8 bc 31 49 e4 bd 45 52 4f bd 8c 90 b8 bd
       -0.028414581 -0.11146773 -0.050615568 -0.09011945
000350 33 99 3e bd 59 85 cb 3d 69 77 8e 3d ba c7 9b 3c
       -0.04653282 0.099375434 0.069563694 0.019016135
000360 57 39 25 bd 6c 28 80 3c fa e9 a2 3d 1e 12 81 bc
       -0.040337887 0.015644275 0.07954784 -0.01575571
000370 a3 87 16 be 6a a0 6d bd 49 be 94 bd 92 fe 12 3d
       -0.14700179 -0.05801431 -0.072628565 0.03588731
000380 99 6b 10 3d f5 c4 38 bd ab 7a d4 bd 23 ba 2c bd
       0.035258863 -0.045109708 -0.103749596 -0.0421697
000390 ab 0b ac 3c 7e a9 b2 3d e3 e8 11 be 07 8a df bd
       0.021001657 0.08723734 -0.14248995 -0.109149985
0003a0 92 42 c6 3d dc 2f 4c 3d 18 6d 2c bd c6 34 e6 bd
       0.09680666 0.04985033 -0.042096227 -0.112405345
0003b0 1e f1 17 be 36 1d c6 3d 3c 89 c5 bd 18 38 d8 3d
       -0.14838073 0.0967354 -0.09645316 0.10557574
0003c0 ed 97 59 3d b9 a4 75 bd 3b 28 86 bd b6 c7 1b bd
       0.053123403 -0.059971545 -0.06550642 -0.038032256
0003d0 36 15 c6 3b 27 e0 43 3d 0b 29 9a bd 6a 49 b4 3d
       0.006045009 0.04782119 -0.075273596 0.08803065
0003e0 8a 63 ac 3d 88 70 82 bd c6 4e 25 bd 68 ac be 3d
       0.08417423 -0.0636912 -0.040358327 0.09310228
0003f0 8e c7 f0 bc 28 09 50 3d 1e 56 d7 3d 1e 6a 9e 3d
       -0.02939203 0.050789982 0.105144724 0.07735084

weight_hh_l0 f4 [256, 64]
000000 8a 9e d4 bd 30 e9 eb 3d 91 2b 16 bd b1 64 f5 3d
       -0.103818014 0.11519086 -0.036662642 0.11982096
000010 24 7b 81 bd 9d 89 e6 3d 81 a4 67 3d 5e 60 16 3d
       -0.06322315 0.112567164 0.056553368 0.036712997
000020 d8 55 16 3e 16 5c 3f 3c ef 5c fc bd e9 84 ef bc
       0.14681184 0.01167967 -0.12322413 -0.029238181
000030 26 18 f5 bc 7c 77 db bc 0a 4a 6b 3d 55 a5 6d bd
       -0.029918741 -0.026790373 0.057443656 -0.058019
000040 93 a3 62 3d d5 dd 29 bd 51 c2 bd 3d 4f 45 4f bc
       0.055331778 -0.04147132 0.092655785 -0.012650802
000050 bd fd 56 3d be de 1a 3d 98 42 bc 3d 43 59 a7 bd
       0.052488077 0.03781008 0.09192389 -0.08171322
000060 19 98 07 3d f0 fd ac 3d ba 4c 0e 3c ec 17 cc bc
       0.033104036 0.08446872 0.008685285 -0.02491375
000070 4c 44 27 3c 2a 73 a4 bd 39 5a fc bd dd 10 ed bd
       0.010209154 -0.08029778 -0.12321896 -0.11575482
000080 76 b3 eb 3d ca c8 df 3c 71 5f 0c 3d 77 1c 89 bd
       0.11508839 0.027317423 0.034270708 -0.06694882
000090 c9 5e e7 3d 7d c7 e5 3d e3 5e 5f 3d 23 1c 6a bc
       0.11297376 0.1121969 0.05453385 -0.014288935
0000a0 5f 95 09 3d ae 8a ac bc 73 df cb 3d 06 be c4 3d
       0.033589717 -0.021062221 0.09954729 0.096065566
0000b0 e8 1c c1 bd 2a ee 97 3c b1 39 25 ba 3a 9f 04 be
       -0.094293416 0.018546183 -0.0006302847 -0.12951365
0000c0 99 19 f5 bc f9 7f de 3c 7d 07 32 3d 59 75 5f bb
       -0.029919432 0.027160631 0.043464173 -0.0034097044
0000d0 89 6d 80 bd 77 cb de 3b 9b c1 e0 3d 3b e3 2c bd
       -0.06270892 0.0067991572 0.10974427 -0.04220889
0000e0 c7 56 be bd 67 d1 9c 3d b9 74 00 be d2 59 43 bc
       -0.09293895 0.07657128 -0.12544526 -0.01192327
0000f0 f2 2b 18 be 68 3d 58 3d 90 9a bc bb de 00 4c 3b
       -0.14860514 0.052792937 -0.00575573 0.0031128447
000100 4e 2b 58 3d 6a b4 f2 bd c9 76 8a bd 4e 4d a0 bc
       0.052775674 -0.118508175 -0.06760938 -0.019568112
000110 44 3a 95 3d 2e 8f 28 3d 6d 3c 21 3b 46 a0 10 be
       0.07286504 0.04115217 0.0024602667 -0.1412364
000120 ab 9c ba bd 0e 4d 0e 3d 61 da d7 bd 93 8c b0 3d
       -0.09111913 0.034741454 -0.10539699 0.086205624
000130 b9 75 9a bd f8 21 92 3c 23 aa a5 bd 88 de 0f be
       -0.07541985 0.017838463 -0.08089092 -0.14049733
000140 60 21 0e bd 1b f9 b5 bd 8d a4 e8 3d 54 52 bd bd
       -0.034699798 -0.08885404 0.113595106 -0.092442185
000150 05 34 a8 bd 38 5b db 3b 55 9e 08 be 0f d0 8a bd
       -0.08213047 0.0066942237 -0.13341649 -0.06777965
000160 8c 24 bd 3d 69 93 ad 3d 1a 46 2d 3d ca a6 b8 3c
       0.092354864 0.08475382 0.042303182 0.022540469
000170 a2 b5 88 3d 44 1a 23 bb e8 e0 87 3d 45 bf f7 bd
       0.06675269 -0.0024887482 0.06634694 -0.12097029
000180 fc 81 fa 3c ad cf 86 bd c5 91 16 bd 37 42 16 bc
       0.03057956 -0.0658258 -0.03676011 -0.00917106
000190 9f a5 8b bb e9 10 09 3d b5 70 e6 3d 2b 56 86 bc
       -0.004261687 0.033463392 0.11251966 -0.01639851
0001a0 2e 8e 08 be 91 44 92 3d 0d 2e 1d bd fb 30 7b 3d
       -0.13335487 0.07141984 -0.038373996 0.06132601
0001b0 19 ca 01 bc f4 58 eb ba 65 fa bd bb 8b 59 bb 3d
       -0.007921719 -0.0017955587 -0.0057976716 0.09147938
0001c0 ea 80 20 3e e2 21 eb 3c 34 31 df bd a3 5d da bd
       0.15674177 0.02870268 -0.108980566 -0.10662391
0001d0 2c 03 9f 3d 48 9a bf 3d 7e ba 48 bc 54 59 95 3d
       0.07764277 0.09355599 -0.012251494 0.072924286
0001e0 e8 66 3f 3d 02 76 84 bc 77 6a 7d bc c3 de af bd
       0.046729 -0.016169552 -0.015467278 -0.0858741
0001f0 46 d9 31 3d f0 aa 90 3d 1e 64 c2 3d 40 96 61 bd
       0.0434201 0.07063854 0.09491752 -0.05507493
000200 10 11 7b 3d 0f fe dd 3d cb 6d b6 3d 1a 18 f1 3d
       0.06129557 0.108394735 0.0890766 0.11772175
000210 af 91 bb 3d 43 50 9f bc 80 f4 c1 bd a1 eb 47 bb
       0.09158646 -0.019447451 -0.09470463 -0.0030505436
000220 7b c7 76 bd 01 58 e3 bc 5e 1f ca bd 31 14 21 3d
       -0.060248833 -0.027751924 -0.09869264 0.039325897
000230 fa aa 6c 3d e6 8c 1e 3a 7d 7d 62 bb c8 00 96 3c
       0.057780243 0.0006048217 -0.003455966 0.01831092
000240 a8 2d df bd 46 8a 48 39 2d a8 55 bd eb 3e 76 3d
       -0.1089738 0.00019124997 -0.052162338 0.060118597
000250 63 d0 b6 bc 31 38 89 bd 50 44 fd bd 38 d6 05 be
       -0.022316163 -0.06700171 -0.12366545 -0.13069999
000260 c7 c4 f7 3c bd 2e 4b bd e8 0f 13 bd 33 8f ff bd
       0.030245198 -0.04960512 -0.03590384 -0.12478485
000270 84 43 ca bd 46 db fb 3d e5 f2 c9 3c ab d9 80 3c
       -0.09876159 0.122976825 0.024651954 0.015728792
000280 4f 13 3b bd b9 5b 1b 3d f4 5c bb 3c 9d c4 3f bd
       -0.04567271 0.03792927 0.022871472 -0.046818364
000290 9a 25 eb 3d dd 08 c4 3d e5 54 1f 3c 29 1c c3 bd
       0.11481781 0.09572003 0.00972483 -0.095268555
0002a0 cf fd b9 3d 0f 27 f7 bc 94 6f b1 bb 45 e5 7d 3d
       0.09081613 -0.030169992 -0.0054149125 0.061986227
0002b0 6e 12 71 bd fe 9e 0d bd c7 bd 63 3d d1 89 bc 3d
       -0.058855467 -0.034575455 0.055600908 0.09205974
0002c0 68 af d0 3d 7f 85 9f 3c f8 57 9c 3d 5e bf 00 3e
       0.10189706 0.019472836 0.07633966 0.12573001
0002d0 f4 eb 86 bd 16 f8 fd 3d 00 02 d6 3d d8 ed dd 3d
       -0.06587973 0.12400834 0.104496 0.10836381
0002e0 f5 96 8c bd ca 7b 85 bd 04 dc d5 3d 84 d1 c4 3b
       -0.0686473 -0.065177515 0.10442355 0.0060064215
0002f0 62 03 ac bd d9 87 90 3d 48 6a 36 3d cd 32 cd bd
       -0.08399083 0.07057161 0.04453495 -0.10019455
000300 12 09 5a bd 66 3d a9 3d 2a 81 0f 3d 13 d1 31 bd
       -0.053231306 0.08263664 0.03503529 -0.04341228
000310 9b 13 89 bd b2 4c d7 bd 6b 3e 81 3d e1 1f f5 bd
       -0.066931926 -0.10512675 0.063107334 -0.11968971
000320 be 45 9d bc 54 c4 2e 3d d3 1b ef 3b 09 71 ad bd
       -0.019198295 0.0426677 0.007297018 -0.08468825
000330 7e 27 9b 3b 03 8b 61 3d 6b 72 ea bd 3f 3f 4a bd
       0.0047349324 0.055064213 -0.11447605 -0.049376722
000340 3e d1 f6 bd 08 18 db 3d 0f b5 8c bd 73 4b d0 bb
       -0.120516285 0.10697943 -0.06870472 -0.0063566505
000350 11 a5 af bd 71 0d a5 3c 82 5d d2 bd 28 4b 3b 3d
       -0.08576406 0.02014801 -0.102717414 0.04572597
000360 b4 6f ac 3c 09 68 9e 3d 52 25 e0 39 bf 39 ba bd
       0.021049358 0.07734687 0.00042752415 -0.090930454
000370 1d 88 e8 bc 49 04 8f 3d db 0f b2 bb de f2 a2 3d
       -0.028385216 0.06983239 -0.005434019 0.079564795
000380 2c 12 0e 3d 06 c5 bc 3c 14 5d b5 bd 1c 22 fd 3c
       0.0346853 0.023043167 -0.08855644 0.030900054
000390 6b f5 fd bd 01 e1 e2 3d 5f fc 62 bd cd 4a a1 3d
       -0.124003254 0.11078072 -0.05541646 0.07875595
0003a0 de 90 29 3d e5 a1 12 3e a3 4c 95 bd 86 c8 88 3d
       0.04139792 0.1431957 -0.07290008 0.06678872
0003b0 66 0e e0 3d 86 b8 ee 3d d8 73 a8 bd 0c da 2f 3d
       0.10940246 0.11656289 -0.082252204 0.042932555
0003c0 bc b2 96 3d 6e ba 1d be 88 ea c9 3d 0f 4b a1 bd
       0.073583096 -0.15403149 0.098591864 -0.078756444
0003d0 49 a6 95 3d c8 2c b1 3c 86 8f 53 3d b1 e8 cf 3c
       0.07307107 0.021627799 0.051650546 0.02537951
0003e0 67 a4 8e bd 56 8f 83 bd 72 bf d2 3d 76 8d e1 bd
       -0.06964951 -0.064238235 0.102904215 -0.1101331
0003f0 09 0f 60 bd 7b ff e5 3d 60 97 d1 3c 7b a2 a3 3d
       -0.05470184 0.1123037 0.025584877 0.07989975

bias_ih_l0 f4 [256]
000000 0c 97 08 3e f9 24 e6 bc 72 ee dd 3d f0 32 ee bc
       0.1333887 -0.028093802 0.108364955 -0.029077023
000010 83 82 97 bc ed f3 5f 3d 41 04 02 3e 0c a8 06 3e
       -0.01849485 0.054675985 0.12696935 0.13150042
000020 4b 75 b2 bc 29 09 46 3d b9 b0 93 3d d3 b9 88 bc
       -0.021784445 0.04834858 0.072114415 -0.01669017
000030 07 50 b0 bd b8 c2 0d 3e 74 63 38 bd e2 d6 d3 bc
       -0.08609014 0.1384381 -0.04501672 -0.0258593
000040 1d 34 0a 3e 79 83 e7 3d 4d 05 41 bc 98 7b 44 3d
       0.13496442 0.11304373 -0.011781049 0.04796943
000050 9f 12 a1 3d 59 79 9b 3d 15 06 ba bd 84 38 28 bd
       0.0786488 0.075915046 -0.09083191 -0.041069523
000060 01 ad ee 3d 3b 00 17 bd 3a a7 9a 3d 5c 90 93 3d
       0.116540916 -0.036865454 0.07551427 0.07205269
000070 ee d3 04 3d 41 d4 0f 3d a4 9d 99 3c af e8 f7 3d
       0.032428674 0.03511453 0.018751927 0.12104928
000080 2f ec 8a bd 32 de 02 be b2 b0 52 bd c8 bd b6 bd
       -0.0678333 -0.12780073 -0.05143804 -0.08922917
000090 9e 41 3c 3d a0 7a 9b bd 00 04 e8 bd f4 2e 95 3d
       0.045961015 -0.07591748 -0.11328888 0.07284346
0000a0 4a 26 47 bd f4 18 d9 3d da a9 f8 3d fd 04 4f 3c
       -0.0486205 0.106004626 0.121417716 0.012635467
0000b0 06 c5 4d bd d8 a2 61 3b 05 54 b9 bd 97 67 93 bd
       -0.050236724 0.0034429338 -0.090492286 -0.071974926
0000c0 f4 ee 03 bd f2 50 a7 3d 40 ba cc 3d 7d e8 94 bb
       -0.032210305 0.08169736 0.09996462 -0.0045443163
0000d0 58 f0 9a 3d 02 19 65 bd 7d 35 da bc 86 58 83 bd
       0.07565373 -0.055932052 -0.026636833 -0.06413369
0000e0 0b 4f 94 bd 33 55 87 3d a5 12 67 3d a1 c7 e0 3d
       -0.07241639 0.06608047 0.056414265 0.10975576
0000f0 8f 06 c4 3d db 89 26 3d d7 83 58 3d 47 83 32 3c
       0.095715635 0.040658813 0.052860107 0.010895557
000100 e5 d5 27 bc 8f 09 72 bd 7a cd f1 3d 79 0f bc bd
       -0.0102438675 -0.059091147 0.1180677 -0.09182639
000110 08 5c dc 3b ca 61 53 bd 35 cd 27 3c 27 95 36 bd
       0.006724838 -0.05160693 0.010241796 -0.044575837
000120 e7 3f 03 3e f4 41 e8 3d 6c 6e c9 3d c7 e5 c5 bd
       0.12817346 0.113407046 0.098355144 -0.09662967
000130 fc e0 96 bd 6a 9c bc bd 2d 55 9d bd 2d bf e5 3d
       -0.07367131 -0.09209521 -0.076822616 0.112181045
000140 48 9d 53 bc fd 84 e2 bd ae da 8d 3d 2d 45 c6 3c
       -0.012915917 -0.11060522 0.069264755 0.024202907
000150 08 a7 4c 3d 6c 14 97 bc 99 78 a9 bd 42 16 47 bd
       0.04996398 -0.018442355 -0.08274955 -0.04860521
000160 fd 88 fd 3c 5e 75 e8 3d d3 2d 7b 3d 76 20 ef bd
       0.03094911 0.11350511 0.061323 -0.11676113
000170 ec c3 a1 3c eb 99 d5 3d d5 3a 2f bd 70 2b a9 bd
       0.019746743 0.10429748 -0.042780716 -0.08260238
000180 c6 bf a7 bc 50 e1 f0 3d ad f2 d0 3c f3 fc b0 3c
       -0.020477187 0.11761725 0.025506342 0.02160499
000190 9e a7 75 bd 4e c3 ac 3d 01 d6 9c 3d e8 a5 b9 3d
       -0.059974305 0.08435689 0.076580055 0.09064847
0001a0 56 79 99 3d c1 77 70 bd 44 ad 95 bd 56 99 0b 3e
       0.07493846 -0.058707956 -0.073084384 0.13632712
0001b0 4b 44 90 bd f2 93 89 bd b0 90 c4 bd 33 34 95 3d
       -0.07044276 -0.067176715 -0.095979095 0.07285347
0001c0 bb 75 3f bc da f0 04 3b 2a 76 77 bd b9 85 88 3c
       -0.011685784 0.002028516 -0.060415424 0.016665326
0001d0 e6 ea 02 be da 0d a3 3d ff 5b c3 3d a3 58 08 3e
       -0.12784919 0.07961626 0.09539031 0.13315062
0001e0 e7 a7 b4 bd 04 c1 b2 3d 5f 99 01 3e 0b ce 81 3d
       -0.08821087 0.08728221 0.12656163 0.06338128
0001f0 65 f7 53 bc a2 ca ab bd c8 1c cc bd c3 5d 66 bd
       -0.012937401 -0.083882585 -0.09966427 -0.056241762
000200 6b 53 03 be fb 5b 89 3c 30 83 ea bd 5d 38 39 3d
       -0.1282479 0.016767493 -0.11450803 0.045219768
000210 94 21 8e 3c cb 53 d1 bd da d9 b8 3d 3a 89 81 bb
       0.017349996 -0.1022106 0.09025927 -0.0039531263
000220 e4 65 d6 3d ec 65 84 3d ed 10 45 bc 10 9e eb bc
       0.10468653 0.064647526 -0.012027961 -0.028761894
000230 18 e8 44 bc 01 09 9b 3b 46 b4 ea 3d 27 6a 0b bc
       -0.012018226 0.004731298 0.11460166 -0.008509195
000240 40 d6 c0 bd 7e dc 0f 3e 08 b7 c5 3d 3e 25 c6 bd
       -0.09415865 0.14048955 0.09654051 -0.09675072
000250 3f fa ec bd 32 d6 92 bc 94 61 d3 bd 1e 50 af bd
       -0.11571168 -0.017924402 -0.10321346 -0.08560203
000260 1c f6 fb bd 1a 46 1e bc 01 27 96 bd 78 0b cb bd
       -0.12302801 -0.009660268 -0.07331658 -0.09914297
000270 97 ce 33 bd b6 f3 df bc db e7 5d 3d 4c 11 65 bd
       -0.04389819 -0.02733789 0.054176193 -0.0559247
000280 d9 75 3c bd ee 5b 37 3d 6a 58 fd 3d 05 2f b7 3c
       -0.046010826 0.044765405 0.12370379 0.022361288
000290 73 77 fb 3d b2 60 cd 3b 07 f1 21 be 69 d5 82 bd
       0.122786425 0.0062676305 -0.15814601 -0.06388361
0002a0 6d 89 f7 3d 42 8d 86 3d 12 38 b8 3d ae 95 07 3d
       0.12086759 0.065699115 0.089950696 0.03310173
0002b0 41 14 97 3d 87 0d 2b bd 58 21 f5 3b 41 55 0a 3d
       0.0737691 -0.041760948 0.0074807815 0.03377271
0002c0 e0 ce d4 3a 77 2b 9a ba 38 4f 21 3d a1 c8 42 bd
       0.001623597 -0.0011762221 0.03938219 -0.047554616
0002d0 61 5d 80 3d eb 0d 9e 3d c9 2a dd 3d d8 92 59 bd
       0.062678106 0.077174984 0.10799176 -0.053118557
0002e0 12 81 f5 3d cc b5 a3 bd 4e 0e cc 3d d9 08 a7 bd
       0.11987509 -0.079936594 0.09963666 -0.081559844
0002f0 23 b5 f8 bb da 70 1a 3c a7 d8 a8 bb 9b 34 a6 3d
       -0.0075899526 0.00942632 -0.00515278 0.081155024
000300 38 42 92 bc b2 a3 a9 3c 48 25 7f 3d 31 33 b1 bd
       -0.017853841 0.020707939 0.062291414 -0.08652342
000310 7f 95 78 bd 01 65 06 bd f0 c6 ce 3d df 8b d1 bd
       -0.060689446 -0.03281117 0.10096538 -0.102317564
000320 fa 29 c9 bd 97 8d a8 3d 6e 57 27 bd 17 78 8d bd
       -0.098224595 0.08230131 -0.040854864 -0.06907671
000330 63 c9 b1 bd 7d 9e 45 3d 1c ce c0 ba f8 ca e1 bc
       -0.086809896 0.04824685 -0.0014709863 -0.027562603
000340 36 d8 23 bd 3b 9a 39 bd 38 f2 70 bd 50 5d 61 bd
       -0.040001117 -0.0453131 -0.058824748 -0.05502063
000350 96 d5 23 bb 90 da da 3d 3a f5 f6 3d 14 3b 46 3d
       -0.0024999133 0.10686219 0.12058492 0.048396185
000360 72 0c c0 bd 76 b8 12 3e 6c 4d b5 3c 71 a4 d7 3d
       -0.09377374 0.14328179 0.022131644 0.105294116
000370 5e 01 2a 3d 66 dd e7 3d 3b 61 cb b9 78 07 96 bc
       0.04150521 0.11321525 -0.0003879162 -0.018314108
000380 b9 bc be 3d 79 14 6f 3d 96 64 01 bd 89 2c b7 bd
       0.0931334 0.058369134 -0.031590067 -0.08944041
000390 a2 0d a9 bd ac 75 75 bd 84 53 d7 bd 5d 86 3a 3c
       -0.082545534 -0.059926674 -0.10513976 0.011384574
0003a0 71 18 ec 3d f0 28 38 bd 59 41 88 3d 72 21 b2 3d
       0.11528099 -0.044960916 0.06653089 0.086977854
0003b0 50 c8 0f 3e 54 58 2a bd 95 68 ab bc 2c 30 d3 3b
       0.14041257 -0.041588143 -0.020923892 0.0064449515
0003c0 66 7c 0b 3e 56 81 5f 3d 27 be 9a bd 30 2e 87 bd
       0.13621673 0.054566704 -0.075558 -0.066006064
0003d0 bf 6e 7d bd 0c 81 84 3d 10 06 93 bd 68 09 56 bd
       -0.061873194 0.06469926 -0.07178891 -0.052255064
0003e0 72 e4 ff 3c 6f fa 63 bd 88 9d 09 3e a5 b7 9d bd
       0.03123686 -0.055658754 0.13439 -0.07701043
0003f0 ef 8b 09 3d 2f e9 75 3c 95 0c a5 bc 9e 5f b5 bd
       0.033580717 0.015009209 -0.020147601 -0.08856128

bias_hh_l0 f4 [256]
000000 a8 80 87 bd 3b 6b f1 bd 0c ee 76 3d c9 c7 e3 3d
       -0.06616336 -0.11788031 0.060285613 0.1112209
000010 04 d9 4d bb 88 a5 1e bc 61 33 85 3d 70 b8 bc 3c
       -0.003140987 -0.00968302 0.065039404 0.023037165
000020 0d f0 81 bd 75 ff 07 bc 72 72 cb bd 2a 8e 96 bd
       -0.06344614 -0.008300652 -0.09933938 -0.073513344
000030 5d 66 f7 3d 1d 85 aa 3c 9c 88 5d bd df 46 cd 3d
       0.12080071 0.020815426 -0.05408536 0.10023283
000040 88 d2 7d 3c 0a 69 93 3d eb f2 45 bb 98 49 01 bc
       0.015492089 0.07197769 -0.0030204605 -0.007891081
000050 ba b7 6e bd 59 2b 68 bd c7 64 cc 3d b1 60 5f 3d
       -0.058280684 -0.056681965 0.09980159 0.05453557
000060 4d 6d 02 3e 79 58 bf bc cd 1b c2 bd bd 68 40 bd
       0.12737007 -0.023357617 -0.09477959 -0.046974886
000070 80 a1 6f bc 18 69 da bd 8b dc 10 3d d8 e7 e0 3d
       -0.014625907 -0.10664576 0.035366576 0.10981721
000080 27 1b 2d 3d a4 eb bd bd ff 7d d4 3d 1e 92 9f 3d
       0.042262223 -0.092734605 0.10375594 0.077915415
000090 a4 b9 12 bd e5 85 84 bd 94 d3 94 bd e5 d8 00 3e
       -0.035821572 -0.06470851 -0.07266918 0.12582739
0000a0 0b 59 b9 bc 2e 90 15 bd 40 55 f5 3d ff 98 91 bb
       -0.022625467 -0.036514454 0.11979151 -0.0044432874
0000b0 b7 87 82 3d d9 6e 10 3d 15 03 ae 3d 18 c0 ee 3b
       0.06373542 0.035261963 0.084966816 0.007286083
0000c0 26 0b f8 bb 42 d8 f0 3d 27 f3 86 3d ac 11 f4 3d
       -0.0075696884 0.11759998 0.065893464 0.11917433
0000d0 7a 7b c9 bb 7c 03 90 3d 31 14 41 3d 50 5b e0 bd
       -0.0061487528 0.070319146 0.047138397 -0.109549165
0000e0 25 61 87 3d 61 d6 f1 3d f2 24 58 bd 38 67 91 bc
       0.06610326 0.11808468 -0.05276961 -0.017749414
0000f0 8f 1e 18 bc bd 11 e0 bc e3 bd 44 3d fc da 34 3d
       -0.0092846295 -0.027352208 0.048032653 0.044154152
000100 05 d5 8d bd 36 ad 37 3b 39 d2 cb bd 0d cb b1 bd
       -0.06925396 0.0028026826 -0.09952206 -0.08681307
000110 62 be 58 bd e9 96 b2 bd 60 91 85 bd 54 68 c3 bd
       -0.05291594 -0.0872019 -0.06521869 -0.095413834
000120 c1 80 4c bd 4d b6 96 bd a6 18 0a 3d 05 bd 9b bc
       -0.049927477 -0.0735899 0.033714913 -0.01901103
000130 6c 62 eb 3c 59 78 32 bd 50 f5 92 bd 49 9e d0 3d
       0.028733455 -0.043571804 -0.07175696 0.101864405
000140 18 f9 09 3d 6f a8 a1 bd 2c 0d a6 3d 54 44 49 bd
       0.03368482 -0.07893454 0.08107981 -0.04913743
000150 52 03 12 3e 52 c6 e4 bd db 4e 66 3d a3 f9 c3 bd
       0.14259079 -0.11170639 0.056227546 -0.09569099
000160 e6 f5 9b 3c 67 96 0e 3e 6d ed 24 bd 40 65 af 3d
       0.019038152 0.13924561 -0.04026549 0.08564234
000170 33 6b e1 bc 0c 8b 66 bd 25 ae 20 bd 81 2e 9f bd
       -0.027516937 -0.05628495 -0.039228577 -0.07772542
000180 ee 26 88 3d 0d e0 67 3d 9e 28 da 3d 71 b7 81 3d
       0.0664805 0.056610156 0.10652278 0.06333817
000190 6b e6 e4 3c 75 d4 89 bd 1f cd a1 3c 87 4a 9d bd
       0.027941903 -0.06729976 0.01975113 -0.076802306
0001a0 af b3 b7 3c 42 b4 3d 3c 49 fc 0f 3e fb 22 45 3d
       0.022424547 0.011578621 0.14061083 0.048129063
0001b0 72 d0 00 3e c0 13 4d bd e0 15 44 3d 65 fb 5b 3d
       0.12579516 -0.050067663 0.047872424 0.053706545
0001c0 7c 79 a2 3d bc 20 4a bd e4 83 e9 3d 51 58 6c bc
       0.079333276 -0.049347624 0.11402109 -0.014425353
0001d0 b1 61 9c bd 37 d6 b2 3d 19 26 2f 3b 2f 03 a2 bc
       -0.07635821 0.087322645 0.0026725589 -0.019776909
0001e0 bb 1a 2b 3d d8 b5 09 bd bf d5 28 3d 47 d1 70 3d
       0.04177354 -0.033620685 0.04121947 0.058793332
0001f0 8f 91 d8 3d 6e 36 a6 bd 7a 78 e2 3d 14 a2 50 bd
       0.10574638 -0.081158504 0.11058135 -0.05093582
000200 32 21 a0 3d 27 01 03 3e ce 17 bb bd 37 79 78 bd
       0.078188315 0.12793408 -0.091354 -0.060662474
000210 8a 8c ca 3d 15 98 ae bd 08 80 17 bd 1d 47 05 3d
       0.09890087 -0.08525101 -0.036987334 0.032538522
000220 5a a7 9d bc 9b 6e ab bb c8 13 29 3d 47 9a bf 3d
       -0.019244839 -0.005231691 0.04127863 0.09355598
000230 73 57 06 bd 0c 91 cd 3c aa ff 98 bd e1 ee a5 bd
       -0.03279824 0.025093578 -0.07470639 -0.08102203
000240 4f c7 02 be 77 e6 1a 3d 51 75 e8 bd 89 7e 83 bd
       -0.12771343 0.037817445 -0.11350501 -0.06420619
000250 41 cb 97 bc 97 76 8a 3c 94 05 1a be 9d 49 49 bb
       -0.018529536 0.016902251 -0.1504119 -0.0030714043
000260 8a 15 88 bd ca fd 96 bd 0a 59 ac 3c 91 ff 57 3d
       -0.06644733 -0.07372625 0.02103855 0.05273396
000270 13 28 97 bc 16 5d db 3c ef 53 09 bc f7 ec ea bc
       -0.018451726 0.026777785 -0.008381828 -0.028677447
000280 d2 e5 14 bc 1c 18 a5 3c 90 61 e9 3d 1f 4b cd bd
       -0.009087997 0.020153098 0.11395562 -0.10024094
000290 b6 22 71 3d b4 f3 88 bd 53 8c a6 bd ae 8a 7a bd
       0.058870994 -0.06687108 -0.081322335 -0.06116741
0002a0 5e 05 a4 bd 1e e2 11 3c 20 bf 67 3c d8 d2 12 3e
       -0.08008836 0.008904008 0.014144689 0.14338243
0002b0 93 2d f7 bc c0 7e 87 bd e3 e0 4f 3c 04 3b e8 3d
       -0.030173099 -0.066159725 0.0126878945 0.11339381
0002c0 9b ec 8b bd 7e fc e7 3d 40 08 45 3d 46 ad 90 bd
       -0.06832238 0.11327456 0.04810357 -0.07064299
0002d0 e4 af 3b bd fd ff 66 3c 80 3b b2 3b 05 ba a6 bd
       -0.04582204 0.014099118 0.005439222 -0.08140949
0002e0 0e 5c 0d bc 34 25 14 3d 01 7c 38 3d 4e 58 ce bc
       -0.008627905 0.036168292 0.045040134 -0.025188591
0002f0 95 94 da bb 03 a6 82 bd 40 51 35 3a a0 c3 85 bc
       -0.0066705444 -0.063793205 0.0006916709 -0.016328633
000300 af 98 14 3e 47 61 ac 3d 33 f6 68 3d 59 a3 03 3e
       0.14511369 0.08416992 0.05687542 0.12855281
000310 51 9a c1 3d 55 68 f5 3d de 4c 96 3d 31 3e de bd
       0.09453262 0.119827904 0.0733888 -0.10851706
000320 65 ac b6 bd 21 52 a3 3d 43 16 4b bb 35 17 0a 3e
       -0.089196004 0.07974649 -0.003098861 0.13485415
000330 4c a3 b5 bd 76 e1 85 3c 8e dd ac 3d b9 3c bf 3d
       -0.08869037 0.01634286 0.08440696 0.09337754
000340 30 b8 4c bd 7a 5a ae bd b5 d1 fd 3c 20 ee 8c bd
       -0.049980342 -0.08513351 0.030983785 -0.06881356
000350 b3 fb a3 3d 23 ab 2d bd 81 06 82 bd 1b d8 e7 3d
       0.08006992 -0.042399537 -0.06348897 0.11320516
000360 c8 06 02 bd 10 0c d1 bc 6b b3 9f bd 79 f6 8a 3d
       -0.03174475 -0.025518447 -0.07797893 0.06785292
000370 ef 81 f3 3c ea b4 cc 3d b8 97 d1 3d fe dd b8 bd
       0.029725043 0.09995444 0.10234016 -0.09026717
000380 1e a5 de 3d 40 aa fc bc 46 15 76 bd b5 da 26 3d
       0.10871337 -0.0308429 -0.06007888 0.04073592
000390 db 41 02 3d 45 9a a3 bd a2 af 06 3d f5 8b b1 bd
       0.031801086 -0.07988409 0.03288234 -0.08669273
0003a0 64 20 93 3d 28 36 f6 bc 57 67 be 3d 9f 7c 39 3d
       0.071839124 -0.03005512 0.09297054 0.045284864
0003b0 42 84 5c bb 3f f5 02 3e 8b 2a 93 bd 49 fe 8f bb
       -0.0033648168 0.12788866 -0.07185849 -0.004394327
0003c0 b6 46 9f bd 4c 34 81 3c 73 9e db 3d 87 f3 06 bd
       -0.07777159 0.015772007 0.10723581 -0.03294709
0003d0 1d af 54 3d 79 f1 e1 3c fe 59 70 bd ba 85 16 bd
       0.051924814 0.027580963 -0.058679573 -0.036748625
0003e0 7a 59 a7 3d e1 f4 4e 3c 86 c6 5c 3d cf c5 bf bc
       0.08171363 0.012631626 0.053900264 -0.023409752
0003f0 39 b8 d4 b9 80 40 b7 3d d9 e4 02 3e 08 6a f1 3d
       -0.00040573048 0.08947849 0.12782611 0.11787802

weight_ih_l0_reverse f4 [256, 64]
000000 a2 a8 bc bc 43 39 10 be 4a 63 5e bc 5e ad 15 3d
       -0.02302963 -0.14084344 -0.013573477 0.03654229
000010 c1 2f 78 3d 3f 89 7a bd 43 82 8f bc 20 e1 05 3d
       0.060592417 -0.061166044 -0.017518168 0.0326854
000020 24 08 05 3d e4 f8 ad 3d e7 3a f6 3c 03 49 a6 bd
       0.032478467 0.08494738 0.030057384 -0.08119395
000030 40 90 9c bd c9 90 8c 3d be 32 91 bd e0 54 15 3d
       -0.07644701 0.06863553 -0.070897564 0.036457896
000040 3a 4a 15 3e ae ef 41 3c b1 95 15 3e 19 76 27 bb
       0.14579096 0.011836929 0.14607884 -0.002555257
000050 08 40 e9 3b f0 bb dd bd 10 f9 fc 3c d3 06 07 be
       0.007118229 -0.10826862 0.030880481 -0.13186197
000060 40 02 80 bc cf 4f d1 3d f9 5d f9 bd 01 be 0a 3d
       -0.015626073 0.102203004 -0.12176127 0.033872608
000070 5c c9 3a 3d b7 0f 43 3d 7c 25 04 bd bc 8f 87 3c
       0.045602188 0.04762241 -0.03226231 0.01654803
000080 ea 9e 82 bc 31 0e f8 3d 38 25 3b 3d 2e a6 4f bc
       -0.015944917 0.12112082 0.04568979 -0.012673898
000090 48 9d 95 3d 62 83 2a be fc a8 a8 bd ae 61 ac bd
       0.0730539 -0.16651681 -0.08235356 -0.084170684
0000a0 ee c8 bd 3d 46 71 90 3d d5 9b a7 3d d0 be 4f 3c
       0.0926684 0.07052855 0.081840195 0.012679771
0000b0 46 15 1b bc df 4f 19 3d 7c f8 d4 bd bc b5 d0 3d
       -0.009465521 0.037429687 -0.10398957 0.10190913
0000c0 9e d0 33 bc 88 fa 8f 3d 13 5d c3 3d 89 3e 64 3d
       -0.010975031 0.07030207 0.09539237 0.0557237
0000d0 1e 9d 2d bd 80 9d ba 3c 1e 27 26 bd 0c 5b 86 3c
       -0.042386167 0.02278018 -0.04056465 0.016400836
0000e0 d2 7a 6e bd d5 87 f5 3d 8f b0 3c bc b7 fc 81 3d
       -0.0582226 0.119887985 -0.011516704 0.0634703
0000f0 5a 58 94 bc cc eb f8 bc 4b 56 09 3c db 2a fa 3d
       -0.018108536 -0.030385874 0.00838239 0.12215205
000100 15 94 6b 3d 2d 69 05 be 85 dc c2 bc d4 26 8b bd
       0.05751427 -0.13028403 -0.023786793 -0.06794515
000110 e9 b4 22 3d 39 bf 9a bd a0 cc bd bd 1b ae dd bd
       0.03972331 -0.07556004 -0.09267545 -0.108242236
000120 8e c3 f5 3c 7f 4f 6e 3c 99 0c ce bc 27 b7 db 3d
       0.030000474 0.0145453205 -0.025152491 0.10728293
000130 f0 dc d6 3b b9 a8 aa bd 06 ef a4 3d af 8f 10 3c
       0.0065570995 -0.083329625 0.080534026 0.008823319
000140 31 45 27 bd c1 28 06 3e c7 f0 32 3d 2f d4 01 3e
       -0.04083747 0.13101484 0.043686654 0.12678598
000150 a4 77 54 bd f5 cc 5d 3d 49 ee f7 3b f6 2e cf bd
       -0.05187191 0.05415054 0.0075662476 -0.10116379
000160 45 8e bc bd 7b bd 6f 3d f7 2a e0 3d 07 6d cf bd
       -0.09206823 0.058530312 0.10945695 -0.10128217
000170 77 f2 15 3c 6d f1 a1 3c d7 5f 84 3d 14 2d 75 bd
       0.009152046 0.019768441 0.064635925 -0.059857443
000180 6c af bc 3d f1 21 cd 3d 08 fc f5 3d c3 cd 0a 3d
       0.092131466 0.100162394 0.12010962 0.033887636
000190 24 b1 02 bd bb 85 d8 3d bc 98 ba bd c2 1e 84 bd
       -0.031907216 0.10572382 -0.09111163 -0.06451179
0001a0 53 84 95 bb a1 06 b0 bc 47 97 1d 3b 84 09 38 3d
       -0.0045628934 -0.021487536 0.0024046467 0.04493095
0001b0 7c 32 b9 3d ae 4e a9 bd 02 c2 8b bd bc c9 b4 bd
       0.09042832 -0.0826696 -0.068241134 -0.0882754
0001c0 b9 9b f5 3d 58 6d 6a 3d fd ea 4d 3d 05 67 82 38
       0.11992592 0.057233185 0.05027293 6.218072e-05
0001d0 8c cf d9 bb 66 c1 99 bd 13 d5 43 3c fd 1b d7 3d
       -0.006647056 -0.07507591 0.011952656 0.10503385
0001e0 b3 7a 53 3d a2 1c ce bd 3e be 01 3e d5 bc e3 bd
       0.051630687 -0.10064055 0.12670228 -0.11120001
0001f0 73 aa 80 3d 71 15 f2 bd df 8e c4 bd d8 e2 19 3d
       0.062825106 -0.11820496 -0.09597563 0.03756985
000200 94 a8 e8 3d c3 4e ba 3b fb 56 e6 3d 0d 74 d8 bd
       0.11360279 0.0056856587 0.11247059 -0.1056901
000210 3e 44 8f 3d fa 85 63 bd de 78 1a 3c 3f 16 13 bd
       0.06995438 -0.055547692 0.009428231 -0.035909887
000220 7d f6 35 bd f7 20 05 3d 3d c3 01 3e 05 50 f2 3d
       -0.044424523 0.03250214 0.12672134 0.11831669
000230 45 d3 1c bd 13 94 48 3d da 0c 5a bd 1f 86 fa 3d
       -0.03828742 0.04896934 -0.053234912 0.12232613
000240 05 85 08 3d 62 ba 0d bd 9d d1 d6 bc c1 95 4a 3d
       0.033329982 -0.034601577 -0.026222998 0.049459223
000250 32 ef 99 bd 2d 0f 65 3d 00 5c 81 3d 0b 55 82 3d
       -0.07516326 0.055922676 0.06316376 0.06363877
000260 e4 92 02 be 82 98 17 bd 8c ea 9b 3d e9 d9 84 3c
       -0.12751347 -0.037010677 0.07613096 0.016217189
000270 d6 7f 04 bd 4d b5 84 bd 77 95 cf 3d 40 3b 04 3d
       -0.032348476 -0.06479893 0.1013593 0.032283068
000280 df 3d b3 3d a5 06 9b bd 4e 0d bf 3c f4 a0 15 3d
       0.08752035 -0.07569627 0.023321774 0.03653045
000290 90 81 85 3b 6f f9 12 3e 5c 5c ec bc 9f 98 00 be
       0.004074283 0.14352964 -0.028852634 -0.1255822
0002a0 47 9b d9 3d c8 2c e1 3d 3b 1c 25 3d 44 91 b1 bd
       0.1062532 0.109948695 0.040310126 -0.08670285
0002b0 33 79 a5 bd 7d 9a ac 3b 60 51 34 bc 97 a0 15 bc
       -0.080797575 0.00526744 -0.011005729 -0.009132526
0002c0 10 07 30 3d fb 1e 2c bd b7 ce 03 3a d0 c6 92 bd
       0.042975485 -0.042021733 0.00050280563 -0.07166827
0002d0 30 0c 50 3c af a0 d0 bd 9e 78 2c bd 72 ce 22 3d
       0.012698218 -0.10186898 -0.042107217 0.039747663
0002e0 00 f4 b0 bd a6 ff 8a bd ed 8d a8 3d 43 da b0 bd
       -0.08640289 -0.06787042 0.08230195 -0.0863538
0002f0 95 25 79 3c a8 df a1 bc 79 db a3 3d 4f 76 a6 bd
       0.015206714 -0.019759968 0.080008455 -0.08128034
000300 da 87 0e 3d 2e dc ce bc 4d ba 79 bd c9 14 12 3c
       0.034797527 -0.025251474 -0.060968686 0.008916088
000310 c4 92 56 bd 89 ff 64 bc 9e 83 2e bd 53 19 3b bd
       -0.05238606 -0.01397694 -0.04260599 -0.045678448
000320 97 12 ee 3c f2 c8 35 bd 06 51 fd bd f9 c1 8f bd
       0.029061599 -0.04438109 -0.123689696 -0.07019419
000330 86 8e 2a bc ed a8 1a 3e cc 03 ac 3c 5e c1 aa 3d
       -0.010409957 0.15103503 0.020997904 0.08337663
000340 03 8a af 3d 35 ed 82 3c ed 83 6a bc 18 c7 3d 3d
       0.085712455 0.01598225 -0.01431368 0.04633245
000350 51 14 a3 3d 4f 09 07 3e 1d fc 45 bc dc 9c df 3d
       0.079628594 0.13187145 -0.012084034 0.109185904
000360 45 a0 96 bd e7 1b e5 bd 58 c9 39 3d 1d a7 7d 3d
       -0.07354788 -0.111869626 0.045358032 0.06192695
000370 d2 cf d3 3d 1d ee 82 bd c8 ee cd 3d 24 0f 6a 3c
       0.10342373 -0.06393073 0.100553095 0.014285836
000380 23 35 a0 3c bf 96 40 bd b4 fb ad 3d 29 4c 87 bd
       0.019556588 -0.047018763 0.08495274 -0.06606323
000390 40 aa 8c 3d 3f 6d 3c 3b 11 0e 13 bd e4 99 1c bd
       0.0686841 0.002875164 -0.035902087 -0.0382327
0003a0 80 15 aa bd 4e bf f7 bd 03 97 ff bd 3f 63 bd 3d
       -0.08304882 -0.12097035 -0.12479975 0.09247445
0003b0 19 a4 66 bb 15 65 66 3c 59 79 c6 3c 91 34 a6 bd
       -0.0035193025 0.014062186 0.024227785 -0.08115495
0003c0 2c b7 d2 3d a6 f5 c3 bd 89 0b 65 3d df a9 10 3d
       0.102888435 -0.09568338 0.055919204 0.03531825
0003d0 46 1c 9a 3b 2a a2 83 bc ab 5f 71 bb 1f 23 ad 3d
       0.0047030775 -0.016068537 -0.0036830704 0.084539644
0003e0 06 34 03 be 2d 9e ec bd c5 ee 2c 3c e3 0e ab 3d
       -0.12812814 -0.11553607 0.010554974 0.08352449
0003f0 67 be 5f bd 50 bf ad bd 3e 59 e1 bd 83 a2 71 3d
       -0.05462494 -0.084837556 -0.1100335 0.058992874

weight_hh_l0_reverse f4 [256, 64]
000000 5a 79 e0 bd f0 e5 a7 3d 6d bb 9c 3d 64 00 df bd
       -0.10960646 0.08198154 0.07652936 -0.108887464
000010 05 fc 34 3d e2 20 b3 3d ed 80 94 bd b8 d8 4d 3d
       0.044185657 0.08746506 -0.07251153 0.050255507
000020 cd 7a 33 3d 8e 89 b8 3d 0d 09 e8 3d 9d a3 7c 3d
       0.043818284 0.090106115 0.11329851 0.06167947
000030 9b 55 c7 3d d9 d4 e6 3d 6b 72 b3 bd 9a 4b 7b ba
       0.09733125 0.11271066 -0.08762058 -0.00095861556
000040 3f 28 12 3d 50 4e 8b 3d 9e 31 d9 3b 78 a7 2a 3a
       0.035682913 0.06802046 0.0066282293 0.000650994
000050 66 d8 8a bd d1 91 8a 3d 79 52 25 3d 96 5d 33 bd
       -0.06779556 0.067660935 0.040361855 -0.043790422
000060 9b 3d 91 bc 47 ab e3 bc 9f ee 3f 3c 19 c4 a8 3d
       -0.017729571 -0.027791632 0.011714607 0.08240528
000070 63 1e 98 3d 7b f0 25 3d b2 d4 9b 3d 2a f5 96 bd
       0.07427671 0.040512543 0.07608928 -0.0737098
000080 a2 63 97 bb ed ce 62 bd 4a f1 41 3d 9d 66 a0 3d
       -0.0046200315 -0.05537312 0.04734925 0.07832072
000090 65 5f 00 be 98 2a da bc 4c f5 33 bc 13 f4 86 3d
       -0.1253639 -0.026631638 -0.010983776 0.06589522
0000a0 a2 43 a6 3d c1 05 ad bd cc 83 8f bd ac 28 42 bd
       0.08118369 -0.08448363 -0.0700756 -0.04740207
0000b0 62 13 58 3d ee 0a e0 3d 78 e4 87 bb c3 d0 65 3c
       0.05275286 0.10939585 -0.0041471086 0.014026823
0000c0 a4 1a 9e 3d 76 ac c5 3d 32 57 2d 3d b0 15 80 bd
       0.07719925 0.09652035 0.042319484 -0.062541366
0000d0 b8 20 40 bd f0 54 c9 bd 69 a6 0a 3c e9 8e 44 3d
       -0.046906203 -0.09830654 0.008462527 0.047987852
0000e0 d3 4b 1a 3d ec f2 61 bd 71 62 ff bb 1b d8 49 3d
       0.037669968 -0.05516331 -0.0077937176 0.04927836
0000f0 b6 19 85 bb dd bb 2f bd 3b e8 cd bd 1e 82 81 bb
       -0.004061903 -0.04290377 -0.1005406 -0.0039522788
000100 98 00 ad 3a 1d b4 4b 3c 35 bd 3d bc 69 27 8f 3d
       0.001319903 0.012433079 -0.011580755 0.06989939
000110 66 d1 0d bc c8 1c d5 3d a5 e0 14 bd 20 04 78 3d
       -0.0086558815 0.1040588 -0.03634705 0.06055081
000120 85 14 61 3d a3 fb 31 3d 75 aa 0e bd b3 53 64 3d
       0.05495121 0.04345287 -0.03483053 0.055743884
000130 da 5b 86 bd 5a a4 c1 3d 1e 8a dc bd 10 e3 9d 3d
       -0.06560488 0.09455176 -0.10768531 0.07709324
000140 0c 6d c3 bd 25 6a e1 3d b6 b1 ba 3d ff 68 4b 3d
       -0.095422834 0.110065736 0.09115927 0.04966068
000150 5e 32 50 3d 36 e4 ef 3d 2a 89 d5 bc b3 7f 9f bb
       0.050829284 0.1171345 -0.026066381 -0.004867518
000160 9e 4c c8 bd 66 ae 9c 3b 67 a0 95 b9 ce 43 77 bd
       -0.097802386 0.004781532 -0.00028539004 -0.060367398
000170 5f 0b 0f 3c 69 2c 68 bc c4 5a 5c bd 7f 2b a7 3c
       0.008730738 -0.014170744 -0.0537975 0.020406483
000180 cf fd fa 3d e6 2f 2a 3d 3f 47 8e bc 64 d3 6e bd
       0.122554414 0.041549586 -0.017367957 -0.058307067
000190 c5 37 34 bd 39 2a b3 bc 0b 3a 3c bc 74 78 95 3c
       -0.0439985 -0.02187072 -0.011488448 0.018245913
0001a0 4c 61 dc 3d 7e 50 e1 bd 47 c2 a4 3d 83 82 26 bd
       0.107607454 -0.11001681 0.08044868 -0.04065181
0001b0 ca 6d 00 3e 12 ca 69 3d f0 75 31 3d 08 19 c9 bd
       0.12541881 0.057077475 0.043325365 -0.098192275
0001c0 0d 08 8a bd 42 33 f8 bd 35 56 c9 bc 24 9d b1 bc
       -0.06739817 -0.12119152 -0.02457724 -0.021681376
0001d0 45 45 65 3b c5 44 a5 3d cb 10 72 bd 4f 49 e1 3d
       0.0034983915 0.08069757 -0.059098046 0.11000311
0001e0 59 6f e2 bc 60 8e b1 bb 1c 55 78 bd bd 89 f5 bc
       -0.027640985 -0.0054185838 -0.06062804 -0.029972905
0001f0 31 2c b0 3d 6c 10 b0 3d 53 a3 d9 3d b5 ba 00 3d
       0.08602179 0.08596882 0.10626855 0.031428058
000200 fa 3f 52 3d 8f 67 a6 bd df c7 ad 3a 0c 4c 7b 3c
       0.051330544 -0.08125221 0.0013258419 0.015337955
000210 28 87 da bd 7f 45 fa bc 03 e4 94 bd e2 8c b8 3c
       -0.1067031 -0.030550716 -0.07270052 0.022528116
000220 bb 65 b5 3c 30 9f ca 3d 68 78 ee bd e8 e7 9b bc
       0.022143235 0.09893644 -0.116440594 -0.01903148
000230 4e 07 a1 3d 5c 32 23 3c 5b 68 05 bc 0b e1 66 bd
       0.078627214 0.009960737 -0.008142556 -0.05636696
000240 60 b3 e8 3c 32 e8 33 3d 49 6b 40 bd 12 e0 1a bd
       0.028405845 0.04392261 -0.046977315 -0.037811346
000250 e5 ad 98 bd 5c 5b ea 3d 99 23 22 bd ab 2d ac bd
       -0.07455043 0.11443207 -0.03958473 -0.08407148
000260 f6 9e cf 3d be d5 17 bc fa a1 9b 3b fc de 30 bc
       0.10137741 -0.009267269 0.0047495337 -0.010795351
000270 49 dc ca bd 26 a2 d7 bd 1f ee 1e bd 41 33 ee 3c
       -0.09905297 -0.10528974 -0.03880131 0.029077174
000280 31 99 c9 3d 4e 39 8b bd 64 04 df 3d fa e7 75 bd
       0.09843672 -0.067980394 0.10889509 -0.060035683
000290 97 ba f0 bd 9f f6 af 3d 3a 10 db bd 62 f4 90 bc
       -0.11754339 0.08591961 -0.10696454 -0.017694656
0002a0 27 a6 c8 bd 04 99 2f 3d 62 cc 0f 3d d2 76 bf 3d
       -0.09797316 0.042870536 0.035107024 0.09348835
0002b0 55 12 5a 3d 36 6f f7 bc af 0a d2 bd 70 3e be bd
       0.05324014 -0.030204397 -0.10255944 -0.09289253
0002c0 94 33 c0 bd dc 7f d9 3d 43 09 82 3d 82 6c 64 3d
       -0.09384838 0.1062009 0.06349423 0.055767544
0002d0 81 76 6e 3d d7 e5 b9 bd 88 72 d7 3c 45 f8 29 3b
       0.058218483 -0.090770416 0.02629973 0.0025935334
0002e0 99 64 c2 3d b0 c6 80 bd 30 54 25 bd 03 ce 5b 3c
       0.09491844 -0.06287897 -0.04036349 0.013415816
0002f0 65 0f 5a 3d 0f db 3e 3d 96 01 d8 3d 45 08 d7 bd
       0.053237338 0.04659563 0.105471775 -0.10499624
000300 c4 d7 dc 3d e7 52 79 3c dd 95 1a be 1d c6 29 bd
       0.107833415 0.015217519 -0.15096231 -0.0414487
000310 19 e4 e3 3c aa 4a c8 bd 46 ac a6 3d 8c fa 16 3d
       0.027818726 -0.09779866 0.08138327 0.036860034
000320 1d 35 ee bd 89 b4 68 bc 3b b7 6f bd f8 28 60 bd
       -0.11631224 -0.014203199 -0.05852435 -0.05472657
000330 62 bf b3 bd 3d 33 af bd 3d 72 eb 3b b3 07 04 3e
       -0.08776738 -0.08554695 0.007185249 0.12893562
000340 72 c2 87 3d 74 82 e6 3d 5e 0c 71 bd 50 fd cc 3d
       0.066288844 0.11255351 -0.058849685 0.10009253
000350 32 58 45 3d 6f 17 9e 3c 3a 20 aa 3d 0b 7b 03 3e
       0.048179813 0.019298283 0.08306928 0.12839906
000360 00 6e 1b bc 9d 7b 4e 3d 5e 22 13 3c 8b 90 4e bd
       -0.009486675 0.050410856 0.008980362 -0.050430816
000370 88 91 b4 3d 5f fc ff 3d f3 f8 3a 3d 04 ba 12 3e
       0.088168204 0.12499308 0.045647573 0.14328772
000380 9a 91 33 bc 35 bf ba bd 07 77 ee 3d 79 d6 72 3c
       -0.010960007 -0.09118501 0.116437964 0.014821642
000390 6e 7f e5 3d 07 c7 10 3e d6 e0 a4 bd ed e3 4b bd
       0.11205946 0.14138423 -0.080506966 -0.049777914
0003a0 c1 6c 60 bd 36 04 ad 3c 75 2a 93 3c 85 58 d6 bd
       -0.054791216 0.021120172 0.017964581 -0.104661025
0003b0 ec 66 44 bd b8 cb c4 bd 36 25 d5 3d 6d 9a 66 bd
       -0.047949716 -0.09609169 0.10407488 -0.056299616
0003c0 bd 86 34 bd f1 31 d0 bd 13 a0 e7 3d 62 df 0f 3e
       -0.04407381 -0.101657756 0.113098286 0.14050058
0003d0 cc 27 df 3d e0 d4 d9 3d 99 44 82 bd d8 72 a2 bd
       0.108962625 0.10636306 -0.0636074 -0.07932061
0003e0 d4 ab d5 bd 15 b4 a2 3d 29 cc cc bd 7d e3 84 3d
       -0.10433164 0.07944504 -0.09999878 0.064887024
0003f0 75 e0 e7 bd 9e e5 12 3d 43 9c 30 bd 33 9a 12 3d
       -0.11322109 0.03586351 -0.043117773 0.035791587

bias_ih_l0_reverse f4 [256]
000000 d1 5f c7 3d 20 24 13 bd a6 63 77 bd f0 35 8d 3c
       0.097350724 -0.035923123 -0.060397767 0.017237633
000010 7b 26 b4 bd ec 1e d5 3d d4 ea 83 bd 04 a0 c9 3c
       -0.08796402 0.104062885 -0.06441274 0.024612434
000020 74 bb 40 bd 9e 66 be 3a 65 48 e5 3d 2d f7 29 3d
       -0.04705377 0.0014526432 0.11195449 0.04149549
000030 34 53 5f 3d b3 47 93 bd ca c1 ca bd 25 f6 58 3c
       0.054522708 -0.0719141 -0.099002436 0.013242279
000040 de 18 92 3c 88 8b b0 bd 31 ea e9 3b 4b 7b 42 bd
       0.017834123 -0.086203635 0.0071385135 -0.047480863
000050 8d 82 13 3e 07 81 4c bd c9 e6 d6 3d ab 29 fc bb
       0.1440527 -0.049927738 0.104932375 -0.007695397
000060 2c d0 a9 bd 3d 6d 08 3e 7e 0d b3 3d 96 ab 1b bd
       -0.08291659 0.13322921 0.08742808 -0.038005434
000070 ce 67 22 3b c9 ad c9 bc ab 57 6f 3d 03 e2 15 bd
       0.002478111 -0.024619 0.058433216 -0.036592495
000080 f8 6d b3 3d 53 79 9e bd ae 75 ea bd f2 2b 99 bd
       0.08761209 -0.077379845 -0.11448227 -0.07479085
000090 e1 d9 fc bd 09 7c 9b bc fb 0c ec 3d 21 15 80 bb
       -0.123462446 -0.018980043 0.11525913 -0.0039087688
0000a0 3f fb b2 3d f1 02 1e bb 32 ff cf 3c 8e 80 d9 3d
       0.08739328 -0.002411064 0.025390241 0.10620223
0000b0 89 5d a5 3d b7 c9 0c 3d 7e 61 03 bd 60 72 83 bd
       0.08074481 0.034372058 -0.032075398 -0.064183
0000c0 7e b9 9d bd a9 b9 e1 bd b2 66 b2 3c 5d 60 8c 3c
       -0.077013955 -0.1102174 0.021777485 0.017135793
0000d0 c1 cd c2 3b 84 21 7c 3d 80 53 03 3e 19 7a 2a bc
       0.005944938 0.0615554 0.12824821 -0.010405087
0000e0 ef 6d b7 bd 49 72 1d 3d ca e3 2a 3d 16 b8 81 bc
       -0.08956515 0.03843907 0.041721143 -0.01583485
0000f0 d8 0f bf 3d 6a 0e 62 3d 40 13 1c bd ae fc cc bc
       0.09329194 0.055189528 -0.038104296 -0.02502283
000100 36 30 f4 3d d8 2b 28 3c 86 5e db 3d d9 0f 96 bc
       0.11923258 0.010264359 0.10711388 -0.018318104
000110 e0 6d 28 3d a0 d5 94 3d 1f f7 98 bc 34 ad 01 bd
       0.04112041 0.07267308 -0.018672524 -0.03165932
000120 60 12 a3 3c 18 07 fd bc 01 30 e5 bd fb 1d 1b 3e
       0.019906223 -0.030887172 -0.11190797 0.15148155
000130 62 f7 9b 3d 69 0d cd 3c 54 0d fe 3c 13 74 db 3c
       0.07615544 0.025030809 0.031012215 0.026788747
000140 90 27 80 3d b9 df a0 bd 29 74 03 3e c9 c4 5a 3c
       0.06257546 -0.07855172 0.1283728 0.013352581
000150 20 a3 23 3d d8 93 d2 3d a1 81 73 3d 37 e7 96 bc
       0.03995049 0.10282105 0.059449796 -0.018420799
000160 12 be ed 3d 82 c0 86 3d 0c c8 21 bd 72 60 18 bd
       0.11608519 0.06579687 -0.03949742 -0.037201352
000170 aa 18 cc 3c 72 4c 29 3c e5 96 ca 3d a2 6d ad bd
       0.024914104 0.010333167 0.09892062 -0.084681764
000180 9f e6 66 bd a4 ea d1 bd 1e f7 91 3d 32 20 af 3c
       -0.05637228 -0.10249832 0.07127212 0.021377657
000190 79 2c 77 bd b0 63 aa 3d 3e ea ad 3c e3 58 82 bc
       -0.060345147 0.08319795 0.02122986 -0.015911525
0001a0 8b fd 7a 3c 17 81 f1 3d f5 0c e6 3d 3c 92 12 bd
       0.015319238 0.117922 0.1123294 -0.03578399
0001b0 d7 55 cd 3d 13 14 26 bd ac 93 b3 3d 4f ff 95 3d
       0.10026138 -0.040546488 0.087684005 0.07324087
0001c0 d5 d5 19 3c 6c d3 01 3e 72 fb db 3c 6d f8 91 bb
       0.00938936 0.12678307 0.026853297 -0.0044546635
0001d0 62 a6 dc 3d f8 ff d3 3d d7 00 21 3a e2 94 6c bc
       0.107739225 0.103515565 0.0006141788 -0.014439793
0001e0 77 9e db bd aa 4e 18 3d 91 17 90 bd f5 6a b5 bd
       -0.10723584 0.037184395 -0.07035745 -0.08858291
0001f0 9f 98 c4 3d 74 1f f2 bc 50 16 dd 3c 1d b9 da 3d
       0.09599423 -0.029556014 0.026988178 0.10679839
000200 bd 25 ec bd 04 0b 90 3c 86 02 a9 3d 58 19 66 3d
       -0.115306355 0.017583378 0.082524344 0.056176513
000210 17 a7 5b 3c 2f 13 f9 bd f1 f6 4f 3a a1 e0 2f 3d
       0.013406537 -0.12161862 0.00079332205 0.042938832
000220 33 82 bc 3d 58 c1 90 bd 67 ec d0 3d 79 32 c8 3c
       0.09204521 -0.070681274 0.1020134 0.02443813
000230 4f 80 9b 3d 15 8a e0 bd 6c 94 70 bc 1d 09 a1 bd
       0.07592832 -0.10963837 -0.014683824 -0.07863066
000240 66 f1 90 3d 69 f1 0c be 42 fa d8 3d 40 7f 14 3d
       0.07077293 -0.13763966 0.10594608 0.036254168
000250 bc 7b 37 3d cd 35 1e 3d 56 95 c3 bd 8c 61 b5 3d
       0.044795737 0.038625527 -0.09549968 0.08856496
000260 5f a8 05 3c c7 08 76 bd 1a 62 2e bc 74 33 df bc
       0.008157819 -0.060066964 -0.010643506 -0.027246214
000270 34 9d 42 3d e3 6c f6 bd be a7 64 bd cf 5e bf bd
       0.0475132 -0.12032487 -0.055824034 -0.09344255
000280 89 47 b7 bb 80 60 8c bd 92 60 b9 3d 83 8e 22 3d
       -0.0055932445 -0.068543434 0.090516225 0.03968669
000290 e7 51 b4 3d 39 0d d6 bd 1d 73 b7 3d ef 16 88 3d
       0.08804684 -0.10451741 0.08957503 0.06644999
0002a0 d3 0d 79 3d b4 17 94 bc e8 64 fd 3b 5b 1d 7e bd
       0.0608042 -0.018077709 0.007732976 -0.062039714
0002b0 6f 74 b8 bd 25 0c ee bc e6 bb 84 bd e1 37 a2 3d
       -0.09006583 -0.029058525 -0.06481151 0.07920814
0002c0 76 a0 60 3d 88 8c ef bc 5b bf e0 3d b1 09 c0 bd
       0.054840527 -0.029241815 0.10973998 -0.093768485
0002d0 2c 94 f3 3d 93 fc ed 3d bb 9c b2 39 31 da 65 3d
       0.11893496 0.1162044 0.0003406758 0.056116287
0002e0 60 88 06 3d 05 db 95 bc eb f4 b5 3d a5 66 00 3e
       0.0328449 -0.018292913 0.08884605 0.12539156
0002f0 9b 3c f7 bc 20 30 36 bc 60 dc 7a 3d af ad 8f 3d
       -0.030180266 -0.011119872 0.061245322 0.070155494
000300 e4 65 31 bd 66 1c a2 bd 92 3f 1c 3d 25 87 1c 3d
       -0.04331006 -0.07915573 0.038146563 0.03821482
000310 94 4d 87 3b 85 db e7 bc 83 fe c8 bd 06 79 e8 bd
       0.004129121 -0.028302917 -0.09814169 -0.113512084
000320 18 58 87 3d 12 69 a9 3d 31 0a d8 3c bf 83 cc 3d
       0.066085994 0.08271994 0.026372047 0.09986066
000330 f4 df da bd 86 95 d3 3d 8e 2e 29 3d fd ce 0e 3d
       -0.10687247 0.10331254 0.041304164 0.03486537
000340 53 c1 c2 bd 86 c2 f5 3d 7e 68 88 bd 5b f9 e0 3d
       -0.0950953 0.11999993 -0.06660555 0.10985061
000350 d8 b7 e5 3d fa 61 88 bc 42 e4 01 3b a1 9c 3c bd
       0.11216706 -0.016648281 0.001981989 -0.04604781
000360 fc 48 54 3d ab cf 7f bc 45 34 7a bd 3a 69 73 3c
       0.051827416 -0.015613477 -0.061085004 0.014856631
000370 a7 6f 46 bc 1e 64 04 3d 03 41 5f bd 92 2d d3 bb
       -0.012111581 0.03232204 -0.05450536 -0.0064446414
000380 e7 5b 05 3e 74 43 d3 3c 96 48 8d 3c 52 d5 97 3d
       0.13023339 0.025789 0.017246526 0.074137345
000390 73 3c 4e 3d 95 49 5d 3d f9 48 bc 3d d7 d3 2a 3d
       0.050350618 0.05402525 0.09193606 0.041705932
0003a0 b4 88 a3 3d ad f7 fa 3c 46 e1 5f bd ae ad e5 3d
       0.079850584 0.03063568 -0.054658197 0.112147674
0003b0 b7 4e 94 bd 3d e1 c1 3c ce f5 f8 bd 36 d3 9c 3c
       -0.07241576 0.023666972 -0.121562585 0.019143682
0003c0 b0 03 57 3d 4f 85 b8 bd 52 f9 df 3d 73 b9 f5 3d
       0.05249375 -0.090098016 0.10936226 0.11998262
0003d0 ec 7c 3c 3d f3 22 b1 bd 37 07 5a bc 4a 51 df bd
       0.046017572 -0.08649244 -0.013307384 -0.109041765
0003e0 aa 0d f6 3d 25 fd e7 bc 11 30 22 3d 3f 83 a2 bc
       0.12014325 -0.02831895 0.03959662 -0.019837974
0003f0 2d 51 bd bb 1d 44 14 3e 28 93 01 bd 08 53 80 bd
       -0.005777499 0.14479108 -0.03163448 -0.06265837
