model/lstm_6.model (torch, 669851 bytes, 17 tensors)

weight_ih_l0 f4 [256, 64]
000000 82 ee 39 bd d3 cf ba 3c c1 e5 38 bd b1 b5 21 be
       -0.045393474 0.022804176 -0.045140985 -0.15791966
000010 b9 db b0 bd f8 b2 51 3d be 34 a3 3c 25 5f bf bb
       -0.08635659 0.05119607 0.01992261 -0.0058401995
000020 73 2f bb 3d 7c 4e 41 bc 7a 70 dc bd 17 69 a9 3c
       0.091399096 -0.011798497 -0.10763641 0.020679994
000030 33 3f 7f bd 89 95 25 3e 22 88 44 bc 47 2a fd 3c
       -0.06231613 0.16170324 -0.011995347 0.030903948
000040 62 f0 68 bb 42 2f fb bb 1f f6 40 3d 91 35 92 3d
       -0.003554367 -0.0076655457 0.04710972 0.07139123
000050 b8 90 bd bd 51 92 ba 3c a8 95 fc 3d 5b 04 b1 bd
       -0.092561185 0.022774847 0.12333232 -0.08643409
000060 ea d0 17 3c ce 4c 0a bd a4 97 95 bb fa df 95 bb
       0.009266118 -0.033764653 -0.004565196 -0.004573819
000070 2b 83 c1 3d 58 b1 0c be 1e 22 9d bd de 8a 38 3d
       0.094488464 -0.13739526 -0.07672523 0.04505431
000080 04 89 b9 bd 65 2f 37 3d 42 48 2b bd c0 8c b0 3d
       -0.09059337 0.044722933 -0.041816957 0.08620596
000090 97 48 2b 3d ff 82 04 be 69 df 45 3d 75 31 a6 bd
       0.041817274 -0.12940596 0.048308764 -0.08114902
0000a0 6f 99 60 bd 1a 9d c7 bd df 5b 34 3d 86 a0 08 3e
       -0.054833826 -0.097467616 0.044032928 0.13342485
0000b0 ef 0b 24 bb 50 c1 c2 3d b0 33 25 bd a7 a5 28 3e
       -0.0025031527 0.09509528 -0.040332496 0.16469441
0000c0 c8 31 04 3d 39 19 12 bd d4 60 00 be f2 02 16 3d
       0.032274038 -0.035668585 -0.12536937 0.036623903
0000d0 3e 12 0c 3a 0b e3 b0 3d 52 34 21 bd b9 42 38 bd
       0.00053432945 0.08637055 -0.039356537 -0.044985507
0000e0 be 68 33 be 5f dd a2 bd 70 31 4c 3d ae f6 b8 3d
       -0.17520425 -0.079523794 0.049851835 0.090314254
0000f0 b4 a7 2e be 89 81 61 3d ae 79 86 bd 4d 40 3a 3c
       -0.17056161 0.055055175 -0.06566177 0.01136787
000100 f7 6b 2b ba 9a f5 89 3d 17 a1 c3 bd af a9 ac 3c
       -0.00065392203 0.06736298 -0.0955221 0.021077005
000110 99 3d 97 bd 59 35 98 3d 3c 99 29 3d 15 33 f3 bd
       -0.07384796 0.0743205 0.0414059 -0.118749775
000120 81 cb 8f bd 5a 8d bb 3d af a1 74 3b b8 38 bd 3d
       -0.07021237 0.0915782 0.0037327816 0.09239334
000130 f3 ef bf 3c 09 46 ff 3d 5a 8d b6 3d 8d f8 b0 3d
       0.023429846 0.1246453 0.089136794 0.08641157
000140 f3 a8 8d 3b 12 05 81 bd ef c9 a4 bd c8 d2 ed bc
       0.004323119 -0.06299795 -0.08046328 -0.029031172
000150 51 9e d2 3d ff d5 ca bd ce f2 e9 3c 14 88 b1 bd
       0.10284103 -0.09904098 0.028558161 -0.08668533
000160 2b b0 d4 3c dc e4 e8 3d 77 6e b2 3d c7 55 07 bd
       0.02596291 0.113717765 0.08712476 -0.033040788
000170 65 df 9c 3d 25 3a 98 3d 38 6d d5 3d 7d 3a 46 bc
       0.076597966 0.07432965 0.104212224 -0.012098906
000180 a0 36 c5 3d 16 1d 52 3d 62 46 a5 bd 20 ec 91 bc
       0.096295595 0.05129727 -0.08070065 -0.017812788
000190 95 f2 51 3d 39 0b 14 be 2d d2 8f bd 41 fe 7e 3d
       0.051256735 -0.14457406 -0.0702251 0.062254194
0001a0 7f 37 53 bd 9b 5e 7e 3b 0a 90 1e 3d a3 51 ca 3d
       -0.051566597 0.0038813713 0.038711585 0.09878852
0001b0 7a d3 31 3d 4a 92 f2 3d 18 22 72 3d 4e 78 7f 3d
       0.04341457 0.11844309 0.059114546 0.06237059
0001c0 bd 2c 1c bd f4 ba 77 bb b5 46 54 3d d3 97 b1 3d
       -0.038128603 -0.0037800642 0.051825244 0.08671536
0001d0 4d ec 89 3a 11 27 fe 3c f9 6f 28 bd 00 db 88 bd
       0.0010522694 0.031024488 -0.04112241 -0.06682396
0001e0 1d 12 d4 bd 5a 90 8a 3d 14 b4 ab 3c 9f 34 d6 bd
       -0.10355017 0.06765814 0.020959891 -0.104592554
0001f0 06 ea 27 bb 4f 5c a6 3d e5 d9 1f 3d 88 2b 09 3e
       -0.0025621667 0.08123075 0.03902616 0.13395512
000200 8b 98 9e 3d 32 1c e9 3d a9 3a e9 bd 6e 63 b0 bd
       0.07743939 0.11382331 -0.11388142 -0.08612715
000210 40 5c 83 3c c6 c5 c5 3a bd 39 1c 3d 7c 7e 9d bd
       0.0160352 0.0015088848 0.038141 -0.076901406
000220 d2 5f b9 bd 44 dd 2a bc dc e7 ba bd 38 2f ae 3d
       -0.090514794 -0.01042873 -0.09126255 0.085051
000230 d9 06 0f 3e 50 c8 5a bc 31 bf 46 bd 00 9a c7 3c
       0.13967456 -0.013353422 -0.048522178 0.024365425
000240 67 30 79 3d d4 1e 83 bc 4a 65 80 3a d8 65 12 be
       0.060837176 -0.016005911 0.0009795811 -0.14296663
000250 7c a9 42 3b 99 51 97 3d 09 70 36 bd 22 20 e0 3d
       0.0029703071 0.073886104 -0.04454044 0.10943629
000260 ed 97 ae bc 93 49 f4 3c 6d be 38 bd 57 7f c6 3d
       -0.021312678 0.02982024 -0.04510348 0.09692257
000270 c7 f9 3e 3d f1 44 af 3d 75 d9 42 bd 72 4d 09 bd
       0.046624925 0.085580714 -0.047570664 -0.033521123
000280 af 8f 7b 3d 03 02 f6 bd 04 3c f9 bd 2e bd f6 3d
       0.061416324 -0.120121025 -0.1216965 0.12047802
000290 54 ac 3a bc 3f c6 af bd b8 f9 cb bb 56 02 48 bc
       -0.011393625 -0.08582734 -0.006224837 -0.012207588
0002a0 8a 24 ab bd 83 70 44 bd 1a 8e 43 ba a1 be c6 3d
       -0.08356579 -0.047958862 -0.00074598345 0.09704328
0002b0 37 b9 05 bd c2 31 c3 bd 3b a0 4d 3d b1 f2 8e 3c
       -0.032647338 -0.09530975 0.050201636 0.017449709
0002c0 0f 3b 28 3d 32 49 8b bd 61 71 37 bd 04 ae a0 3c
       0.041071948 -0.0680107 -0.04478586 0.019614227
0002d0 e6 0a 89 3d 22 14 15 3d ff 21 fc 3c 27 9c 70 3b
       0.06691532 0.036396153 0.03077793 0.0036714168
0002e0 2a 02 85 bd 90 1a c3 3d 8d 28 ef 3d 97 18 01 bd
       -0.064945534 0.09526551 0.11677656 -0.03151759
0002f0 8f ba f2 bd 19 0e 97 3d 10 22 25 bd 1b 84 28 3d
       -0.118519895 0.07375736 -0.040315688 0.04114161
000300 24 d9 ee 3d 2c 16 54 3d 18 b1 95 bd bf d6 e7 bb
       0.1166251 0.051778957 -0.073091686 -0.0070751603
000310 d1 fa b0 bc 69 62 02 bd 18 79 d9 3d 6d 0b e0 bd
       -0.021603974 -0.031832132 0.106188 -0.10939679
000320 8f 47 12 3d 2d 79 0a bd fb 49 01 3e 59 b6 50 3d
       0.035712775 -0.03380697 0.12625878 0.05095515
000330 23 77 46 3d f6 2d 24 3c 94 69 0a bc 6d 87 db 3d
       0.04845346 0.010020724 -0.008448023 0.1071919
000340 8b ea 0e bd e2 c1 da bd 75 2c 60 bd f5 bc c3 bd
       -0.034891646 -0.106815115 -0.054729898 -0.09557525
000350 34 83 3e bd 02 3c cb 3d a5 f1 94 3d 7b 81 91 3c
       -0.046511844 0.09923555 0.072726525 0.017761936
000360 f3 30 13 bd d5 7f 2b 3c 55 b9 bf 3d aa 3b cb bc
       -0.035935353 0.010467489 0.09361521 -0.024808723
000370 74 38 2e be 2b 92 b5 bc 6d c5 81 bd 25 eb 33 3d
       -0.17013723 -0.022164425 -0.06336484 0.043925423
000380 69 c7 38 3d 80 e7 16 bd 68 a4 b9 bd b9 7f 68 bd
       0.045112047 -0.03684187 -0.09064561 -0.05676243
000390 b8 9b 73 3d f2 cb d7 3d 9b a7 36 be 80 96 cc bd
       0.059474677 0.10536946 -0.17837374 -0.09989643
0003a0 a5 95 ce 3d 95 0e 4a 3d 63 83 b6 bc d4 f4 e9 bd
       0.10087136 0.049330313 -0.022279447 -0.114236504
0003b0 63 eb 17 be 4d be e4 3d 5d 28 d4 bd d3 2b d3 3d
       -0.14835887 0.111691095 -0.10359261 0.10311093
0003c0 b5 b7 97 3d 47 a5 86 bd c6 64 a8 bd dd 3a 1c bd
       0.07408086 -0.06574493 -0.08222346 -0.038142074
0003d0 70 a2 f7 3b f2 24 32 3d e4 68 9d bd 8d 9c a9 3d
       0.007557206 0.043492265 -0.07686022 0.08281813
0003e0 29 95 b8 3d d4 ad 87 bd bc 55 23 bd b0 f6 bc 3d
       0.09012825 -0.06624952 -0.039876685 0.092267394
0003f0 09 a8 c1 bc c4 1b 57 3d 6b 94 f0 3d f3 48 95 3d
       -0.023639696 0.052516714 0.117470585 0.072893046

weight_hh_l0 f4 [256, 64]
000000 84 82 eb bd 95 4a fb 3d 97 59 19 bd c3 b8 d5 3d
       -0.11499503 0.12270085 -0.037438955 0.10435631
000010 11 b3 a0 bd cf 0d f3 3d e0 28 69 3d 8f d9 2a 3d
       -0.07846654 0.11867868 0.056923747 0.041711386
000020 98 6c 58 3e de 34 cf 3a d5 32 07 be 00 ab cb bc
       0.21135175 0.0015808602 -0.13202985 -0.024861813
000030 3f 37 6b bd c9 97 ce bc c4 7c 54 3d f5 33 60 bd
       -0.057425734 -0.025218861 0.0518768 -0.05473705
000040 9f 93 85 3d 71 3d 62 bd a4 4e cf 3d 1c 00 61 bd
       0.06522297 -0.055234376 0.101224214 -0.054931745
000050 95 9f e1 3c 2b 84 97 3c ed 7c ab 3d e0 e8 8d bd
       0.027541915 0.01849564 0.08373437 -0.06929183
000060 b9 32 0e 3d af be bc 3d cb 7c 18 bc b0 66 f5 ba
       0.03471634 0.092160575 -0.009307097 -0.001872262
000070 23 f0 42 bd 8d 76 ac bd be 8a 22 be 9b f4 12 be
       -0.047592293 -0.08421049 -0.15873238 -0.14351122
000080 c3 c0 0f 3e b4 4d 60 3d 46 8f 2b 3d 32 c3 8b bd
       0.14038377 0.054761603 0.041884683 -0.0682434
000090 55 8d ef 3d ed 60 b4 3d f6 d8 9b 3d 23 7c 70 3c
       0.11696879 0.088075496 0.076097414 0.014678034
0000a0 af 1d 12 3d 0e 19 91 bd b6 e5 da 3d fd 38 71 3d
       0.03567284 -0.07084857 0.10688345 0.05889224
0000b0 19 ef ec bd 1d 48 a3 3c 05 a1 f7 bb 97 11 06 be
       -0.11569042 0.019931847 -0.007557037 -0.13092647
0000c0 bc 12 7a bd ff c7 25 3c 86 b0 05 3d 4d 39 20 bb
       -0.061053023 0.010118484 0.03263905 -0.0024448216
0000d0 19 15 65 bd fb 93 9d 3c e3 df d4 3d e9 30 33 bd
       -0.055928323 0.019235602 0.103942655 -0.043747816
0000e0 4b cb fb bd 79 35 b8 3d 32 ee 0c be 2f 68 07 3a
       -0.122946344 0.08994574 -0.1376274 0.0005165366
0000f0 1d 7c 34 be 75 88 71 3d fc c8 82 3c 6b 19 48 bc
       -0.1762547 0.058968026 0.015964977 -0.012213091
000100 57 c3 a2 3d aa c5 07 be 53 f4 9e bd bc 7e af bc
       0.07947414 -0.13258997 -0.07761445 -0.021422736
000110 fd 28 aa 3d 9a 65 40 3d 46 15 88 3a d3 b0 12 be
       0.08308599 0.046971895 0.0010382317 -0.14325266
000120 b5 76 c6 bd 93 d7 dd 3c 52 18 c9 bd d6 f9 eb 3d
       -0.0969061 0.027080333 -0.09819092 0.11522262
000130 32 4d 92 bd f3 d3 a7 3c 0f b7 aa bd 3b 3a 26 be
       -0.0714363 0.020486807 -0.08335697 -0.1623315
000140 92 0e 01 bd 0b ba d7 bd 0d 67 f0 3d a7 db bd bd
       -0.031508036 -0.10533532 0.117384054 -0.09270411
000150 66 97 b2 bd 69 dd 8d bb 2f 55 05 be 56 58 94 bd
       -0.08720283 -0.0043293727 -0.13020776 -0.07243411
000160 95 a3 a1 3d 87 99 ae 3d 10 cb 1e 3d ea 0e f1 3c
       0.07892529 0.08525377 0.038767874 0.029426057
000170 0e 65 e3 3d f8 c0 99 bb e6 ee 83 3d 6e 40 fc bd
       0.11103259 -0.004692193 0.06442051 -0.123169765
000180 63 4a 3e 3d 23 60 83 bd 44 8d 9e bc 0a b4 a4 bb
       0.04645766 -0.06414821 -0.01935447 -0.005026345
000190 e1 13 9c bc f1 95 48 3d cb 2c e2 3d bb ae 4c bc
       -0.019052448 0.04897112 0.110437 -0.012492831
0001a0 ee c0 09 be a8 0a 9a 3d 0d e5 1c bd 1c e3 8b 3d
       -0.13452503 0.07521564 -0.038304377 0.06830427
0001b0 e0 4e e3 bc a7 2b 93 3b 09 0c a5 bc 6e ec b5 3d
       -0.027747571 0.0044912877 -0.02014734 0.08882986
0001c0 77 de 1f 3e 3c eb 09 3d b5 03 f8 bd 3b 3d c1 bd
       0.15612207 0.033671603 -0.12110082 -0.09435507
0001d0 d0 c3 cc 3d f2 00 d4 3d 88 73 8d bc c6 1e 59 3d
       0.09998286 0.10351743 -0.017267004 0.053007863
0001e0 92 8d 42 3d 4f d9 17 bc a3 bd a7 bc 8c 8f a5 bd
       0.047498293 -0.009268119 -0.020476168 -0.0808402
0001f0 98 08 15 3d 0a a7 70 3d 6c 48 c4 3d 6e 40 85 bd
       0.03638515 0.05875305 0.09584126 -0.065064296
000200 66 3f 77 3d 9a d4 d5 3d f3 9c c1 3d 13 25 ec 3d
       0.060363196 0.10440941 0.09453764 0.11530509
000210 65 55 95 3d 74 9c ce bc be 61 cb bd d4 33 01 bc
       0.07291678 -0.025221087 -0.09930752 -0.007885892
000220 76 2d 58 bd ab e6 9c bc fc be c4 bd be 64 84 3c
       -0.05277773 -0.01915296 -0.0960674 0.016161319
000230 b4 26 02 3d 06 a9 66 b9 ae 4a 92 bc ba da 1e 3d
       0.03177519 -0.00021997475 -0.017857876 0.038782813
000240 49 1f e2 bd b1 84 20 ba d2 9a 8b bd 77 4b 84 3d
       -0.110411234 -0.0006123288 -0.06816639 0.06459706
000250 2b ac ca bc c8 ab 8d bd 94 80 01 be 32 ce 09 be
       -0.0247403 -0.0691753 -0.12646705 -0.13457564
000260 21 4f 24 3d 53 83 07 bd f1 4b 08 bd e5 72 06 be
       0.040114526 -0.033084225 -0.03327555 -0.13129766
000270 bb ed 04 be 8e 54 02 3e f6 84 c8 3c d5 57 8f 3c
       -0.12981312 0.12727568 0.024477463 0.017497936
000280 5e 78 45 bd 71 67 2d 3d 97 46 9c 3b 20 14 6c bd
       -0.048210494 0.042334978 0.004769157 -0.05763638
000290 8a 25 f9 3d 10 4b b9 3d 06 f8 8b 3c 26 86 e6 bd
       0.12165363 0.0904752 0.01708604 -0.112560555
0002a0 2b b6 cc 3d 61 96 cd bc 87 f7 c0 bb e5 f3 79 3d
       0.09995683 -0.02509612 -0.0058888826 0.06102361
0002b0 5b e2 a7 bd 95 a5 97 bd 64 82 8e 3d ad 0e b1 3d
       -0.08197471 -0.07404629 0.06958464 0.08645377
0002c0 52 d1 cd 3d ff fd d4 3c 5b ec b6 3d 27 8b 05 3e
       0.1004969 0.026000021 0.089318 0.13041364
0002d0 3a a1 a8 bd 41 bb fe 3d d5 05 dd 3d 5a 57 f2 3d
       -0.082338765 0.124380596 0.10792128 0.11833067
0002e0 55 c3 9c bd ee 10 7f bd e7 0e ef 3d c4 53 a5 3a
       -0.07654444 -0.062272005 0.11672764 0.0012613465
0002f0 2c af 8b bd 77 bd 8b 3d 17 c7 45 3d a7 26 b5 bd
       -0.06820521 0.06823247 0.04828557 -0.08845263
000300 65 4a 24 bd 5c b3 a8 3d 6f 6c 1b 3d 5e 77 51 bd
       -0.04011001 0.08237335 0.037945207 -0.051139228
000310 70 14 64 bd 5a 63 ee bd b8 31 71 3d e0 9d f3 bd
       -0.055683553 -0.116400436 0.058885306 -0.11895347
000320 ed 4f 90 bc cf a2 1c 3d 48 3a 74 3c 26 bf c0 bd
       -0.017616237 0.038241204 0.014906473 -0.09411459
000330 55 df 3b 3b 3f 7b 53 3d af 70 f4 bd 80 00 2e bd
       0.0028667052 0.05163121 -0.11935555 -0.042480946
000340 64 4c fb bd 1e 8d ea 3d 38 d2 c1 bd 32 de 0b 3b
       -0.1227043 0.11452697 -0.09463924 0.0021342156
000350 98 5e 89 bd 40 53 89 3c c0 63 d2 bd fd 6b 39 3d
       -0.067074955 0.01676333 -0.10272932 0.045269
000360 6b df b4 3c 48 f8 b5 3d 39 c2 bc bb 3e 8d c0 bd
       0.02207919 0.088852465 -0.005760458 -0.0940194
000370 60 3c ae bc b4 2d 7f 3d be 57 04 bc 1d 9f a5 3d
       -0.021269023 0.062299445 -0.00807756 0.08086989
000380 86 1d de 3c 65 1c bb 3c 92 ce c7 bd 89 e7 27 3d
       0.027113687 0.022840688 -0.09756197 0.040992294
000390 c0 a2 13 be ac 78 f7 3d 0b 86 77 bd a3 12 b0 3d
       -0.14417553 0.12083563 -0.060430568 0.08597305
0003a0 27 7d 12 3d fc ed 1a 3e 01 90 95 bd 68 59 8d 3d
       0.035763886 0.15129846 -0.07302857 0.069018185
0003b0 74 69 ef 3d 14 f4 fa 3d df 7a 91 bd 40 7b 3a 3d
       0.116900355 0.122535855 -0.07103514 0.045527697
0003c0 40 bc 8f 3d 30 e4 3a be eb 57 ad 3d 85 52 86 bd
       0.07018328 -0.18251109 0.08464035 -0.06558708
0003d0 30 d9 c3 3d ba 70 ff 3b 61 dd 35 3d 40 8e 8f 3c
       0.095629096 0.0077954205 0.044400577 0.017523885
0003e0 20 0e 71 bd 64 eb 71 bd a0 6d c2 3d 1c 1e da bd
       -0.05885136 -0.059062377 0.094935656 -0.10650274
0003f0 d4 dc 89 bd 09 5d e7 3d 8e 64 10 3d e4 a1 7c 3d
       -0.06731573 0.11297042 0.035252146 0.06167783

bias_ih_l0 f4 [256]
000000 6e 4c 09 3e ce ab f8 bc 99 7b ec 3d 2e e5 13 bd
       0.13408062 -0.03035536 0.11547012 -0.036107235
000010 54 38 6b bc 22 c1 50 3d fc 5c f8 3d 5f 87 f9 3d
       -0.014356691 0.050965436 0.1212711 0.12184023
000020 62 64 e5 bc fb c0 28 3d e3 80 a3 3d ea af 48 bd
       -0.028001968 0.041199666 0.079835676 -0.04899589
000030 68 26 83 bd 0f a3 08 3e 18 c4 43 bd ab 0a bf bc
       -0.0640381 0.13343452 -0.04779443 -0.023320517
000040 fd a0 0a 3e ad bd 06 3e 2e 61 2f bc e4 7b 61 3d
       0.13537975 0.13158293 -0.010704322 0.055049792
000050 67 df 91 3d 38 51 86 3d ea 78 bd bd 08 db 4f bd
       0.07122689 0.0655846 -0.09251578 -0.050745994
000060 e1 fe e0 3d 23 d4 02 bd b5 85 ae 3d 16 a7 8a 3d
       0.10986114 -0.03194059 0.08521596 0.0677015
000070 2e 55 e2 3c 75 fe 11 3d fe 8a 98 3c e6 a7 08 3e
       0.027628507 0.03564306 0.018620964 0.13345298
000080 eb 12 9f bd 3a c0 02 be 2e 2b 7c bd 88 13 a1 bd
       -0.0776728 -0.12768641 -0.061564617 -0.078650534
000090 da f5 30 3d 0a ae 89 bd 58 58 eb bd 36 f6 97 3d
       0.043203212 -0.067226484 -0.114914596 0.07420008
0000a0 5d 39 47 bd 32 e1 de 3d 0c 65 e7 3d 4b ca b6 3c
       -0.04863869 0.10882796 0.1129857 0.022313258
0000b0 0b 9d 59 bd 1a ca 1f bb 43 39 90 bd 81 29 a2 bd
       -0.053128283 -0.0024381937 -0.07042172 -0.079180725
0000c0 ab 89 11 bd a0 2a c8 3d 3f 12 ef 3d 6d f9 47 3a
       -0.03553168 0.09773755 0.11673402 0.0007628415
0000d0 a9 6a c5 3d f2 f5 50 bd d5 d6 ba bc e0 fc 7b bd
       0.096394844 -0.0510158 -0.022807518 -0.061520457
0000e0 3b c4 a2 bd 3d bd 92 3d a2 2c 61 3d 95 a2 df 3d
       -0.07947584 0.071650006 0.054974206 0.10919682
0000f0 2c 42 9e 3d c2 27 26 3d c6 41 62 3d a4 1d 45 ba
       0.07727465 0.04056526 0.055238508 -0.00075193704
000100 8b 63 7f bb ba bf 45 bd 17 4e f3 3d be 76 c5 bd
       -0.0038969244 -0.048278548 0.11880129 -0.09641789
000110 e8 19 00 3c aa 48 58 bd 5a 40 19 3c 37 83 24 bd
       0.0078186765 -0.052803673 0.0093537215 -0.0401642
000120 24 f1 04 3e 54 20 f3 3d 3e 12 cb 3d a4 79 ce bd
       0.12982613 0.118714005 0.09915589 -0.10081795
000130 52 93 77 bd 02 b3 b5 bd 4f d1 9e bd 15 7a fa 3d
       -0.06044323 -0.08872034 -0.07754766 0.122303165
000140 b2 b1 4e bc d2 58 ba bd 2d bd a0 3d 7b 40 db 3c
       -0.012615608 -0.090989724 0.078485824 0.026764145
000150 65 80 53 3d b4 6f 90 bc c0 cc ab bd 12 89 3d bd
       0.05163612 -0.01763139 -0.08388662 -0.0462733
000160 d3 d6 01 3d 2e c7 07 3e 2d 08 85 3d 79 2e e2 bd
       0.031699013 0.13259575 0.064957 -0.1104402
000170 ce 69 13 3d 7a 64 e3 3d 39 45 39 bd 06 fa aa bd
       0.035989575 0.11103149 -0.04523203 -0.083484694
000180 c5 0b e9 bc 1d b8 f6 3d 5e f4 0b 3d 60 63 0d 3d
       -0.028447995 0.120468356 0.034168594 0.0345186
000190 61 db ee bc 73 16 e9 3d 51 6c a7 3d df f0 bf 3d
       -0.029157342 0.11381235 0.081749566 0.093721144
0001a0 ca 95 b1 3d 45 fe 4f bd 06 17 a0 bd a7 5a 0d 3e
       0.08671148 -0.0507796 -0.07816891 0.13804112
0001b0 68 8b 64 bd f1 49 3a bd f5 64 8e bd 32 21 9c 3d
       -0.05579701 -0.045480672 -0.0695285 0.07623519
0001c0 bc 69 19 bc 11 1a df 3c 4b 62 3e bd c4 88 cb 3c
       -0.009363588 0.02723411 -0.04648046 0.024845488
0001d0 7d 9f f5 bd 1d 79 b3 3d cd ec b1 3d 8e ea 14 3e
       -0.119933106 0.08763335 0.08687744 0.145426
0001e0 2d b9 ad bd 87 7c b9 3d 4f f9 04 3e e5 c0 86 3d
       -0.08482585 0.09056955 0.12985729 0.065797605
0001f0 f6 e6 b0 3a 94 63 96 bd 53 99 ba bd 6d c1 8e bd
       0.0013496566 -0.07343212 -0.091112755 -0.06970487
000200 74 9f 02 be d5 b1 ba 3c 12 47 e9 bd 26 90 34 3d
       -0.12756139 0.022789875 -0.11390509 0.044082783
000210 4e 02 99 3c 68 da d3 bd e3 87 b9 3d cc b8 1d 3a
       0.018677857 -0.10344392 0.090591215 0.00060166116
000220 74 9b d7 3d eb 14 80 3d 94 9d 22 bc a0 8c d8 bc
       0.10527697 0.0625399 -0.009925265 -0.026434243
000230 59 90 6c bc b0 4c d5 3b 97 46 ec 3d 2e 2a 1c bc
       -0.014438712 0.006509386 0.115369014 -0.009531541
000240 77 c9 b9 bd 73 e6 1d 3e e5 6d c9 3d 86 29 c7 bd
       -0.090716295 0.1541994 0.09835414 -0.09724717
000250 d1 50 e7 bd e6 99 a6 bc d0 ae cc bd 6a 68 a6 bd
       -0.112947114 -0.020337056 -0.0999428 -0.08125384
000260 4e 44 02 be 0a 18 38 bc 09 44 8d bd bb 05 c3 bd
       -0.12721369 -0.0112362 -0.06897742 -0.095225774
000270 25 a7 30 bd 4b 15 2d bd 6a e4 55 3d 12 65 6b bd
       -0.04312815 -0.042256635 0.052219786 -0.057469435
000280 54 61 2e bd 60 66 44 3d d1 62 01 3e 14 b1 cb 3c
       -0.042573288 0.047949195 0.12635352 0.02486471
000290 6a 7e 02 3e 33 1a bb 3b 9d 30 1a be aa 43 74 bd
       0.12743536 0.0057099103 -0.15057607 -0.059634842
0002a0 33 a8 fb 3d 24 0a 87 3d fd ee b6 3d ce e7 f7 3c
       0.12287941 0.06593731 0.08932302 0.0302619
0002b0 63 12 9a 3d 2f f2 45 bd 31 b0 07 3a 5e e7 f8 3c
       0.07523038 -0.048326667 0.0005176096 0.030383762
0002c0 e0 ac 0c 3a 5d 52 af 3b 54 e8 38 3d 49 3a 49 bd
       0.00053663366 0.0053503946 0.04514344 -0.04912785
0002d0 71 cc 85 3d 7d b9 a1 3d 9e 13 d9 3d c8 c2 67 bd
       0.06533135 0.07896707 0.10599445 -0.056582242
0002e0 e3 76 f4 3d a1 da 94 bd 55 b7 c9 3d 2a 70 a6 bd
       0.11936738 -0.07268263 0.09849421 -0.08126862
0002f0 b3 bc d2 bb d2 d4 20 3c 66 08 f1 bb bb 03 9b 3d
       -0.006431186 0.009816365 -0.0073557375 0.07569071
000300 31 d2 90 bb e8 1a c5 3c dd f6 99 3d 0b 70 b4 bd
       -0.004419588 0.024060681 0.075177886 -0.08810433
000310 1c 20 79 bd 12 f5 09 bd db 61 cc 3d 94 e6 d2 bd
       -0.060821638 -0.033680983 0.09979602 -0.102978855
000320 57 92 d8 bd 59 48 ae 3d f1 2a 37 bd d5 a1 9a bd
       -0.10574787 0.08509893 -0.044718686 -0.07550398
000330 5c ba 7c bd 5e 77 41 3d 9f ef 58 3c a6 27 e2 bb
       -0.061701164 0.047232978 0.013240724 -0.006901699
000340 3d bb 2e bd 83 3e eb bc 62 fa 5d bd 0a 87 3a bd
       -0.042659033 -0.028716331 -0.05419386 -0.04553894
000350 0a 1d 74 b9 a5 12 de 3d c9 4d f3 3d b5 91 4e 3d
       -0.00023280471 0.108434 0.11880071 0.050431926
000360 51 c6 a6 bd 2d 86 28 3e 88 72 cb 3c 95 70 f6 3d
       -0.081432946 0.16457434 0.024834886 0.12033192
000370 11 a7 48 3d 96 b6 e8 3d 53 c2 b4 ba 24 ea 8f bc
       0.048987452 0.113629505 -0.0013790823 -0.017567702
000380 5b c1 b2 3d 75 2a 59 3d 8f 63 fd bc 7f a0 a4 bd
       0.08728286 0.053019006 -0.030931262 -0.08038425
000390 88 cd 5a bd f6 04 34 bd 3f 76 c5 bd 78 80 2d 3c
       -0.053418666 -0.043950044 -0.09641694 0.010589711
0003a0 8d 33 f5 3d f3 ca 03 bd 78 e3 8e 3d fe b6 b7 3d
       0.11972723 -0.03217597 0.0697698 0.0897045
0003b0 41 da 18 3e f8 ea f5 bc 98 82 03 ba 8e 90 37 3b
       0.14927007 -0.030019268 -0.00050167134 0.0028009745
0003c0 b5 2b 0a 3e 3f 85 98 3d a2 f2 6b bd 4b 81 47 bd
       0.13493235 0.0744729 -0.05760444 -0.048707288
0003d0 cb 23 19 bd dd 89 84 3d 05 f9 9d bd d0 55 4a bd
       -0.03738765 0.06471608 -0.07713512 -0.049398243
0003e0 d8 4f 10 3d 26 a2 50 bd bc 7c 0d 3e d1 7a a0 bd
       0.035232395 -0.050935887 0.13817114 -0.07835925
0003f0 06 b2 30 3d 26 75 98 3c 30 2f a6 bc 46 27 be bd
       0.043138526 0.018610548 -0.020286173 -0.092848346

bias_hh_l0 f4 [256]
000000 dc 15 86 bd f8 0c f6 bd 2c 04 8a 3d e0 61 d5 3d
       -0.06547138 -0.12014192 0.06739077 0.10419059
000010 b9 b3 82 3a bc 70 5b bc b3 0f 73 3d 68 2b 5b 3c
       0.0009971774 -0.013393577 0.059341144 0.013377048
000020 d1 ab 8e bd 2b 20 7d bc 48 a2 bb bd ad b7 d8 bd
       -0.06966365 -0.015449564 -0.09161812 -0.105819084
000030 04 48 12 3e bd 87 81 3c 3e e9 68 bd e8 79 d2 3d
       0.14285284 0.015811795 -0.056863062 0.10277158
000040 1b 50 82 3c e8 60 b9 3d 06 c5 fe ba d0 87 54 ba
       0.015907338 0.090516865 -0.001943738 -0.0008107396
000050 15 8f 86 bd cb 3d 89 bd f1 f1 c8 3d 2e be 37 3d
       -0.065702595 -0.06701239 0.09811772 0.044859104
000060 8e 2c f7 3d 3c 00 97 bc 52 3d ae bd 46 3b 52 bd
       0.12069045 -0.018432729 -0.0850779 -0.05132606
000070 69 23 9f bc 00 54 d9 bd 30 53 10 3d f0 4e fa 3d
       -0.019426065 -0.10611725 0.035235584 0.122220874
000080 b1 cd 04 3d ba af bd bd c5 c0 bf 3d 5d 3c b5 3d
       0.032422725 -0.09262033 0.0936294 0.08849404
000090 69 05 1e bd 91 72 65 bd ec 27 98 bd 85 3c 02 3e
       -0.03857938 -0.056017462 -0.074294895 0.12718399
0000a0 11 7f b9 bc b2 ff 09 bd 72 10 e4 3d 21 86 ab 3b
       -0.022643598 -0.033691116 0.11135949 0.0052344953
0000b0 62 37 79 3d 16 b0 f0 3c d7 1d d7 3d 23 58 a8 38
       0.060843833 0.02938084 0.105037384 8.027281e-05
0000c0 58 70 32 bc f6 d8 08 3e 25 4b a9 3d 26 f0 fe 3d
       -0.010891043 0.13364014 0.08266286 0.124481484
0000d0 c0 14 6f 3c 05 15 9a 3d 87 c3 50 3d 3f 01 db bd
       0.0145923495 0.075235404 0.05096772 -0.10693597
0000e0 ee d7 71 3d 6b 3e fd 3d f2 0a 5e bd 73 fb 95 bc
       0.059043817 0.12365421 -0.054209657 -0.018308377
0000f0 cd 20 e3 bc dd d5 e0 bc d2 7b 4e 3d b8 25 05 3d
       -0.027725602 -0.027445728 0.050411053 0.032506675
000100 62 d5 80 bd a4 12 5f 3c 9c 51 ca bd 52 32 bb bd
       -0.062906995 0.013615284 -0.09878847 -0.09140457
000110 69 43 54 bd 5a 0a b5 bd 07 63 87 bd 5b 5f ba bd
       -0.0518221 -0.08839865 -0.06610685 -0.09100219
000120 d5 bb 45 bd ed d7 8b bd 54 60 0d 3d 67 0c be bc
       -0.048274834 -0.06828294 0.034515694 -0.023199273
000130 d6 df 2b 3d 83 a5 24 bd 71 71 94 bd 31 59 e5 3d
       0.041961513 -0.040196907 -0.072482 0.111986525
000140 ff 33 0b 3d 86 f8 72 bd aa ef b8 3d af c6 3e bd
       0.033985134 -0.05931904 0.09030087 -0.0465762
000150 b1 b9 13 3e 22 1d e3 bd 97 a6 61 3d 04 33 bf bd
       0.14426304 -0.11089541 0.055090513 -0.09335902
000160 89 1a a2 3c e8 22 22 3e e2 0a 16 bd 3e 57 bc 3d
       0.019788044 0.15833628 -0.036631472 0.091963276
000170 03 b7 38 bc f3 f5 4a bd 86 b8 2a bd 18 fd a0 bd
       -0.011274102 -0.04955096 -0.04167988 -0.07860774
000180 df a7 6f 3d b2 8d 73 3d 1e e6 eb 3d da 29 9c 3d
       0.058509704 0.059461303 0.11518501 0.0762517
000190 1f ad 70 3d a3 02 1b bd 52 26 cc 3c 90 ff 96 bd
       0.05875885 -0.03784431 0.024920616 -0.073729634
0001a0 c3 12 0c 3d 2b cd 9f 3c 6d c7 0a 3e 37 28 4c 3d
       0.03419758 0.019507011 0.13552637 0.04984304
0001b0 c9 cf 0f 3e 8e 6b e8 bc a8 36 98 3d 58 d5 69 3d
       0.14044107 -0.028371599 0.074323 0.057088226
0001c0 fb 3a a7 3d 81 c5 c5 bc ea 06 03 3e 85 a4 cc bb
       0.081655465 -0.024142029 0.12795606 -0.006245198
0001d0 68 2b 8c bd 79 41 c3 3d 14 60 bf bb a5 cf f5 bb
       -0.068442166 0.09533972 -0.005840311 -0.00750156
0001e0 2e f8 38 3d 8b 7d f8 bc aa 55 36 3d f9 b6 7a 3d
       0.045158558 -0.030333301 0.04451529 0.061209653
0001f0 20 d4 f5 3d 60 cf 90 bd f0 fb f3 3d 8f e3 83 bd
       0.1200335 -0.07070804 0.11913288 -0.06439888
000200 13 89 a1 3d e2 2b 09 3e b0 db b9 bd 70 21 7d bd
       0.07887473 0.13395646 -0.09075105 -0.061799467
000210 b5 44 cd 3d b1 1e b1 bd e2 23 16 bd 2a ef 17 3d
       0.100228705 -0.08648432 -0.036655314 0.03709332
000220 1a d1 98 bc c5 7d f0 bb a5 b0 31 3d a5 5e c4 3d
       -0.018654395 -0.0073392116 0.043381352 0.095883645
000230 8f 41 10 bd fb 21 dc 3c 5a 6d 97 bd e4 06 a8 bd
       -0.03521877 0.026871672 -0.07393904 -0.08204439
000240 ed 81 fe bd 43 0e 53 3d 75 be e4 bd d0 82 84 bd
       -0.12427125 0.051527273 -0.11169139 -0.06470263
000250 71 25 81 bc be 65 6d 3c 2d ac 16 be f7 5a a7 3a
       -0.015764924 0.014489589 -0.14714117 0.0012768199
000260 06 a8 90 bd ff 37 9a bd ea e4 cf 3c 03 0b 68 3d
       -0.07063298 -0.07530212 0.02537771 0.056651127
000270 23 d9 90 bc 81 4c 42 3c cb 61 29 bc 77 94 f7 bc
       -0.017681664 0.01185906 -0.010338257 -0.03022216
000280 b6 27 b9 bb e8 2c bf 3c d8 ce ee 3d 9f 2a c8 bd
       -0.005650486 0.023336843 0.11660546 -0.09773754
000290 bf 16 82 3d 16 18 8a bd 71 0b 97 bd 78 23 69 bd
       0.06351995 -0.06742875 -0.07375229 -0.05691859
0002a0 97 e6 9f bd 26 c9 15 3c 6f 76 5d 3c 67 ea 0f 3e
       -0.078076534 0.009142196 0.013517006 0.14054261
0002b0 3a 35 eb bc 0e f1 94 bd 73 96 bb 3b 42 4a e1 3d
       -0.028711904 -0.0727254 0.005724722 0.11000492
0002c0 79 26 8e bd 56 5a f5 3d 5d a1 5c 3d 1c e6 93 bd
       -0.06940932 0.11980121 0.053864826 -0.07221624
0002d0 a6 d1 30 bd 5d 2e 82 3c 5b 91 61 3b 09 d2 ad bd
       -0.043168686 0.015891248 0.0034418914 -0.08487327
0002e0 65 ad 15 bc 8b db 31 3d 12 ce 33 3d 83 f5 cb bc
       -0.009135579 0.043422263 0.043897696 -0.024897343
0002f0 2f 9c b4 bb 88 d9 81 bd 2f 16 c6 ba 46 87 b2 bc
       -0.0055117826 -0.06340319 -0.0015112812 -0.021793019
000300 63 5a 22 3e 1d 3f b3 3d 55 df 8e 3d e2 04 02 3e
       0.15854792 0.08752272 0.06976191 0.12697175
000310 0b 55 c1 3d 48 a0 f3 3d c9 e7 93 3d e5 98 df bd
       0.09440049 0.118958056 0.07221944 -0.10917834
000320 c2 14 c6 bd e3 0c a9 3d 56 27 e4 bb 5d 82 03 3e
       -0.09671928 0.08254411 -0.006962697 0.12842698
000330 16 37 82 bd 85 26 7b 3c bc fe ca 3d 01 8d e9 3d
       -0.06358163 0.015329008 0.09911868 0.114038475
000340 37 9b 57 bd 03 5d 8c bd af e0 11 3d e7 05 73 bd
       -0.05263826 -0.06853678 0.035614666 -0.0593318
000350 56 a0 a8 3d 00 3b 27 bd f1 ad 85 bd 69 03 ec 3d
       0.08233707 -0.04082775 -0.06527317 0.11524088
000360 f2 f4 9e bc 0c 7a 8a bb 21 2a 9a bd 9b c2 a9 3d
       -0.019403908 -0.004225975 -0.07527567 0.08289071
000370 b1 66 18 3d 1c 8e cd 3d 10 90 cf 3d a7 56 b7 bd
       0.03720731 0.10036871 0.101348996 -0.089520745
000380 c0 a9 d2 3d 27 3f 14 bd 6f 62 73 bd be f2 4b 3d
       0.102862835 -0.03619304 -0.059420045 0.049792044
000390 97 8f 79 3d ef e1 82 bd 1e 6a 2a 3d a5 2c b3 bd
       0.060927954 -0.0639075 0.041605107 -0.0874875
0003a0 80 3b 9c 3d 1c 7a 8d bc 76 09 c5 3d ab a7 44 3d
       0.07628536 -0.01727014 0.09620945 0.048011463
0003b0 67 fc b3 3b ef cd 0e 3e cd ae 52 bd 13 b3 03 bc
       0.005492735 0.13945745 -0.051436234 -0.0080383
0003c0 25 e8 a1 bd 46 23 12 3d a5 31 00 3e cf 30 80 bc
       -0.07905606 0.03567817 0.12518938 -0.015648274
0003d0 0c 7d 9c 3d f4 14 e2 3c f1 1f 83 bd 22 d2 0a bd
       0.07641038 0.027597882 -0.06402577 -0.033891805
0003e0 4b 88 af 3d 01 2b 8e 3c 4a 43 6c 3d 83 d2 ca bc
       0.08570918 0.01735449 0.05768136 -0.024758583
0003f0 7e f2 15 3c a2 a0 be 3d 81 c0 02 3e 60 a2 e8 3d
       0.009152053 0.09307982 0.12768747 0.113590956

weight_ih_l0_reverse f4 [256, 64]
000000 d2 f9 18 bc 79 f7 1c be 95 53 7e bc 5e e3 39 3c
       -0.009336906 -0.15328778 -0.015522857 0.0113457125
000010 91 f1 68 3d b6 0b 5a bd b8 ef 43 bd 7b 0d 4d 3d
       0.056871 -0.053233825 -0.047836035 0.050061684
000020 12 d6 1b 3d 57 51 be 3d cf 66 3e 3d 4c 38 9e bd
       0.03804595 0.09292858 0.046484765 -0.077255815
000030 26 a6 ac bd b8 11 c9 3d 25 29 86 bd 83 bd 37 3d
       -0.08430128 0.09817833 -0.065508164 0.044858467
000040 8e cd 1d 3e b2 19 a4 3b e1 ef 2a 3e 80 a9 ca bc
       0.15410444 0.005007946 0.16693069 -0.024739027
000050 5f 84 99 3c bb 8d dc bd 08 28 17 3d 6d b8 0e be
       0.018739877 -0.107692204 0.03690341 -0.1393754
000060 a0 7e b7 3b 7a 51 f1 3d fb 72 0b be 57 3d 2d 3c
       0.0055998117 0.117831185 -0.1361808 0.010573707
000070 a5 3b 13 3d f3 6b 61 3d 5b 6f c4 bc 60 eb 65 bb
       0.035945553 0.05503459 -0.02397888 -0.0035082921
000080 1a f8 d7 bb a7 81 ec 3d 41 74 64 3d 5a 5a cd bc
       -0.0065908553 0.11548167 0.05577493 -0.025067497
000090 be 5c 4d 3d f6 99 4c be 04 e6 a1 bd f4 25 c7 bd
       0.050137274 -0.19980606 -0.079052 -0.09724036
0000a0 87 7b d4 3d 6e 6e 87 3d e5 f8 9f 3d 67 c1 b2 3c
       0.103751235 0.0661286 0.07811145 0.021820737
0000b0 66 d3 62 bc 94 b9 23 3d 49 6f cd bd a4 83 f3 3d
       -0.013844347 0.039971903 -0.100309916 0.11890343
0000c0 b4 07 b5 ba 0b 1f 91 3d 00 86 0d 3e 04 c1 54 3d
       -0.00138115 0.07085999 0.13820648 0.051941887
0000d0 46 d1 16 bd c3 64 05 3d c0 0c 53 bd 97 44 35 3c
       -0.036820672 0.032566797 -0.05152583 0.011063716
0000e0 a1 d1 52 bd 49 3e dc 3d 66 68 8c bb 62 d3 97 3d
       -0.05146945 0.107540675 -0.004284906 0.07413365
0000f0 e0 b1 5b 3c 4a a2 d7 bc c2 a9 a4 3c 54 b5 0a 3e
       0.013409108 -0.026322503 0.020100478 0.13545734
000100 21 b0 48 3d 2e a4 16 be 24 11 28 bd 5a 5f 83 bd
       0.048996095 -0.14711067 -0.04103197 -0.06414671
000110 94 fd 1d 3d ac 43 a4 bd e5 e7 de bd 15 d5 10 be
       0.03857191 -0.0802072 -0.10884074 -0.14143784
000120 dc a2 34 3d ab c7 83 3c 0e 3e cd bc 15 be e1 3d
       0.044100627 0.01608642 -0.025054004 0.110225834
000130 78 df d6 ba cd 63 8b bd 6b d3 76 3d b2 1b 13 3d
       -0.0016393503 -0.06806145 0.060260218 0.035915084
000140 e9 0a 63 bd 27 f3 0e 3e c9 b1 39 3d d4 fd e5 3d
       -0.055430327 0.13959943 0.045335565 0.112300545
000150 98 6e 71 bd 57 0f 43 3d 8c 06 21 3b 84 f7 c9 bd
       -0.05894336 0.04762205 0.0024570553 -0.09861663
000160 81 57 a9 bd 69 01 81 3d 1c 53 ec 3d d3 ea 05 be
       -0.08268643 0.06299097 0.11539289 -0.1307786
000170 10 e3 9a ba 4a a3 fe 3c 87 b8 b3 3d 55 34 7a bd
       -0.0011816937 0.031083722 0.0877543 -0.061085064
000180 96 46 bc 3d 1c 35 08 3e 36 15 16 3e 3f c1 d2 3c
       0.09193151 0.1330151 0.14656529 0.025726913
000190 0b c1 00 bd c1 5e 95 3d 1f 85 c5 bd 43 9a 52 bd
       -0.0314341 0.072934635 -0.096445315 -0.051416647
0001a0 f1 1c 00 bc 28 cf d3 bc 4b bd bc 3c 08 b5 42 3d
       -0.0078194 -0.025855616 0.02303948 0.047535926
0001b0 25 cc 67 3d f0 0c 80 bd 6b 8e 2d bd f2 9e b6 bd
       0.05659117 -0.06252468 -0.04237215 -0.08917035
0001c0 9e 06 08 3e 11 7a 47 3d bd 22 55 3d 85 02 7e 3b
       0.13283774 0.048700396 0.052035082 0.0038758826
0001d0 2c 99 35 bc ec 7f b5 bd 93 6f a3 bc 52 06 e2 3d
       -0.011083882 -0.0886229 -0.019950664 0.11036362
0001e0 6b 30 2b 3d 5d 4d 92 bd 94 e1 f0 3d 70 0b 07 be
       0.04179422 -0.07143662 0.117617756 -0.13187957
0001f0 59 df 5a 3d d2 cc f5 bd dc 94 ad bd 01 22 24 3d
       0.053435657 -0.12001957 -0.08475658 0.04007149
000200 43 d6 fd 3d a6 ed 7f bc 6d df 08 3e 6b 25 db bd
       0.12394383 -0.015620625 0.1336648 -0.10700496
000210 80 94 80 3d dc 36 48 bd 5e 27 16 3c 88 79 75 bd
       0.06278324 -0.048880443 0.009164659 -0.059930354
000220 4b 87 1c bd 5d 43 31 3d 56 8a f7 3d 67 03 06 3e
       -0.038214963 0.043277133 0.12086932 0.13087235
000230 c4 c5 94 bd 9c e1 86 3d ce dc 2b bd 63 a4 f0 3d
       -0.07264283 0.06586 -0.041958623 0.11750104
000240 85 11 30 3a f5 b8 ab bc c3 a7 a6 bc c8 16 3d 3d
       0.0006716478 -0.020962218 -0.020343667 0.046164304
000250 51 f7 a8 bd b7 2c 34 3d 40 9d 6d 3d 41 92 7f 3d
       -0.08250297 0.043987956 0.058011293 0.062395338
000260 bb 9f 1b be fc a3 35 bd 52 fe c8 3d b5 ab 6c bb
       -0.15197651 -0.04434584 0.09814133 -0.0036113088
000270 6c 27 86 bd 36 f1 88 bd 29 bb fb 3d 38 2f b6 3c
       -0.06550488 -0.06686632 0.12291557 0.022239313
000280 2b 39 ac 3d 98 c1 ac bd 54 8b eb 3c c1 57 86 3c
       0.084093414 -0.084353626 0.02875296 0.016399266
000290 6a bc a2 bb 43 6f 0c 3e c3 72 47 bd 75 c1 f3 bd
       -0.0049663084 0.13714318 -0.04869343 -0.119021334
0002a0 0c 7f e3 3d 6e e4 07 3e 67 ef 66 3d c1 f0 91 bd
       0.11108217 0.13270733 0.056380656 -0.07125998
0002b0 4e b9 9a bd 5c 84 7b bc 08 02 54 bb 81 0e 0d bb
       -0.07554875 -0.015351381 -0.0032349844 -0.0021523538
0002c0 6a 09 34 3d 6e 66 4e bd 17 a1 bd bc 98 ba c2 bd
       0.04395429 -0.050390653 -0.023148103 -0.09508246
0002d0 08 f4 70 3c 84 7c d9 bd e2 57 85 bd b2 b4 0e 3d
       0.014706619 -0.106194526 -0.06510903 0.034840293
0002e0 8b 61 c6 bd 67 d0 4e bd 13 80 82 3d ac 88 b0 bd
       -0.096865736 -0.050491717 0.063720845 -0.08619818
0002f0 d7 74 8a 3c af 9c 9f bc 25 82 b1 3d a7 b0 9e bd
       0.016901417 -0.019483892 0.08667401 -0.077485375
000300 37 87 e8 3c b9 2b 49 bd 44 c7 6c bd 80 35 a4 39
       0.028384788 -0.049113963 -0.057807222 0.00031320378
000310 f6 16 8e bd 1e d8 f3 38 b6 4c e1 bc 1c 55 3b bd
       -0.06937973 0.00011627398 -0.027502399 -0.045735464
000320 f2 b6 1e 3d 58 2d 1c bd 04 bd 0b be 88 e8 8c bd
       0.03874869 -0.03812918 -0.13646322 -0.06880289
000330 48 c9 15 bd 2c 55 15 3e 45 87 6a 3c 8d 90 8d 3d
       -0.03656891 0.14583272 0.014314477 0.069123365
000340 62 44 b8 3d 2a c6 6a bb 7e 4f 12 bb aa 52 c1 3c
       0.08997418 -0.0035823681 -0.0022325213 0.023598988
000350 53 b1 93 3d 54 36 e3 3d 0f f3 ab bc 9e 2c 08 3e
       0.07211556 0.11094347 -0.020989923 0.1329827
000360 c2 aa a0 bd 9b 08 f2 bd b4 07 42 3d 4b a7 6f 3d
       -0.078450695 -0.118180476 0.047370628 0.058509152
000370 e8 65 9c 3d 8f 07 54 bd 67 b9 a1 3d b8 7a 84 b8
       0.076366246 -0.05176502 0.07896691 -6.317109e-05
000380 2b da 2a 3c 32 da 02 bd 32 46 bb 3d 65 5c 83 bd
       0.010427992 -0.03194637 0.09144248 -0.06414107
000390 c5 b1 94 3d 89 b6 a3 bb 68 f4 a9 bb a7 22 0b bd
       0.07260469 -0.004996125 -0.005186606 -0.033968594
0003a0 27 db e4 bd df d2 0f be cc 2e 3c be ba 20 c4 3d
       -0.111746125 -0.14045285 -0.18377227 0.095765546
0003b0 83 d1 9a bb d7 47 db 3c de 08 0b 3d c5 07 8d bd
       -0.004724683 0.026767654 0.033944003 -0.068862475
0003c0 f1 eb b5 3d 98 0f fb bd c2 4c 95 3d a6 d1 33 3d
       0.08882893 -0.12258834 0.07290031 0.04390111
0003d0 0d 17 19 bc 68 8e f3 bc ed 26 eb bc 74 5f e1 3d
       -0.009343875 -0.02973099 -0.028705085 0.11004534
0003e0 de 88 20 be ff e6 d4 bd 75 53 8e 3b fd c9 79 3d
       -0.1567721 -0.103956215 0.004343445 0.060983647
0003f0 62 1e 68 bd a4 00 91 bd c2 ac 12 be ca 98 92 3d
       -0.0566696 -0.070802 -0.14323714 0.071580485

weight_hh_l0_reverse f4 [256, 64]
000000 a8 81 c5 bd d7 3b 5e 3d 68 e6 88 3d 8b c1 e1 bd
       -0.096438706 0.054256286 0.066845715 -0.110232435
000010 77 dd 7a 3d 58 e6 e4 3d fc 0c 7c bd 68 cc fb 3c
       0.06124636 0.11176747 -0.06153582 0.030737117
000020 b7 a0 7d 3d c8 9f ea 3d 28 26 00 3e 89 01 77 3d
       0.061920848 0.11456257 0.12514555 0.0603042
000030 4d 2f ee 3d 9f 5b 99 3d 94 0a 98 bd 00 bc e6 3c
       0.11630116 0.074881785 -0.074238926 0.028165817
000040 e5 a0 2d 3d ea 06 a2 3d c0 41 9f 3c 0b c3 eb 3b
       0.04238977 0.07911475 0.019440532 0.007194882
000050 5f 56 aa bd 86 bb 7f 3d 49 e1 bb 3b 40 28 76 bd
       -0.08317255 0.062434696 0.005733643 -0.06009698
000060 4c d9 36 bd fb 1a 0f bd 23 33 65 3c c0 fa 9b 3d
       -0.044640824 -0.03493784 0.013989243 0.07616186
000070 ad a7 61 3d 63 37 36 3d 30 d3 69 3d b6 da 65 bd
       0.05509155 0.044486415 0.05708617 -0.056116782
000080 31 60 cc ba 8f 50 84 bd bd 39 dc 3c fc 17 9f 3d
       -0.0015592632 -0.06460678 0.026883 0.077682465
000090 07 fe 0c be 6f 89 ea 3b 8a 9e 48 bc c5 a9 80 3d
       -0.13768779 0.0071574966 -0.01224483 0.06282381
0000a0 cc 67 c6 3d 88 e8 89 bd 13 b1 4c bd be 95 03 bd
       0.096877664 -0.06733805 -0.04997356 -0.032125227
0000b0 04 ba 73 3d ba 4a db 3d f2 60 93 bc c8 7f 4b 38
       0.05950357 0.10707612 -0.017990563 4.8517977e-05
0000c0 38 b7 34 3d c2 58 82 3d 44 0a 90 3d 60 04 7a bd
       0.044120044 0.063645855 0.07033208 -0.06103933
0000d0 3e 05 b3 bd 9e 93 e5 bd ac de 01 3d b0 87 8c 3d
       -0.08741234 -0.11209796 0.031706497 0.06861818
0000e0 92 32 72 3c 02 ee 8c bd 7b c3 0c bd a4 8f 6f 3b
       0.014782565 -0.06881334 -0.034366112 0.0036554122
0000f0 92 5e cb bc 7f 12 23 bd d9 ad b7 bd cb f2 68 3b
       -0.024825368 -0.03981256 -0.08968706 0.0035545107
000100 24 52 77 3c b5 34 e7 3c c9 50 95 bc fc 0f 8c 3d
       0.015095267 0.028223375 -0.018226998 0.06838986
000110 9f 49 13 bd d1 a9 b8 3d af 9c 17 bd 6f 2f 81 3d
       -0.035958882 0.09016765 -0.03701466 0.06307875
000120 e5 cb be 3c 3f c3 c8 3c e8 5e 05 bd 57 e7 83 3d
       0.023290584 0.024507163 -0.032561213 0.06440609
000130 12 4a 6b bd 9e fd c3 3d 55 c3 c5 bd da 79 91 3d
       -0.057443686 0.09569858 -0.09656397 0.071033195
000140 d9 7a 97 bd 4b 60 c7 3d da 7a cd 3d 2d d8 80 3d
       -0.07396478 0.09735163 0.10033198 0.06291232
000150 52 d0 0f 3d 2c a0 e0 3d cb 2f 29 bd f6 f2 c0 3b
       0.03511078 0.1096805 -0.041305345 0.005888338
000160 c4 9e 00 be db 50 f7 3b a6 ed 25 3b 60 ca 3c bd
       -0.12560564 0.0075474805 0.0025318651 -0.046091437
000170 88 95 11 3c 7b c2 5c bd 1b d6 11 bd 93 0f 1c 3d
       0.008885749 -0.05389641 -0.035604578 0.03810079
000180 32 14 07 3e d4 36 d9 3c 60 63 b1 3b fd a3 81 bd
       0.13191298 0.026515402 0.0054134578 -0.063301064
000190 58 fa 7c bd e4 c4 15 bd dd d5 ac bc ce 4c 3b 3d
       -0.061762184 -0.036564723 -0.021098072 0.045727544
0001a0 f7 a3 d8 3d a6 f4 ce bd 2c da 94 3d 72 61 13 bd
       0.10578149 -0.10105257 0.072681755 -0.035981603
0001b0 a2 01 01 3e c9 3f 34 3d 44 61 37 3d 5f 6e b3 bd
       0.12598279 0.044006143 0.044770494 -0.08761286
0001c0 1c 7d 95 bd 08 1b 02 be fb 66 bc bc ea 44 b8 bc
       -0.07299253 -0.12705624 -0.022998324 -0.022493798
0001d0 24 3a 2a bb 1e 46 b6 3d c6 e5 99 bd a2 42 d2 3d
       -0.0025974596 0.089000925 -0.07514529 0.102666155
0001e0 d3 f4 8c bc 17 8c 20 3c 74 b9 87 bd 7c 7a 50 bd
       -0.017206585 0.009799025 -0.06627169 -0.05089806
0001f0 bf 00 df 3d 5a e9 ab 3d d0 55 02 3e 37 5e 16 3d
       0.10888814 0.08394118 0.12728047 0.036710944
000200 b4 9d 8a 3d 70 81 65 bd b0 88 80 bd ba f8 8e 3c
       0.06768361 -0.056031644 -0.06276071 0.017452586
000210 80 ca 04 be a5 2b 00 bc 4f d3 74 bd 9e a4 c7 3c
       -0.12967873 -0.007822906 -0.059771832 0.024370488
000220 02 ab d2 3c 85 64 f8 3d 5d 23 ed bd 7f 60 8c bc
       0.025716309 0.121285476 -0.11579011 -0.017135857
000230 16 1b 05 3d 88 02 0a 3a 74 eb 6d bc 6b ad 43 bd
       0.032496534 0.00052646594 -0.014521468 -0.047772806
000240 9f cc 5e 3c 88 77 45 3d c9 72 97 bd 2e 14 82 bc
       0.01359859 0.048209697 -0.073949404 -0.015878763
000250 25 1b a6 bd 68 9b bc 3d 06 2a 27 bd b4 d8 b8 bd
       -0.08110646 0.09209329 -0.04081156 -0.09025708
000260 2a c0 f2 3d 78 9b 97 bc 91 28 e2 3b d4 ae 5d 3c
       0.11853059 -0.01850675 0.0069018085 0.013530452
000270 3c fc a7 bd 5d 2a c1 bd 23 9c 6f bd 57 23 32 3d
       -0.08202407 -0.09431908 -0.058498513 0.043490734
000280 bf 01 01 3e e0 71 84 bd c1 87 18 3e 5a 4d 8a bd
       0.12598322 -0.064670324 0.14895536 -0.06753035
000290 aa 9d 11 be 7c bb bc 3d fa 16 d1 bd 58 3f 4c bd
       -0.142203 0.09215447 -0.102094606 -0.049865097
0002a0 1b ec a3 bd 0f 35 ad 3d 97 5b 22 3d 78 09 d3 3d
       -0.08004018 0.08457386 0.039638128 0.103045404
0002b0 9b ac ec 3d 0c 36 94 bc 94 e1 1f be 3f 3e ec bd
       0.115563594 -0.018092178 -0.15613395 -0.1153531
0002c0 1e 4f fe bd 9a eb b9 3d ae cf e0 3d f9 51 a6 3d
       -0.12417434 0.090781406 0.10977112 0.08121104
0002d0 d0 94 45 3d 15 25 c1 bd f6 33 53 3d e3 75 97 3c
       0.04823762 -0.09430901 0.051563226 0.01848883
0002e0 d1 c2 c8 3d 2e 45 66 bd 5f 40 7a bd d6 0f 13 3c
       0.09802783 -0.05621832 -0.061096545 0.008975944
0002f0 a8 54 5f 3d 3e f0 7a 3d f2 4b cf 3d f8 4b b5 bd
       0.054524094 0.06126427 0.10121907 -0.088523805
000300 7f 90 bd 3d cd 08 2f 3d a5 53 2d be 89 5e 01 bd
       0.09256076 0.042733002 -0.16926439 -0.031584296
000310 1d 52 64 3c 97 fb 75 bd 48 bd cb 3d 66 7c 2b 3c
       0.013935593 -0.060054388 0.09948212 0.010466671
000320 58 04 15 be 87 3c 89 bc 69 62 c2 bd c3 e9 b6 bd
       -0.14552438 -0.016752494 -0.094914265 -0.08931305
000330 e0 93 b8 bd 20 4a cf bd 1f 6b 5b 3d 7b 10 1d 3e
       -0.0901258 -0.1012156 0.053568956 0.15338318
000340 24 f5 51 3d e7 ab f2 3d cc c6 b0 bd 17 fa 92 3d
       0.051259175 0.11849194 -0.086316675 0.07176607
000350 50 9b 65 3d b6 ba 92 bb 41 eb 83 3d f8 2b 05 3e
       0.05605632 -0.004477824 0.064413555 0.13005054
000360 48 a5 e4 bb 76 b1 5b 3d a0 c7 47 3c a7 4f 11 bd
       -0.006977711 0.053636037 0.01219359 -0.035476353
000370 33 4b 80 3d 47 4a f6 3d ef 2a 1e 3c e7 e7 1d 3e
       0.06264343 0.12025886 0.009653791 0.15420495
000380 62 ec 7b bc de 81 d7 bd c4 6c f1 3d a8 af f0 39
       -0.015376182 -0.10522817 0.117883235 0.0004590724
000390 f8 1e c3 3d 1f ee 24 3e 99 a7 b3 bd ee 9b 9f bd
       0.09527391 0.16106461 -0.08772201 -0.07793413
0003a0 7c 60 20 bd e7 4c bc 3c 8a 11 b3 3c 42 72 e0 bd
       -0.039154515 0.022985889 0.02185895 -0.10959293
0003b0 e1 66 5f bd dc 4d 01 be 3b 9b d3 3d 17 4d 77 bd
       -0.054541472 -0.12627357 0.10332342 -0.060376253
0003c0 07 52 2c bd 25 44 aa bd 64 96 17 3e cb 5a 28 3e
       -0.042070415 -0.08313779 0.14803463 0.16440885
0003d0 bc b2 c5 3d 0e 74 dc 3d 67 39 0e be d3 d3 95 bd
       0.096532315 0.10764323 -0.13889085 -0.07315793
0003e0 75 c9 de bd fa 23 d9 3d b2 e5 d5 bd ac 92 a5 3d
       -0.10878269 0.10602565 -0.104442015 0.08084616
0003f0 0e fc 01 be 61 19 2c 3d 45 c8 82 bd 57 eb b1 3c
       -0.12693807 0.04201639 -0.06385855 0.021718664

bias_ih_l0_reverse f4 [256]
000000 2a 8a b8 3d 35 7a c7 bc 7b 55 4d bd 74 2d 59 3c
       0.09010728 -0.024350265 -0.05013035 0.013255466
000010 a1 1d e0 bd a9 b3 c6 3d 03 07 82 bd c6 34 cd 3c
       -0.10943151 0.09702236 -0.06348994 0.025049578
000020 d6 c8 09 bd c4 39 4e bc fb e5 dd 3d 54 52 0d 3d
       -0.033638798 -0.012587015 0.10834881 0.034502342
000030 8c 83 13 3d 79 a6 97 bd 90 12 ea bd 83 c1 2d 3c
       0.036014125 -0.07404799 -0.11429322 0.010605219
000040 7b b4 07 3d 25 ef a7 bd 3c 01 a3 3c bf dc 4a bd
       0.033131104 -0.0819991 0.01989805 -0.049526926
000050 89 79 16 3e 58 62 4a bd 4b 4f b6 3d 94 df f4 bb
       0.146948 -0.049410194 0.08901843 -0.0074729417
000060 b3 e7 be bd cf 4c 02 3e ad ce b5 3d 16 6f b4 bc
       -0.09321537 0.12724613 0.08877311 -0.022025626
000070 5b ff 2e ba 44 d6 c7 bc 66 1f 04 3d ea 8f d1 bc
       -0.0006675624 -0.024394162 0.032256506 -0.025581319
000080 97 5c b1 3d 4a 00 4b bd 89 51 d8 bd c4 b0 a9 bd
       0.08660238 -0.049560823 -0.105624266 -0.082856685
000090 f8 43 ff bd 5e 7d 86 bc c8 af e3 3d b0 df 46 bc
       -0.12464136 -0.016417202 0.11117512 -0.012138292
0000a0 07 ec b2 3d 68 8c 6b bb 29 23 9e 3c b5 1c c1 3d
       0.08736425 -0.0035941843 0.019303875 0.094293036
0000b0 ba 67 8e 3d a4 a5 13 3d 88 64 d9 bb e5 34 91 bd
       0.06953378 0.03604664 -0.0066342987 -0.07090167
0000c0 63 d0 99 bd 0c 33 04 be f6 e1 0f 3d 52 92 18 3c
       -0.0751045 -0.12910098 0.035127603 0.009312229
0000d0 3c f1 23 39 40 5c 7e 3d 08 95 f1 3d 57 ec 84 bc
       0.00015634758 0.062099695 0.117960036 -0.016225977
0000e0 22 58 ae bd a8 e1 18 3d 1e 73 2a 3d d7 29 d9 bc
       -0.08512904 0.037324578 0.04161369 -0.026509209
0000f0 ec ba c2 3d cd f6 86 3d 16 2a 40 bd c8 5c 0d bd
       0.09508309 0.06590042 -0.046915136 -0.03451231
000100 9d 97 19 3e 3a 20 f1 3c 1d 68 f8 3d b5 46 42 bc
       0.14999242 0.029434312 0.12129233 -0.011857678
000110 15 e8 27 3d 33 8f 9b 3d 7a bb e5 bc fd 20 e5 bc
       0.040992815 0.075956725 -0.028043497 -0.027969832
000120 ca ba 44 3d 10 7d 07 bd fc dc ef bd bf b7 1c 3e
       0.0480297 -0.033078253 -0.11712071 0.15304469
000130 54 1a 94 3d ed 9f 32 3d fa 8f da 3c c9 89 eb 3c
       0.07231584 0.04360955 0.026679981 0.028752225
000140 f8 02 9a 3d d2 45 73 bd 10 a5 20 3e e0 35 80 3c
       0.075200975 -0.059392758 0.15687966 0.01565069
000150 50 27 1d 3d a1 4e ed 3d 57 5c b3 3d 19 f3 bd bc
       0.03836757 0.11587263 0.08757847 -0.023187207
000160 3c 03 00 3e db 48 94 3d fd fc 31 bd ca 68 a4 bc
       0.12501234 0.072404586 -0.04345416 -0.020069499
000170 39 13 40 3d 2a 60 f5 3b 71 20 b8 3d 45 b7 75 bd
       0.046893332 0.0074882703 0.08990563 -0.059989233
000180 a1 14 49 bd 53 1a 98 bd 64 74 99 3d e8 8d cd 3c
       -0.04909194 -0.07426896 0.07492903 0.02509208
000190 49 a2 67 bd e3 4d c0 3d 6a 7c 7b 3c 98 d7 ec bb
       -0.05655125 0.09389856 0.015349487 -0.007227849
0001a0 84 68 b7 3c 34 4f df 3d 8f b4 f8 3d 14 e7 1b bd
       0.022388704 0.10903779 0.12143814 -0.03806217
0001b0 a7 80 f1 3d b4 21 23 bd f3 ca ed 3d 9d f8 a6 3d
       0.117921166 -0.039827064 0.11610975 0.08152888
0001c0 b8 80 49 3c e7 0e 0e 3e d6 e0 32 3d 51 b0 6c 3c
       0.012298755 0.13872872 0.04367145 0.014446334
0001d0 98 a8 e5 3d b6 a6 d6 3d 80 ab 99 3b 14 aa 9d bc
       0.11213797 0.10481016 0.004689634 -0.019246139
0001e0 14 d7 d0 bd ff f3 34 3d aa 36 84 bd f3 41 c2 bd
       -0.10197273 0.044178005 -0.06455739 -0.09485235
0001f0 a5 96 d1 3d 30 c7 1e bc 78 2c c4 3c 20 a0 c4 3d
       0.10233811 -0.009691045 0.023946986 0.09600854
000200 8f f7 f7 bd 1f 91 0b 3c b4 46 b4 3d 69 e7 61 3d
       -0.12107765 0.008518486 0.08802548 0.05515233
000210 d0 17 6f 3c f9 9d ee bd c9 0c 87 3a a4 49 10 3d
       0.01459308 -0.11651225 0.0010303493 0.03522648
000220 8d db c4 3d e9 30 7d bd 80 f2 c7 3d 82 66 d5 3c
       0.096121885 -0.061814222 0.0976305 0.026049856
000230 fc e3 9d 3d 83 bc f1 bd 20 66 80 bc 96 c0 a3 bd
       0.077095 -0.11803534 -0.015673697 -0.07995717
000240 8c c3 6b 3d 11 a3 06 be 13 03 d2 3d 00 49 1f 3d
       0.057559535 -0.13148142 0.102544926 0.038887978
000250 b1 8c 41 3d 5c bd fe 3c d3 1c bc bd 16 43 b6 3d
       0.047253314 0.031096153 -0.09185185 0.088995144
000260 26 b9 a8 3b 29 93 6e bd 39 96 4d bc f3 71 91 bc
       0.0051490245 -0.05824581 -0.012548023 -0.01775453
000270 62 49 2e 3d 46 6a fc bd 32 78 60 bd ff f5 b6 bd
       0.042550452 -0.123249575 -0.054802127 -0.08933639
000280 9a 2d bc bb fd 3f 8a bd 48 c6 a9 3d 71 b3 14 3d
       -0.005742741 -0.06750486 0.08289772 0.03630394
000290 69 0a b1 3d 8d 10 f1 bd 5a bc ba 3d 2a 6e 77 3d
       0.08644564 -0.11770735 0.091179565 0.060407795
0002a0 d4 8a 85 3d 68 e1 8f bc 31 a8 25 3c 56 df 77 bd
       0.0652062 -0.017563537 0.010110901 -0.060515724
0002b0 9a a8 b4 bd 39 96 d9 bc 5e 9c 89 bd d6 7b a2 3d
       -0.08821221 -0.02656089 -0.06719278 0.07933776
0002c0 c8 af 62 3d ad 22 dc bc e5 ce fe 3d 8e 71 c6 bd
       0.05534342 -0.026872003 0.12441806 -0.096896276
0002d0 48 79 f0 3d 5f 27 f4 3d f4 8f bd b9 d5 6b 68 3d
       0.117418826 0.11921572 -0.00036156143 0.05674346
0002e0 e7 4b f9 3c da 43 97 bc 28 67 b4 3d ee f9 00 3e
       0.0304317 -0.018464971 0.08808738 0.1259534
0002f0 32 02 e9 bc 24 c2 f3 bb 2d 78 71 3d 13 8c 8a 3d
       -0.02844343 -0.007438915 0.0589525 0.06764998
000300 68 96 db bc 04 6a 6a bd 9e 89 6a 3d d5 30 54 3d
       -0.026805118 -0.05723001 0.05726015 0.051804382
000310 c6 9e 33 bc ee 42 bb bc 2e ca de bd dd a6 dc bd
       -0.0109631475 -0.022859063 -0.108784065 -0.10774014
000320 22 28 c4 3d 98 26 b4 3d 32 f0 e1 3c ad 5d d1 3d
       0.09577967 0.08796424 0.027580354 0.10222945
000330 ff 65 f0 bd 3f f6 fa 3d ee 8f 00 3d 40 91 19 3d
       -0.11738204 0.12253999 0.031387262 0.037492037
000340 82 da 98 bd 8d 63 08 3e 19 38 30 bd 8f 4c e1 3d
       -0.07463552 0.13319226 -0.04302225 0.110009305
000350 eb 4f e8 3d e8 c4 6c bc 5c 12 1c 3c 90 72 2d bd
       0.11343368 -0.014451243 0.009525862 -0.042345583
000360 3b f0 48 3d e9 0f d7 bc 5d 33 51 bd 32 a0 14 3d
       0.049057227 -0.026252704 -0.051074374 0.036285587
000370 12 4f 75 3c 2a 66 cb 3c 7a 13 76 bd 9e 83 99 3b
       0.014972465 0.024828989 -0.060077168 0.0046848794
000380 3c 82 fb 3d 88 b2 75 3d f3 76 a2 3c 43 0b 94 3d
       0.122806996 0.059984714 0.01983211 0.072287105
000390 b4 e0 58 3d 54 fb 5c 3d a1 e9 ad 3d 88 01 30 3d
       0.05294867 0.053950623 0.08491827 0.04297021
0003a0 41 c3 b6 3d 80 d2 dd 3c 7d 4e 17 bd b2 65 e7 3d
       0.089239605 0.027077913 -0.036940087 0.11298694
0003b0 ab a6 8a bd e3 fe c1 3c 44 08 ae bd 11 63 fd 3c
       -0.06770071 0.02368111 -0.0849767 0.030931028
0003c0 06 91 55 3d c3 42 ac bd 67 21 02 3e fb d1 07 3e
       0.05214026 -0.08411171 0.12708054 0.13263695
0003d0 4d bc 43 3d d1 a1 b0 bd 99 bd 84 bc 2d df e8 bd
       0.047787 -0.08624614 -0.016203688 -0.113706924
0003e0 20 56 ff 3d 30 1b 02 bd b4 7e 47 3d ee 25 05 bd
       0.12467599 -0.03176421 0.048704818 -0.032506876
0003f0 d0 0e 0d bb 6d 77 3f 3e 8f 8f 0e bd e9 a7 96 bd
       -0.0021523722 0.18697901 -0.034804877 -0.07356245
