model/lstm_10.model (torch, 670447 bytes, 17 tensors)

weight_ih_l0 f4 [256, 64]
00000000: 7b76 36bd 8262 fe3c 7305 833b 58c0 38be
00000010: 4690 a5bd fa4e 463d ef20 63bb 9482 2cbc
00000020: 83cd c03d 368e 5a3c efb6 debd da26 b63c
00000030: 177a 1cbd 5da4 273e bd62 39bc 19c3 563c
00000040: acef d73b 4dc7 b6bb 20c4 2a3d bd73 893d
00000050: e4b6 dbbd f924 a43c 9690 023e 1cb3 b3bd
00000060: 3025 5cba 1bfe 1fbd 850b 11bd d86f bf3b
00000070: 497d 893d c049 13be e6da b3bd a0a4 0a3d
00000080: 529d bbbd d468 853c 24f8 09bd c87f 003e
00000090: d56c 423d e5c9 0dbe 275d 3c3d 40d6 c0bd
000000a0: 53b6 90bd af52 b3bd 97e7 1a3d 4ee9 043e
000000b0: 68d0 913c 2665 c13d 865a f2bc 9621 2e3e
000000c0: 97f9 d43c 9206 47bd c2e8 0abe b944 163d
000000d0: 7d15 80bb 82b5 a93d 55f3 2fbd ec4f 80bd
000000e0: 78c1 3abe 460c 80bd 4423 873d 60bf ce3d
000000f0: 6ffd 35be aeca 2a3d 2259 24bd 408e e83b
00000100: 927e b5bb 649e a93d 455e a9bd 5ffe d43c
00000110: a9a5 e0bd 81dd 9a3d 5bf7 1e3d b320 09be
00000120: 6d70 94bd f1d9 ad3d 4804 463a aec4 c03d
00000130: c02a 8aba 715f 0d3e 761a a43d c4fc a43d
00000140: 7e72 593c 302d a4bd fc55 8fbd de90 e8bc
00000150: 3132 cb3d 3e4b d7bd e2b9 c23c 0f8e afbd
00000160: 7cfa e73c 083d d73d b776 cc3d f10f 1abd
00000170: 62ab 893d 473c 5b3d ced8 d23d 874f 5bbc
00000180: 1be2 c53d 2109 723d 8c6f aebd f05b 8fba
00000190: ee13 3b3d c4d8 1cbe 0bba d3bd d48c 843d
000001a0: 6848 c9bd e0e8 5bbc a994 443d 3cca e13d
000001b0: 2b4a 083d ae40 fc3d e810 bf3d a36b 7a3d
000001c0: 7825 33bd 0f95 b0bb 50c3 813d 4009 cb3d
000001d0: 8e79 febb f770 ef3c 15ed 5ebd 6335 aabd
000001e0: eea5 debd 9f22 8c3d 8d3c 6a3c ac60 dabd
000001f0: f377 503b 02e9 af3d 37e1 823d 234a 123e
00000200: 9f3c b33d 76ff c73d 455d f0bd 1a5c adbd
00000210: a172 c5bb fc8d 823b e4af 1e3d 4da1 afbd
00000220: d54a b4bd 3773 f23a 1302 bbbd eca7 b33d
00000230: c7c0 303e ae72 84bb 4a35 59bd 8fa3 ac3c
00000240: 2bde a23d 8c10 f3bb 034c 433c 12ff 14be
00000250: d0a0 bd3a dc78 8d3d 2880 43bd 7d3c e03d
00000260: 3554 09bd b33b b73c 7925 3ebd e2e9 be3d
00000270: 59e4 333d 488e af3d 0f02 2bbd 5148 0cbd
00000280: 18de 813d d4a1 e9bd 021d eebd 7c17 f83d
00000290: efa6 82bc 6f1d d6bd 1120 83bc 36aa 1fbc
000002a0: 2e1a b6bd cb75 24bd 3aac c4bb ec5a b03d
000002b0: 1b57 fdbc 61b6 c6bd 4097 803d e37b a93c
000002c0: b384 5e3c cc37 8dbd ed02 42bd 4494 183c
000002d0: 9f0a 893d 75ee fd3c 53de ab3c 77fe 653a
000002e0: d751 83bd d3fd db3d aef9 e93d e07f ecbc
000002f0: 538c e1bd 1714 743d ac90 5fbd 491e 2e3d
00000300: b4e7 f43d 7adb 813d 59df acbd 428e 2ebc
00000310: 7aa7 70bc bc18 0fbd 39a1 f83d bb68 f9bd
00000320: e5f5 0d3d 33ff 0dbd 83f5 093e e1cc 413d
00000330: d8ec f83c 68b8 8d3b 461b 55bc d8c9 d13d
00000340: 0640 69bd c539 e4bd 9457 43bd aee5 c9bd
00000350: b312 4fbd 07dd ca3d 5548 8f3d 3434 b73c
00000360: aab9 33bd 3565 b6ba a838 dd3d 5052 cbbc
00000370: 33af 49be 518a fd3b 9e0e 4dbd d00e 2e3d
00000380: 0240 663d ac1a 18bd bcc3 90bd 4cbe 72bd
00000390: 1cf0 db3d b40d 013e 1f4b 3ebe f4cd c9bd
000003a0: 4976 ef3d dcb3 053d 613c c0bb 4aff d9bd
000003b0: 59e5 14be d52b 033e 3f16 ffbd 5256 c63d
000003c0: 88eb 993d cc90 97bd 6d22 d2bd b708 ccbc
000003d0: 1ae1 893c b154 093d 480c 95bd a433 a23d
000003e0: 3b54 a83d c6ee 87bd ccb9 56bd 2e75 b53d
000003f0: f1e2 c5bc 1a2a 663d 09f6 073e f159 a03d
-0.044546586 0.031052832 0.0039984523 -0.18042123 -0.080841586 0.04841516 -0.003465708 -0.010529179
0.09414198 0.01333957 -0.108747356 0.022235323 -0.03820237 0.16371293 -0.011315045 0.013108038
0.0065898504 -0.0055779577 0.041690946 0.067115285 -0.10728243 0.020037161 0.12750468 -0.08774397
-0.00083978754 -0.039060693 -0.035411377 0.0058421902 0.06713349 -0.14383602 -0.08781986 0.033848405
-0.09160866 0.016285338 -0.03368391 0.12548745 0.04746707 -0.13846548 0.045987274 -0.09415865
-0.070660256 -0.08756005 0.037818518 0.12979624 0.017799571 0.09443121 -0.02958418 0.17005
0.02599792 -0.04859025 -0.13565353 0.036686633 -0.0039088116 0.08286573 -0.04295667 -0.06265244
-0.18237865 -0.06252341 0.06598523 0.10095096 -0.17772458 0.041697197 -0.040124066 0.0070970356
-0.00553877 0.08282164 -0.082699336 0.0260002 -0.10969097 0.0756178 0.038810115 -0.1339138
-0.07248006 0.08488835 0.00075537385 0.09412514 -0.0010541305 0.1380594 0.080128595 0.08056024
0.013271926 -0.08016431 -0.06998822 -0.02838939 0.099216826 -0.10512398 0.023770276 -0.085720174
0.028317682 0.10509688 0.099835806 -0.03761286 0.06722142 0.05352428 0.102952585 -0.01338566
0.09662267 0.059090737 -0.0851737 -0.0010937434 0.045673303 -0.15317065 -0.10338219 0.06472173
-0.098282635 -0.013422221 0.047993336 0.11024901 0.033273857 0.12317024 0.093293965 0.061137807
-0.043736905 -0.005388863 0.06336081 0.09913874 -0.0077659553 0.02922867 -0.054425318 -0.08310964
-0.10871492 0.06842541 0.014296663 -0.1066297 0.0031809777 0.085893646 0.063906126 0.14286093
0.08751797 0.09765522 -0.1173654 -0.084648326 -0.0060256277 0.003984211 0.03874196 -0.085756876
-0.088033356 0.0018497471 -0.09131255 0.08772263 0.17261039 -0.004041991 -0.053029336 0.021074085
0.079525314 -0.007417744 0.011919978 -0.14550427 0.0014467482 0.06907818 -0.04772964 0.10949037
-0.03352757 0.022367334 -0.046422455 0.09321953 0.04391894 0.0857206 -0.04175001 -0.034248654
0.06341189 -0.114078194 -0.116266266 0.12113854 -0.01594874 -0.10454833 -0.016006501 -0.009745171
-0.08891712 -0.0401514 -0.0060019763 0.08611092 -0.030925324 -0.09702755 0.06278849 0.020688957
0.013581443 -0.06895408 -0.04736607 0.009312693 0.06691479 0.030997494 0.020980036 0.0008773575
-0.06412094 0.107417725 0.11424576 -0.02886957 -0.11013093 0.05958947 -0.05458133 0.04250935
0.11958256 0.0634069 -0.08441038 -0.010654034 -0.014688367 -0.034935698 0.12140126 -0.12178179
0.03465833 -0.034667205 0.13472562 0.04731453 0.030386373 0.0043249615 -0.013006991 0.10243577
-0.056945823 -0.11143831 -0.047690943 -0.09858261 -0.050554942 0.09905439 0.06996218 0.02236376
-0.043878235 -0.001391566 0.10801822 -0.024819523 -0.1969574 0.007737436 -0.05006277 0.042494595
0.056213386 -0.03713481 -0.07068583 -0.059263512 0.107391566 0.12602884 -0.18583344 -0.098537356
0.11692483 0.03264223 -0.0058665727 -0.10644396 -0.14540614 0.1280969 -0.12455415 0.09684433
0.07515627 -0.07400665 -0.102604724 -0.0249065 0.01683097 0.033528034 -0.07277733 0.07920006
0.08219191 -0.06637339 -0.052423283 0.08860241 -0.024156066 0.056192495 0.13277449 0.07829655

weight_hh_l0 f4 [256, 64]
00000000: e3ae fdbd 102e 243e e4ca 09bd 0a5d c53d
00000010: d591 b8bd fb0c 073e fc60 303d c9a8 1e3d
00000020: 0d49 723e ca2d 013d 25dc 0fbe fce9 e0bc
00000030: 9d2b 9cbd 8251 3dbb 232e 973d f299 9abd
00000040: db97 663d 3f5a 5bbd dbfe e13d 4966 6abd
00000050: a370 853b 7123 18bb 01b7 873d 5523 24bd
00000060: eab8 923c dca1 ec3d 0253 f7bb 01ea 483d
00000070: dc18 cabd ccfc acbd ff94 3fbe 601b 19be
00000080: 46d6 0f3e 25d7 543d 4bc5 d73c 9dcd aabd
00000090: 9cc9 c03d 40f0 913d 1dd9 af3d 2844 e43c
000000a0: 5ffc fd3c eca2 ddbd be0c f73d 29a4 743d
000000b0: d7d7 02be 7a3c 0e3d 5c7f 85bc 170d 0dbe
000000c0: 5e0a aabd c6aa 85bc c8d2 ae3c 235c d839
000000d0: 439d 6cbd 1845 1b3d a473 e93d 0a72 28bd
000000e0: 3af0 19be e2c1 f53d 4450 06be aec1 483b
000000f0: 8f9a 60be 7e57 713d 5962 2f3d 432d ecbc
00000100: ffa3 e33d 5e4e 1abe cb23 c3bd 0535 8cbc
00000110: 6c05 df3d fe7b 833d f781 e83a 8500 11be
00000120: 7819 cabd f98e af3c 74b2 c0bd 1bd2 203e
00000130: 17b7 64bd f986 cb3c aac9 d0bd 9a01 3cbe
00000140: 6c36 e0bc b733 f7bd 863f cc3d 2c02 cabd
00000150: 1495 c5bd 4414 babc 3598 03be fb31 a4bd
00000160: cb0d 963d 3226 9f3d fbfa 413d 9c50 553d
00000170: 9bac 0f3e c23a 23bc 178b 753d ea7d 01be
00000180: ae93 903d 569d aebd 0c31 a53c f066 7d3c
00000190: 415c 0bbd 70a6 8f3d 93c8 d43d 33e2 30bc
000001a0: 6a1d 18be d13b 923d 9801 1cbd ca96 9d3d
000001b0: c86b 22bd 9e00 043c 107e 44bd 68b2 c83d
000001c0: 6f29 213e ff36 c43c 16e8 11be a57c b5bd
000001d0: 56ba ec3d 14d3 d83d 4cf2 99bc 0ff4 1e3d
000001e0: cf41 4d3d 31da 13bb 42d0 fabc 7287 9bbd
000001f0: df4b 2b3d a120 313d 5b9e d93d 5950 a8bd
00000200: b007 863d 2f10 ca3d 41f4 ec3d d1d2 ec3d
00000210: 7181 b53d 42a9 e3bc 5e9d f2bd 9b92 0ebd
00000220: ed5e 1abd 4a07 f8bb f6a9 c3bd 4e91 37bd
00000230: 73ec 403b 18ef 253b cd19 5e3c ca2d 883d
00000240: 456f f7bd 137e 3a3c 68d0 cbbd ceb2 823d
00000250: 8510 3cbd 8f25 57bd 4c63 19be ecb2 16be
00000260: 76bf 863d 2c3c 28bd 756a adbc d470 16be
00000270: 9a8d 10be 7bd4 0f3e 1243 e93c 0817 dc3c
00000280: e334 88bd 51d0 513d d943 7cbc 3666 9cbd
00000290: 8cb6 053e 8b3d a73d aaee 833c a6eb f0bd
000002a0: 6ed9 b83d aee3 cdbb 180f 883b 9a35 863d
000002b0: 2de8 a2bd 93e0 07be cd5e 9d3d f8a7 a83d
000002c0: f62d e53d 12e7 af3c 5b7d ca3d 1320 0a3e
000002d0: 8ab2 b4bd 83ba fb3d 0093 eb3d 91da ff3d
000002e0: 15ac 81bd ebfa 3dbd 70bf 123e 41cd 81bc
000002f0: 5fc4 5ebd c983 923d a4e1 813d 72c9 85bd
00000300: 8533 f4bc 4c28 b43d f53b 2e3d 76e4 1fbd
00000310: 572c 21bd 9e65 07be 796b 663d 24c7 01be
00000320: 4a15 08bb 8dcf 273d 93fb 7f3c ed3c e0bd
00000330: 9536 1ebc 7ddc 493d 13cb 06be 3f9d 71bc
00000340: c224 0cbe d415 ea3d 6fcf 0abe 6e2d f73b
00000350: 8f65 60bd b126 293c 88f2 c7bd e55b 1d3d
00000360: 2ae3 883c ec83 dd3d b32c 0ebc a2f4 a9bd
00000370: e131 b9bc 7f07 6e3d 2511 0abc 62a9 ab3d
00000380: 3a40 013d 728a c93b db4e d9bd 9a18 613d
00000390: 09e3 2bbe 4bd0 0b3e 17c6 acbd 9394 c13d
000003a0: 8b11 2f3c cd7a 243e cb2e 8ebd 707d 953d
000003b0: 2233 193e a5c4 1a3e e484 86bd 1584 373d
000003c0: b5d3 a93d 25be 52be bec1 853d 0bd4 7dbd
000003d0: dece e53d c4e4 8cbc 320e 103d 3223 693c
000003e0: ca00 3abd e368 80bd 5e21 b53d 2fbb e9bd
000003f0: 95fb 92bd ab6c 0a3e a310 413d 16cd dc3c
-0.123868726 0.16033196 -0.033640757 0.096368864 -0.0901219 0.13188545 0.04306124 0.038735185
0.23660679 0.03153781 -0.14048822 -0.027455322 -0.07625506 -0.0028887694 0.07381847 -0.07548894
0.056297164 -0.053552862 0.11034938 -0.057226453 0.0040722652 -0.0023214484 0.06626702 -0.040072758
0.01791044 0.1155431 -0.007547737 0.04905129 -0.09868023 -0.08446655 -0.18709181 -0.14951849
0.14046583 0.05196299 0.026339194 -0.08339999 0.09413454 0.07125902 0.08586333 0.02786453
0.031004129 -0.108220905 0.12062977 0.059726868 -0.12777649 0.034725644 -0.016296081 -0.13774525
-0.08302759 -0.016316783 0.021340743 0.00041267378 -0.057767164 0.03790769 0.1139901 -0.04112438
-0.15033045 0.11999871 -0.13116556 0.003063302 -0.2193396 0.05892133 0.0428184 -0.028830176
0.11115264 -0.15068957 -0.09528311 -0.017115125 0.10889706 0.06420134 0.0017738928 -0.14160354
-0.09868139 0.02143048 -0.09409037 0.15705149 -0.05583867 0.024844633 -0.10194714 -0.18359986
-0.0273697 -0.12070411 0.09973054 -0.098636955 -0.09647575 -0.022714742 -0.12851031 -0.080173455
0.073268496 0.07770957 0.047358494 0.05207883 0.14030688 -0.009962739 0.0599471 -0.12645689
0.07059418 -0.08526103 0.020164989 0.015466437 -0.034023527 0.07014167 0.10389819 -0.010796118
-0.1485497 0.07140315 -0.038087457 0.07694776 -0.03965357 0.008056788 -0.047971785 0.09799653
0.15738462 0.023952005 -0.1424869 -0.08861665 0.11558978 0.10587135 -0.018792294 0.03880697
0.050111588 -0.0022560472 -0.030616883 -0.075941935 0.041820403 0.043244008 0.10625907 -0.0821845
0.06544435 0.09866368 0.11570025 0.115636475 0.088625796 -0.02779067 -0.11846422 -0.034807783
-0.037688185 -0.0075692283 -0.09553902 -0.044816308 0.002943781 0.0025319513 0.013555956 0.066493586
-0.1208177 0.0113825975 -0.0995186 0.063817605 -0.04591419 -0.052526053 -0.14979285 -0.14716691
0.06579487 -0.04107301 -0.021168927 -0.14691478 -0.14116517 0.14045899 0.028474364 0.02686645
-0.06650712 0.051224057 -0.0153970355 -0.07636683 0.13057917 0.08166035 0.016105015 -0.11763696
0.090258464 -0.006283245 0.00415219 0.065531924 -0.0795444 -0.13269262 0.076840974 0.082351625
0.11190407 0.021472488 0.09887191 0.13488798 -0.08823116 0.12291434 0.115026474 0.1249286
-0.0633165 -0.046381872 0.1433084 -0.015844943 -0.054386493 0.07154042 0.06341866 -0.06532563
-0.029809723 0.087967485 0.04253765 -0.039036237 -0.039348926 -0.13222358 0.056254838 -0.12673622
-0.0020764642 0.04096942 0.015623945 -0.10949121 -0.009656568 0.04928254 -0.13163404 -0.014746963
-0.13685897 0.11429945 -0.13555692 0.0075432574 -0.054784354 0.010324166 -0.09763056 0.038417716
0.016709883 0.10816178 -0.008677649 -0.08298613 -0.022606792 0.058112618 -0.008426939 0.083819166
0.03155539 0.006150537 -0.106107436 0.054955103 -0.16785826 0.13653676 -0.0843622 0.094521664
0.010685335 0.1606247 -0.06942519 0.07299316 0.14960912 0.15114076 -0.065683156 0.044803698
0.08292333 -0.20580347 0.06531094 -0.061969798 0.112210974 -0.017198928 0.035169788 0.014229583
-0.04541091 -0.062700056 0.08844255 -0.114126556 -0.07176892 0.13518016 0.047135007 0.026953261

bias_ih_l0 f4 [256]
00000000: 1947 0e3e 5c12 efbc 796c 003e c4d9 11bd
00000010: be46 9dbb e7c3 643d 1d35 fc3d f9ca e43d
00000020: fd37 b0bc 7d37 293d d1f3 a73d a7d1 3abd
00000030: 9a64 16bc 5c89 0a3e f574 23bd 1034 c3bc
00000040: 9aa2 0e3e 003a 343e 3489 94bc 6916 993d
00000050: 0f9d 933d 91c0 823d 032f a3bd 0a57 2bbd
00000060: 2326 ee3d 372b cfbc 082a bf3d 2daf 713d
00000070: 4441 093d 60e6 253d 2478 a83c 8f1c 143e
00000080: a8c5 aabd 1358 efbd e40b 85bd e5ac 78bd
00000090: 7d53 343d 0633 60bd b177 debd 859c 903d
000000a0: 5230 76bd 031f eb3d 520b 133e 61f3 063d
000000b0: bee9 56bd 9a6a 8fbb 73d3 25bd 1246 acbd
000000c0: 153a a0bc ecb4 f03d 18c7 e63d 13c1 b53b
000000d0: 5efd d93d d843 2dbd 523c 88bc af5f 6abd
000000e0: c167 a5bd 3e69 983d 692d 893d cbaf 0d3e
000000f0: 394a 883d 91cb 4b3d 8b2d 853d 0cfb 96bb
00000100: 1dc1 d03b f341 b6bc 6677 fa3d fd42 b8bd
00000110: 9076 803c 959e 2cbd cb2d 6d3c e29e f9bc
00000120: b93b 0b3e 2600 ff3d 7d0a cd3d 1eea a9bd
00000130: 8350 43bd 55eb b6bd 5aa2 9fbd d51a 083e
00000140: d9f0 103b d23d 86bd 4208 b13d 98dd 043d
00000150: 1f58 723d 3d17 03bc 2524 85bd e759 1bbd
00000160: f89a 173d ff48 193e ba5d a73d b0d8 d4bd
00000170: 81e9 6d3d b4c5 ef3d 5212 1ebd fd78 99bd
00000180: 37ad e8bc 9361 013e 7982 213d a795 5b3d
00000190: a894 7b3b ab5b 0b3e b022 be3d 75de bf3d
000001a0: c592 c83d 5106 33bd 677c 95bd 2ee0 0e3e
000001b0: 4e0c 4cbd 291f 95bc c75f 48bd ed48 a63d
000001c0: a75f ac3b bb5e 903d 9514 31bd c316 d93c
000001d0: bbc9 e2bd 30d6 dd3d dea8 ce3d 7515 1f3e
000001e0: ad34 9ebd 07bc b83d 18bd 033e efe7 963d
000001f0: 2ab5 8dbb c51d 73bd b005 b5bd 8c52 9ebd
00000200: dbf5 00be aa55 ae3c 0515 e8bd e708 313d
00000210: 5b1c 9e3c d71f d5bd fb53 bd3d 19ba 1a3a
00000220: 77d8 d83d 3233 7b3d 1623 27bc 107c cfbc
00000230: c999 84bc 9c9c f33b b59c ec3d 719e 1dbc
00000240: ef9b b0bd 28e0 273e c449 d23d 4a0f c8bd
00000250: 6cc9 ddbd 720a abbc d5c4 cfbd 5d29 a9bd
00000260: 712f 03be 0d77 2cbc c18f 69bd 424a b5bd
00000270: 3b58 41bd edb4 42bd 6576 4b3d f757 79bd
00000280: d641 1bbd 28a9 4b3d eb0d 073e 3b20 a93c
00000290: 8f8d 073e 6ac6 6b3b cb2f 19be 6717 54bd
000002a0: 5c5c fd3d 02f5 783d 4efb a93d 2986 eb3c
000002b0: 41a8 9f3d 7fda 5fbd 0586 cb3a 41f9 f63c
000002c0: 67d2 2c3a 19b1 1f3c 5683 2b3d f70f 39bd
000002d0: f25a 823d 5a81 a13d 1bd4 d33d 4ed0 79bd
000002e0: 96bc f13d 6686 99bd c9fe ce3d 1ca9 a6bd
000002f0: c26e e7bb 613a 3c3c ec79 eebb a993 983d
00000300: 478e 4b3b b39c 3c3d 063c b23d c71c acbd
00000310: 12b3 80bd ae59 f3bc 2a57 d93d 04f2 c9bd
00000320: 961e c4bd 74bf b43d ef30 36bd c607 7fbd
00000330: f436 8738 b1fe 3f3d c14c fd3c 697a 353b
00000340: f343 29bd fd42 7abb f408 4ebd 762d f3bc
00000350: a42b 343c 53ac df3d bb84 053e 6ef4 733d
00000360: 0c45 86bd 0a3e 3e3e ecf5 293d 5ff1 073e
00000370: c92f 853d d2f8 f83d 0449 94b9 179e 20bc
00000380: eadf b73d 4773 6e3d edde debc b99c 88bd
00000390: 87ca ffbc 442f bcbc 02c3 9ebd 4aa5 1f3c
000003a0: 680b fb3d 0a92 51bc bfb4 ad3d 9142 bd3d
000003b0: 14f9 1e3e 8eec a9bc 71b9 c93c 8b4e 5d3b
000003c0: ba1a 113e bfee e63d c542 22bd fd2d 06bd
000003d0: 5050 f1bc 7571 8f3d fcd4 68bd 9707 42bd
000003e0: 8413 243d b06b 32bd f8ec 0f3e 3921 96bd
000003f0: 4db3 373d 62df f33c 59bd 8cbc 1d91 b9bd
0.13894309 -0.02918356 0.12541379 -0.035608068 -0.004799693 0.05585089 0.12314818 0.111715265
-0.021511072 0.041312683 0.08200801 -0.045610096 -0.009179259 0.13528961 -0.03990646 -0.023828536
0.13929215 0.1760025 -0.01813183 0.074749775 0.07207691 0.063843854 -0.07967951 -0.041831054
0.11628368 -0.025289161 0.09334189 0.05900495 0.033509508 0.040502906 0.0205651 0.14464019
-0.08338481 -0.11686721 -0.064964086 -0.06071176 0.044024933 -0.05473616 -0.10862673 0.07061104
-0.060104676 0.114805244 0.14359787 0.032946948 -0.052469008 -0.0043767216 -0.040484857 -0.08411802
-0.019558946 0.11753258 0.11268443 0.005546698 0.10644029 -0.04230103 -0.016630325 -0.057220157
-0.0807643 0.07441948 0.066981144 0.13836591 0.06654782 0.049754683 0.06502827 -0.004607564
0.006370677 -0.022248244 0.12229805 -0.08997152 0.015681535 -0.042143423 0.01447625 -0.030471269
0.13597001 0.124512 0.10011766 -0.082966074 -0.047684204 -0.08931605 -0.07794638 0.13291486
0.0022116213 -0.0655476 0.08644153 0.03243789 0.05916607 -0.008001146 -0.06501035 -0.037927534
0.037013024 0.14969252 0.08172174 -0.10392892 0.058084015 0.11707631 -0.03859169 -0.0749378
-0.028402908 0.12634878 0.03943107 0.053609516 0.0038388167 0.13609187 0.0928396 0.09368602
0.09793619 -0.043707196 -0.072991185 0.13952705 -0.049816422 -0.018203335 -0.048919465 0.08119378
0.005260426 0.070493184 -0.04323252 0.026500111 -0.11073633 0.10831869 0.100908026 0.15535529
-0.07724891 0.09020238 0.12865102 0.073684566 -0.004324575 -0.059354562 -0.088389754 -0.07730588
-0.12593786 0.021281082 -0.11332134 0.04322138 0.01930063 -0.104064636 0.09244534 0.00059023645
0.105881624 0.06132812 -0.010201236 -0.025327712 -0.016186612 0.007434441 0.11553327 -0.009620295
-0.08623492 0.16394103 0.10267976 -0.09768541 -0.10829434 -0.020879004 -0.101449646 -0.082598425
-0.12811066 -0.010526431 -0.05702186 -0.08852054 -0.047203284 -0.047535826 0.049673457 -0.060874905
-0.037904583 0.049721867 0.13188903 0.020645251 0.13237594 0.0035976418 -0.14959638 -0.05178013
0.12371132 0.060780533 0.08299886 0.028750496 0.07795764 -0.054651733 0.0015527612 0.03014815
0.00065926317 0.009746813 0.0418733 -0.04518124 0.06365003 0.07886 0.1034319 -0.06098967
0.11803548 -0.074963376 0.1010719 -0.08137724 -0.007062764 0.011488528 -0.007277718 0.07450039
0.0031060146 0.046047878 0.08702855 -0.08403926 -0.06284155 -0.029705849 0.10612328 -0.09860614
-0.09576146 0.08825579 -0.04448026 -0.062263273 6.4475375e-05 0.046873752 0.030920388 0.002769137
-0.041324567 -0.00381869 -0.050301507 -0.029684763 0.010996733 0.1092154 0.13038914 0.05955928
-0.065561384 0.18578354 0.041494295 0.1327567 0.06503255 0.12156834 -0.0002828316 -0.009803317
0.08978255 0.058215406 -0.027205909 -0.066705175 -0.031224502 -0.022971757 -0.077520385 0.009743998
0.12258035 -0.012791166 0.0848174 0.09241212 0.15524703 -0.02074268 0.024624558 0.003376874
0.14170352 0.11276006 -0.039614458 -0.0327587 -0.029457241 0.07004062 -0.056843743 -0.04737052
0.040057674 -0.04355973 0.1405524 -0.073305555 0.04484873 0.029769603 -0.017180132 -0.09060881

bias_hh_l0 f4 [256]
00000000: 3141 78bd a1a6 f3bd 8661 9e3d a567 d63d
00000010: 66eb 2c3c ba65 0bbc 07c0 7a3d 3622 553b
00000020: bc60 81bd 1746 7bbc 5b2f b7bd 8dc8 d1bd
00000030: ea74 4a3e 1aba 903c 1d9a 48bd 9e6f d13d
00000040: c95c a23c ca2c 0a3e df89 19bc a6bd 9a3c
00000050: 6cd1 84bd 73ce 8cbd d83b e33d 2b42 5c3d
00000060: ec29 023e 5e06 41bc fe98 9dbd 33da 75bd
00000070: 02ec 5dbc 0760 cfbd c449 183d 219c 083e
00000080: 48d0 da3c 5587 a7bd 71ca b83d 73f9 d93d
00000090: c6a7 1abd 8449 32bd 4547 8bbd 4c1f fd3d
000000a0: 82b6 0bbd 1a08 e3bc 0561 113e 13fe 813c
000000b0: abea 7b3d b6ce e03c a936 0a3e 6627 9fbb
000000c0: 8984 a63b 281e 1d3e feff a03d 235e 043e
000000d0: 11d5 c93c 0aee ab3d c610 6a3d ad32 d2bd
000000e0: ee90 6c3d 3575 013e cddc 2cbd cef0 313c
000000f0: 4a80 1dbd 2d8e 95bc 2e95 763d 9ab5 ea3c
00000100: 5e9c 57bd 6263 223d 4c28 c3bd 91fe adbd
00000110: a10e 34bd 5535 9fbd 9bca 79bd 7385 a6bd
00000120: 9891 2cbd 33f0 7fbd e050 113d e339 afbb
00000130: a722 603d 1f16 27bd 7b42 95bd be14 fb3d
00000140: 76ef 473d 88c2 0abd bf3a c93d 5589 27bd
00000150: a66f 1b3e 1b64 cfbd e97b 973d 6d1b aebd
00000160: cda2 cd3c b7a4 333e 7bbf a2bc 08ad c93d
00000170: 9947 313c 8c33 32bd 9e85 0fbd 0f7c 8fbd
00000180: 23d7 6f3d e4d1 853d 2cad f63d 0e43 c33d
00000190: 0cea bb3d b603 7fbc f57f 133d f911 97bd
000001a0: ba0c 3a3d 08bd d93c ba14 103e 883e 523d
000001b0: 96ef 153e 4a6c 8fba b66b c23d d224 7e3d
000001c0: 222e c53d 4c9b 9c3c 5b5a 063e cc6c 96bb
000001d0: 57ab 72bd 8e9e ed3d 8030 063c b51c 1f3b
000001e0: 2201 583d 437f fbbc b064 313d 8982 8d3d
000001f0: 3135 ea3d 54f5 67bd 948f f93d af74 93bd
00000200: 42dc a43d 56a0 073e a4a9 b8bd 5754 80bd
00000210: 458b ce3d 1f64 b2bd ae8b 0ebd 31e3 173d
00000220: 0add 93bc 8019 0cbc 488f 303d c2a2 c63d
00000230: 606a 17bd f1b5 e33c 3c17 97bd 6f35 a8bd
00000240: 6354 f5bd 05f5 7a3d 98e2 dbbd 9268 85bd
00000250: a90f 36bc ac84 643c 2737 18be 5022 8eb8
00000260: 557e 92bd e6c3 98bd d1ea 183d f5c0 813d
00000270: 453b b2bc 529c d73b c819 53bc 18bd 09bd
00000280: 7aaf 80ba 6ab2 cd3c f824 fa3d d0ce d0bd
00000290: 0735 8c3d 8d6b 8ebd c409 95bd 35f7 48bd
000002a0: 6e32 9ebd 4898 823b f8b1 eb3b 2f5e 0e3e
000002b0: c6dd d4bc 3fe5 a1bd f881 dd3b c5ce e03d
000002c0: 35e6 8dbd 555b fe3d 5e3c 4f3d fbd0 8bbd
000002d0: 99b4 37bd c04d 813c 3485 663a c9d8 b6bd
000002e0: cd7f 2bbc 0484 283d 105d 3e3d 3dd9 ccbc
000002f0: 364e c9bb aad9 7cbd 33dc bbba 7447 bcbc
00000300: 300f 2a3e b146 e03d 7d24 a73d 862e 063e
00000310: 0c32 bd3d 66c4 fb3d 18dd a03d 55a4 d6bd
00000320: 02a1 b1bd fd83 af3d 5a57 dcbb 5711 113e
00000330: 0906 eeba db43 753c fa33 ef3d 555b fd3d
00000340: ee23 52bd f8be 32bd 1dd2 213d 9815 32bd
00000350: df9f bf3d b207 24bd 85e4 5bbd c9b4 fe3d
00000360: b17e 67bb 3a20 8b3c b917 70bd c034 c33d
00000370: 401f 5a3d 58d0 dd3d d2ce d13d e06f a7bd
00000380: 4ec8 d73d abec fdbc 1820 64bd 24fd 813d
00000390: ee3b aa3d 92d6 2fbd 98d0 773d 11e8 b4bd
000003a0: 5c13 a23d 3696 0a3b bcda e33d d5be 4f3d
000003b0: dfeb 3b3c c14d 183e 1288 d7bc 3187 f4bb
000003c0: 160a 94bd 1d7b 973d 9e9d 123e 5176 9d39
000003d0: d7ba ac3d cfd9 063d cc22 33bd e783 02bd
000003e0: 1b6a b93d f997 ca3c 4c04 763d 026c a1bc
000003f0: b4f7 313c 297b d53d c0ee 053e 8a38 ed3d
-0.060609046 -0.11897016 0.07733445 0.104689874 0.01055417 -0.00850814 0.061218288 0.0032521612
-0.06317279 -0.015336535 -0.08944579 -0.1024333 0.19771162 0.017666865 -0.0489751 0.102263674
0.019819634 0.13493648 -0.00937125 0.01888926 -0.064852566 -0.068753146 0.11095399 0.05377404
0.12711304 -0.011781303 -0.076951966 -0.060022544 -0.013545038 -0.10125738 0.037179723 0.13340808
0.026710644 -0.081801094 0.09022988 0.10643282 -0.037757657 -0.04352714 -0.06800703 0.12359485
-0.0341096 -0.027713824 0.14197166 0.015868222 0.061503094 0.027442317 0.13497414 -0.0048569916
0.0050817174 0.15343535 0.07861327 0.12926535 0.02463773 0.08395012 0.057144903 -0.10263572
0.057755403 0.12642367 -0.04220276 0.010860635 -0.038452424 -0.018256271 0.060200863 0.028651047
-0.052639358 0.03964556 -0.095291704 -0.0849582 -0.043959264 -0.07773844 -0.060984235 -0.08130922
-0.042131037 -0.06248493 0.03547752 -0.005347477 0.054720547 -0.04079258 -0.07288071 0.12259816
0.048812352 -0.033876926 0.09825658 -0.040902454 0.15179309 -0.101265155 0.07396681 -0.08501325
0.025102044 0.17543302 -0.019866696 0.09847456 0.010820293 -0.04350619 -0.035039537 -0.07006084
0.05855478 0.06534174 0.12044749 0.09534274 0.091755 -0.01556485 0.0360107 -0.07376475
0.045422293 0.026579395 0.14070407 0.051329166 0.14642176 -0.0010942307 0.094932005 0.062046833
0.0962794 0.01911702 0.13120405 -0.0045906063 -0.059245434 0.116025075 0.008190274 0.0024278585
0.052735455 -0.030700332 0.043308914 0.06909663 0.11435927 -0.056630448 0.121855885 -0.0719999
0.08049823 0.13244757 -0.090167314 -0.062660865 0.10085157 -0.08710503 -0.034801178 0.0370819
-0.018049736 -0.008551002 0.043105394 0.09699012 -0.03696668 0.027796717 -0.073774785 -0.08213317
-0.11978986 0.061268825 -0.10736579 -0.06514086 -0.011112132 0.013947647 -0.14864789 -6.777479e-05
-0.07153002 -0.0745924 0.037333313 0.06335632 -0.021756778 0.006579914 -0.012884565 -0.0336276
-0.0009817921 0.025109489 0.122140825 -0.10195696 0.06846052 -0.069541074 -0.07277253 -0.04906388
-0.077244624 0.0039854385 0.0071928464 0.13903116 -0.025984656 -0.07905053 0.0067598782 0.10976938
-0.06928674 0.12419764 0.05059468 -0.06826969 -0.044849966 0.015784144 0.00087936525 -0.08928067
-0.010467482 0.041141525 0.04647547 -0.025005931 -0.0061433567 -0.061731018 -0.0014332592 -0.02298329
0.16607356 0.10950983 0.081612565 0.13103685 0.09238061 0.122933194 0.0785467 -0.104805626
-0.08673288 0.08570097 -0.0067242803 0.14166771 -0.0018159758 0.014969791 0.116798356 0.12370936
-0.051303796 -0.043639153 0.03950702 -0.043477625 0.09356665 -0.0400464 -0.05368473 0.12436826
-0.0035323317 0.01698314 -0.058616374 0.09531546 0.05325246 0.10830754 0.10244526 -0.08175635
0.10536252 -0.030996641 -0.05569467 0.06347111 0.08312212 -0.04292924 0.060501665 -0.08833326
0.07913849 0.0021146662 0.11125705 0.0507191 0.01146981 0.14873411 -0.02631 -0.007462405
-0.07228486 0.07396529 0.14317939 0.00030033526 0.08434074 0.032922562 -0.043734357 -0.031864073
0.09053441 0.02473067 0.06006269 -0.019704822 0.01086228 0.104238816 0.13079357 0.115830496

weight_ih_l0_reverse f4 [256, 64]
00000000: 1807 fd3b d6f9 2cbe fa69 353a c6be 08bc
00000010: acbd 8d3d ef3e 55bd e06a 82bd 724e 883d
00000020: ee77 7e3d d2be e33d 171f 173d c47f 4ebd
00000030: 57b7 cebd dc4b 0b3e 277b 80bd 867c 5e3d
00000040: 5f39 0e3e 827a 003b fcbe 3b3e 6d37 24bd
00000050: 8a2f d03c 66ff c7bd b5f5 7b3c 4f26 0ebe
00000060: 88b6 d439 671f eb3d f801 2abe 2240 973c
00000070: a463 e23c 3ea4 233d 2f09 b4bc c6cc 85bc
00000080: ce07 9d3c 0234 e13d e5d3 853d 4823 e5bc
00000090: 8a66 493d cc13 60be c2c5 95bd 1baf babd
000000a0: c5a4 e73d a71a 983d b00d b83d 3fe8 ca3c
000000b0: b7cb 5e3b 5414 0f3d fad2 bfbd ee34 e33d
000000c0: 5d8d 0239 3ebe a03d 6a3e 1d3e 772e 373d
000000d0: 6b39 0bbd dcfc 3f3d 7cfd 54bd b06d 623c
000000e0: 1718 58bd 48f7 c33d 9f82 9e3c c0c9 983d
000000f0: 66e7 113d 52a7 6abc 3ba6 bf3c 598c 063e
00000100: c91a da3c 8e76 21be 2ee7 29bd 10eb 87bd
00000110: 4d8c 8c3c 0960 c7bd d890 c5bd 0b8a 16be
00000120: d5e7 443d 4f0e b13c 8090 2f3c 85f2 d63d
00000130: 985b 1f3c be0a 6abd 4b9c 553d 3758 433d
00000140: f7b3 7ebd d0f2 243e 9969 553d 6501 ab3d
00000150: 026b 6ebd 28f5 493d 0c96 9c3a b7c8 d5bd
00000160: ec5f 7fbd d746 6c3d af50 fb3d bdc9 05be
00000170: da5a bbb9 ade5 633d 4ba6 b03d 4217 5ebd
00000180: ee26 bd3d 9553 183e 4ccf 3d3e afe0 163c
00000190: 3a40 993a 26aa d33c 2ccd dabd 61aa 1bbc
000001a0: 00d9 173b 20ce 3dbc 4c52 333c 0d55 373d
000001b0: d49c 833d b993 85bd cdb4 97bc ce40 cfbd
000001c0: c4c5 1d3e 5f80 5f3d d537 453d 17b4 463a
000001d0: b9d3 97bb e119 dcbd 31ab 10bd fa7b e43d
000001e0: 8f8c 333d e24b 4bbd 1e2d df3d 62a2 14be
000001f0: 7802 833d 67a2 21be 789c 8ebd 7ada d33c
00000200: 8f56 053e 42ea 5bbd adbe 293e 87d2 adbd
00000210: a326 803d 650b 3bbd f250 253c e563 a1bd
00000220: e0ec 00bd e6f6 593d 5a9a f63d 7380 063e
00000230: ef7a c3bd 79d0 863d 7343 fbbc aed3 013e
00000240: 7a8d b4bc 7276 6d3c 09b4 bebc 1c80 413d
00000250: cba6 aabd aa16 1f3d 42e4 753d 6859 753d
00000260: af13 1dbe 8c5e 3fbd 5f6b d63d 3c6f f2bc
00000270: 81ce 93bd b44d 94bd 36d6 ff3d 6e4d 6c3c
00000280: 3490 b03d 0c63 a5bd d007 713c 0930 0dbc
00000290: 8edc 08bc 457e 083e 8e00 9bbd 53c4 e3bd
000002a0: 7f16 093e e66c 133e e0f8 833d 090b 8bbd
000002b0: e1b8 60bd 11c8 c3bc 192a 8bbc 08b3 b83b
000002c0: a0e5 193d d1de 62bd 0b31 31bd 00d3 babd
000002d0: 2d40 803c 0477 dabd e94d c4bd 2b52 3f3c
000002e0: 45e5 c3bd a7ba 1bbd 1da3 553d ebaa abbd
000002f0: 7390 223c 2169 dfbc 5e68 de3d 1123 9abd
00000300: 284d 9b3c fd9b 84bd 1e81 62bd 515b aabb
00000310: 26c8 6bbd f7e0 033c dc28 d3bc 7497 9ebd
00000320: 07c0 5a3d f98b 82bc 3e39 17be fb21 8abd
00000330: 6a2d 09bd a599 123e eb4f 423c c37c 663d
00000340: f81d cd3d 9015 01bc 46ba 993b dd09 953c
00000350: d9ad 883d 963b ce3d 4dd8 f3bc 1336 103e
00000360: 7a50 c3bd 8d98 04be c807 0b3d 5dd0 513d
00000370: c230 483d 8d57 18bd 4009 6a3d 2bd0 9abc
00000380: 9b56 833c 4d22 f9bc 0b53 c73d fa26 20bd
00000390: 66b3 a63d 556a 87ba 1c4a 873c 2f0e cabc
000003a0: ce68 01be 1496 12be 9767 55be a15b ac3d
000003b0: 2be4 1e3b b49c c83c 0ea9 1f3d 3909 4cbd
000003c0: 6c0f 863d 6225 22be 0bcc a13d 4fc0 793d
000003d0: c86e 11bc 98fb 52bd a8e0 4fbd ab94 c23d
000003e0: 729a 1cbe e037 d6bd 7602 e63a babd 393d
000003f0: 0e6f 7bbd f3e2 a7bd 795a 2abe 9516 a03d
0.007721793 -0.1689218 0.0006920394 -0.008346265 0.06920943 -0.05206197 -0.06368041 0.06655587
0.062126093 0.111203805 0.036894884 -0.050414816 -0.10093563 0.13603157 -0.062734894 0.054317974
0.13889073 0.001960427 0.18334574 -0.04009192 0.025413293 -0.0976551 0.015378405 -0.13881801
0.00040571787 0.11480599 -0.16602314 0.018463198 0.027635403 0.039951555 -0.021977035 -0.016332995
0.01916876 0.10996248 0.06534556 -0.027970925 0.049170054 -0.21882552 -0.0731311 -0.0911543
0.11310724 0.074269585 0.08986986 0.024768947 0.0033995935 0.034931496 -0.093664125 0.1109408
0.00012450428 0.07848786 0.1535584 0.044722047 -0.033990305 0.046872005 -0.051999554 0.013820097
-0.05275735 0.095686495 0.019349394 0.07460356 0.03562107 -0.014322119 0.023394695 0.13139476
0.0266241 -0.15767881 -0.041480236 -0.066366315 0.017156744 -0.09735114 -0.096467674 -0.14701097
0.048072655 0.021613268 0.010715604 0.10495476 0.0097264275 -0.05713915 0.052151006 0.04769155
-0.062183347 0.1610825 0.05210266 0.08349875 -0.05820752 0.049306065 0.0011946573 -0.10438674
-0.062347338 0.057684746 0.122712485 -0.13065238 -0.0003573511 0.055638958 0.08625468 -0.0542214
0.09235941 0.14875634 0.18536109 0.009208842 0.0011692115 0.025837969 -0.10683665 -0.009501071
0.0023170114 -0.011584789 0.010944914 0.044758845 0.06426397 -0.065223165 -0.01851883 -0.101197824
0.15407473 0.054565784 0.04814895 0.0007579936 -0.0046333936 -0.107471235 -0.03531951 0.11156459
0.04383522 -0.049632914 0.10897277 -0.14515069 0.06396955 -0.15784608 -0.06963438 0.025861014
0.130213 -0.053690203 0.16576643 -0.084874205 0.06257369 -0.045665164 0.0100901 -0.078803815
-0.0314759 0.053213976 0.12041159 0.13134937 -0.09544932 0.06582732 -0.03067181 0.12678406
-0.022040118 0.014493572 -0.023279207 0.047241315 -0.083325945 0.038839974 0.060032137 0.059899718
-0.1533954 -0.046721026 0.10469698 -0.029594056 -0.07217122 -0.07241383 0.12492029 0.014422758
0.086212546 -0.08075532 0.014711335 -0.0086174095 -0.008353366 0.13329418 -0.07568465 -0.1112143
0.13387488 0.1439701 0.064439535 -0.06789214 -0.054863814 -0.02389911 -0.016987847 0.0056365766
0.037572503 -0.055388276 -0.04325966 -0.09122276 0.015655601 -0.10667232 -0.09585173 0.011677305
-0.09565214 -0.038019802 0.05215751 -0.083822094 0.009922135 -0.027271809 0.1085975 -0.0752622
0.01895769 -0.06475065 -0.055298917 -0.005198874 -0.057563923 0.008049241 -0.02577632 -0.07743731
0.053405788 -0.015935885 -0.1476793 -0.067447625 -0.033490576 0.14316423 0.011859874 0.056271326
0.10015482 -0.007878676 0.004691395 0.01819318 0.06673784 0.10069959 -0.029766226 0.14083128
-0.09536834 -0.12948819 0.033942968 0.0512241 0.048874624 -0.03719287 0.057137728 -0.01889809
0.016032508 -0.030411864 0.09732636 -0.03909967 0.08139686 -0.0010331372 0.01651483 -0.024664966
-0.12637636 -0.14315063 -0.20840298 0.08415914 0.0024244885 0.024488784 0.038979582 -0.049813483
0.0654591 -0.15834573 0.07900246 0.060974415 -0.00887651 -0.05150947 -0.05075136 0.095010124
-0.15293291 -0.10459876 0.0017548341 0.045346953 -0.061385207 -0.08197584 -0.16636075 0.07816807

weight_hh_l0_reverse f4 [256, 64]
00000000: 7ace a8bd c521 7e3d 8277 d23c a864 f4bd
00000010: 7d26 c73d 92c9 ce3d 70de 7dbd f1a6 bf3c
00000020: 2c48 c03d 4eb0 023e 75d4 1b3e b272 583d
00000030: 707c 063e 659f cf3c 8215 90bd 3c63 543d
00000040: c5d0 813d 20f4 bd3d ef29 403d c0f8 30bb
00000050: e26f d3bd ee09 623d cabc c2bc 3b55 88bd
00000060: 40a3 aebd 020e 19bd 6471 c83c 1dc0 a33d
00000070: 8c14 333d befa 033d 0938 4b3d 3b73 55bd
00000080: 7dc9 c13b 8b54 84bd 9482 a73c 5d05 9a3d
00000090: 1fd0 22be 88dd 083d 8d15 b1bc 620a 593d
000000a0: fc5c e53d 5081 03bd d7b0 14bd e902 4fbd
000000b0: efa1 383d 96cf c73d cc1c 81bd ab2e d2bc
000000c0: 6504 2b3d ce87 9b3d 80de 743d 0bcf 63bd
000000d0: 462f 08be cd73 0fbe ae02 e63c dc7d 903d
000000e0: d214 993b cb36 8dbd 044c 78bd 668f 7bbd
000000f0: c869 bfbc c441 18bd c099 8abd 00a7 9d3c
00000100: 175f cb3c a92a 1a3c 172c 61bc 1b4f ad3d
00000110: b83d a3bd 6ac8 9e3d 02f0 70bd 1554 993d
00000120: 033c 5c3b 655e 2c3d 80e1 22bd 1ecb 923d
00000130: 5bc8 30bd 5df3 8f3d f505 b5bd 325e 833d
00000140: 0394 60bd d1fa a53d dbf7 e83d f498 593d
00000150: 820a 543c e498 c33d 623f 5dbd 6898 933c
00000160: fdf4 2bbe 3599 5c3c 9af3 44bc 65db 2ebc
00000170: 5f9a 0d3d 2ed4 a9bd bb22 52bd 8e5f f23c
00000180: f7fb 083e 2b1d 1e3b a051 043d b4f0 cfbd
00000190: 5bc8 adbd b44b 27bd ca31 0fbd ec71 6e3d
000001a0: e202 ce3d 352d 97bd 86a2 8b3d 70b1 42bd
000001b0: d765 003e 8f90 593d aeb7 5b3d 1827 d6bd
000001c0: e5c7 bbbd 1ee1 14be 45f2 8dbc 6c5f b4bb
000001d0: c71a dd3c 3366 ba3d a7c0 abbd c5ef d33d
000001e0: c82f 4bbc e2da 7d3c 5664 a2bd 7a13 cdbd
000001f0: 154c e63d 113b ef3d c32c 0c3e 6026 c53b
00000200: d54f 983d fa97 2bbd 9afa febd 4b55 5c3c
00000210: fa05 38be 19de e6ba 5f51 1bbd 593c 533c
00000220: 1c86 dc3c a87c 033e 9677 03be be11 adbc
00000230: 54e9 3b3c 457c f93c fc84 8dbc 2513 6fbd
00000240: 8d82 d5bb 2e23 923d 5cc5 f9bd 7516 81bc
00000250: 64f1 85bd 5948 cb3d 085f 00bd fe91 adbd
00000260: 4008 103e 778b 3cbd 8893 3c3c d36a 143d
00000270: 7787 32bd 4e85 bbbd 4c6e aabd 07f3 593d
00000280: 3aed 103e 34d3 a4bd eaea 253e 2a64 66bd
00000290: 0453 36be 41d6 b23d d1b1 d6bd a27e d6bd
000002a0: 7a7a 73bd 191d d23d 0b33 e43c 2115 c43d
000002b0: 40d3 233e db13 d7bb 9565 69be c688 febd
000002c0: bae2 27be 740b af3d d608 0d3e d282 b13d
000002d0: 6c04 0f3d 5e3f d1bd 2d0f 653d 09db a93c
000002e0: acc2 b83d 0225 76bd bd10 b2bd 82c7 9d3c
000002f0: cd2a 563d c7e3 843d 81f2 c53d 0a2e b6bd
00000300: 0b99 a23d bbb9 3c3d 06f0 28be 0a3d e5bc
00000310: 41fe 4cbc 3063 2fbd 0aad da3d e277 0ebd
00000320: 4df8 41be 27d6 a4bc 0912 fabd 3f73 efbd
00000330: a35a 8bbd 0a5f febd 0b02 b23d 1c10 1b3e
00000340: af52 193d 9a40 e53d e20f d8bd 1140 753d
00000350: 6c66 3b3d 3c32 91bd 94ac 443d 0565 013e
00000360: 225e 4bbc 953e 2f3d 0b6e af3c 000f 07bd
00000370: 190f 873d 4453 f23d 9c06 05bd dc11 cf3d
00000380: 6d02 a1bb caaf dcbd 42f5 eb3d 7758 6cbc
00000390: 568f b33d 8a5f 3d3e 3b08 9fbd c5ab f9bd
000003a0: 10fc e0bc ae51 9db9 4eaa 91bc a67d 09be
000003b0: 2e33 34bd 9c42 1dbe f93d df3d 1e3f 63bd
000003c0: 9450 09bd b498 88bd 2762 2e3e f9c2 223e
000003d0: 8414 923d b5e8 ea3d 5fb6 55be 841c b9bd
000003e0: ef8d 06be 96d7 f63d 2023 e2bd 6e8c e03d
000003f0: c839 09be 4594 083d d327 9fbd f4e9 713c
-0.08242507 0.062043924 0.025691751 -0.11933261 0.09724138 0.1009704 -0.06197971 0.023395034
0.09388766 0.12762567 0.15217765 0.052843757 0.13133407 0.02534456 -0.07035352 0.05185245
0.06338648 0.09275079 0.04691499 -0.0027003735 -0.10324074 0.05518525 -0.023771662 -0.066568814
-0.08527231 -0.037366875 0.024468131 0.07995627 0.043720767 0.03222155 0.049613986 -0.052111845
0.005913912 -0.06461438 0.020448007 0.07520554 -0.15899704 0.033414394 -0.021616722 0.052988417
0.11199376 -0.032105744 -0.03630146 -0.050539885 0.045076307 0.09756391 -0.06304321 -0.025657019
0.041752238 0.07594262 0.059782505 -0.055617373 -0.13299283 -0.14009018 0.02807745 0.07055256
0.0046716714 -0.068952166 -0.06061937 -0.061416052 -0.02336587 -0.037172094 -0.06767607 0.01924467
0.024825616 0.009409585 -0.013743422 0.08462354 -0.07970756 0.0775307 -0.05882264 0.074867405
0.0033605106 0.04208221 -0.039765835 0.07167648 -0.043159824 0.0702884 -0.08839027 0.06414451
-0.054828655 0.0810448 0.113754 0.053124383 0.012941958 0.09550646 -0.054015525 0.018017009
-0.16792674 0.013464262 -0.01202097 -0.010672425 0.034571048 -0.08292423 -0.051302653 0.02958658
0.13377367 0.0024126272 0.032304406 -0.10153332 -0.084854804 -0.04084368 -0.034959592 0.058214113
0.100591436 -0.073816694 0.06818108 -0.0475325 0.12538849 0.053116377 0.053641967 -0.10456675
-0.09168986 -0.14539 -0.017327437 -0.0055045392 0.026990307 0.09101524 -0.08386355 0.10348467
-0.012401529 0.01549408 -0.07929294 -0.100134805 0.1124498 0.11681188 0.1368895 0.0060165375
0.07437102 -0.041892983 -0.12450142 0.01344807 -0.1797103 -0.0017613798 -0.0379194 0.012892806
0.026919417 0.12840521 -0.12838587 -0.021126624 0.011469204 0.030454764 -0.017275326 -0.058367867
-0.006515807 0.07135616 -0.121958464 -0.015757779 -0.06540182 0.099259086 -0.03134063 -0.084751114
0.14065647 -0.04603144 0.011509784 0.036234688 -0.04358622 -0.09156285 -0.08321819 0.053210285
0.14152995 -0.08048096 0.16202894 -0.056247868 -0.17805105 0.08732272 -0.104831345 -0.10473372
-0.059442975 0.10259456 0.02785637 0.095743425 0.15998554 -0.0065636463 -0.22792657 -0.12428431
-0.16395083 0.085471064 0.13772902 0.0866753 0.034916326 -0.102171645 0.055922676 0.020734327
0.09021506 -0.060093887 -0.08694599 0.019260172 0.05228691 0.064887576 0.096653946 -0.088955
0.07939347 0.046075564 -0.16497812 -0.027983207 -0.012511791 -0.042819202 0.10677536 -0.034782298
-0.18942375 -0.020121647 -0.12210471 -0.11691903 -0.06804397 -0.12420471 0.08691796 0.15142864
0.03743237 0.111939624 -0.105499044 0.05987555 0.045751974 -0.070896596 0.048016146 0.12636192
-0.01241258 0.042784292 0.021414777 -0.03297329 0.065946765 0.11832288 -0.032477006 0.10110828
-0.0049136193 -0.107757166 0.115213886 -0.014425389 0.087675735 0.18493477 -0.07765242 -0.121909656
-0.027463943 -0.0003000623 -0.017781403 -0.13426837 -0.04399412 -0.1535744 0.10900492 -0.055480115
-0.03352411 -0.06669751 0.1702963 0.15894689 0.07132819 0.114701666 -0.2087035 -0.09038642
-0.13140081 0.120528385 -0.11041856 0.10964285 -0.13400948 0.033344526 -0.07771268 0.014765251

bias_ih_l0_reverse f4 [256]
00000000: 3eec a93d 34fb 1fbc a0ce 39bd 1d97 8b3c
00000010: bd28 e8bd de19 c73d 5898 51bd c0c8 ce3c
00000020: be53 05bd 6cfc d9bc 84f2 e23d 6138 013d
00000030: 83dc 093d d329 67bd f70a e7bd fb1e 563c
00000040: 4029 663d 9c71 9bbd 630b 2c3d f5c6 0cbd
00000050: 9d51 143e 1197 7abd 75fe b43d ce95 343c
00000060: 39aa c6bd 6d15 033e 8df0 d73d fc07 1dbc
00000070: 5fc0 52bc 2a9f 97bc b9b6 b53c 559b 563b
00000080: f2f9 b73d af08 4abd 2826 b5bd aec6 b2bd
00000090: 72ba fcbd c1fe 29bc 9ef8 e73d 17c3 9fbb
000000a0: 5bb1 b73d c271 203c e414 913c 7c97 b63d
000000b0: fcef 7e3d 2b9b 213d 2306 b03c f24f 99bd
000000c0: 12d5 90bd 5df6 1cbe cdd7 3e3d 352a 92ba
000000d0: 1956 493c 5aea 8f3d 9f30 d03d b165 39bc
000000e0: 2287 9cbd 7a58 ee3c 1f9e 293d 6693 bebb
000000f0: 1365 d13d b458 713d 7314 53bd ab0a 0fbd
00000100: 8abe 293e 4441 fb3c dc27 ff3d a8bb 0c3b
00000110: 7421 5a3d 348f ae3d c59a ecbc 5825 f6bc
00000120: c7df ba3d ea14 0dbd ea85 dfbd 232c 1a3e
00000130: 254d 8b3d 78a4 963d 79d5 d23c 8661 0e3d
00000140: c123 be3d 5c89 25bd 43ee 323e 65c9 a03c
00000150: 573d 323d 5cd5 023e 9b3b d43d 4aca dcbc
00000160: ddaf 153e f0f4 a73d 4e12 31bd 0d2c 863b
00000170: 432b 683d 3ae6 ea3c 7b89 bf3d 4162 36bd
00000180: 98ea 01bd 4452 89bd cbff 9a3d 8a8d cd3c
00000190: 7e47 6ebd 3b09 d73d 29ac 733c ea34 a63b
000001a0: e5cd cd3c 564a d53d 9012 023e e443 efbc
000001b0: 7799 073e 9de4 f1bc 5759 283e 7e89 a93d
000001c0: 3759 5d3c fd86 193e aa87 3e3d 105e 8f3c
000001d0: ce94 f43d ddb4 e63d 0016 a43c 482b 4fbc
000001e0: bfb8 bebd 2162 563d 1fd3 76bd 8a71 a5bd
000001f0: a094 df3d 0d86 1ebc 539e d73c 2aca b43d
00000200: 6a9a 00be 3489 533c 1cf2 bd3d 738e 5d3d
00000210: 74a3 803c 49c7 e5bd 41c8 473b 4c98 123d
00000220: 8f73 cb3d 94d6 73bd cf51 c73d fe6d cc3c
00000230: 95cd a03d 5dca f4bd 9cd5 61bc cbb3 a2bd
00000240: 2011 513d 6739 01be 6b90 cd3d 5e82 193d
00000250: eb9e 4a3d cad7 eb3c 8e2b bcbd 3765 b73d
00000260: d48a 183b 9415 74bd e743 76bc f7db 2bbc
00000270: 81a6 103d 247d 00be f16b 63bd 6b97 acbd
00000280: 6fb9 98ba 4f40 81bd dc4a a43d 6204 113d
00000290: 01f4 b03d d3b0 febd 2075 ba3d 47ac 823d
000002a0: d101 803d fc9f 95bc 1066 473c 03c6 7fbd
000002b0: ded4 b3bd ece3 d3bc ab0e 92bd df9e a73d
000002c0: 4709 613d 162e ddbc e117 f83d 593b d4bd
000002d0: bb7a f03d 1080 fe3d 3bb7 e4ba afbc 723d
000002e0: 3062 e03c 2981 8dbc f986 aa3d 1015 003e
000002f0: 8f81 e1bc 163f 76bb 57a7 653d ec6a 8b3d
00000300: 4862 e7bc 9502 3dbd 9677 823d cc38 933d
00000310: 7348 10bb 54e4 54bc 4419 e5bd 1e01 d1bd
00000320: 3757 103e 57e7 c33d a52a 143d 0650 d03d
00000330: 8b59 e9bd a22d 113e 1a75 093d 64aa 213d
00000340: 7569 43bd 817e 193e 5f61 babc 9a7c ec3d
00000350: edc1 f43d 3a3b e6bb 2253 5a3c 4344 2bbd
00000360: d465 6b3d 9698 f2bc ce25 2abd 69c7 803d
00000370: e284 df3c 8c9d 1d3d dfdf 6cbd 8000 fd3b
00000380: be61 003e 8162 8f3d cede c43c 1841 983d
00000390: b6a2 653d a5a6 693d 550c ad3d 53d0 5c3d
000003a0: 8328 be3d c13d d13c 34ed dcbc 7069 fc3d
000003b0: 278c 25bd 6885 173d a527 f7bc 894f 073d
000003c0: afb1 343d 00c0 a2bd 25b9 1f3e 4595 0d3e
000003d0: 3f30 6a3d 1a57 aabd ad45 f2bb 0404 dabd
000003e0: 41ec 033e 4407 08bd fa73 5a3d 7938 dfbc
000003f0: 1195 893b 9d45 603e 78a0 11bd fe97 96bd
0.08297013 -0.009764481 -0.04536307 0.01703983 -0.11335895 0.09721731 -0.051170677 0.02524221
-0.032550566 -0.026609622 0.110814124 0.031547908 0.033657562 -0.05643637 -0.11281388 0.01306891
0.056191683 -0.07590029 0.042003047 -0.034369428 0.14484258 -0.061179224 0.08837596 0.011022044
-0.09700436 0.12801142 0.10543928 -0.009584423 -0.012863248 -0.018508513 0.022181856 0.0032746394
0.0898322 -0.049324688 -0.08845168 -0.087293014 -0.12340249 -0.0103756795 0.11326717 -0.0048755514
0.08969375 0.009792747 0.017710157 0.08915612 0.062240586 0.03945462 0.021487301 -0.074859515
-0.0707189 -0.15328355 0.046592522 -0.0011151495 0.012288594 0.07027121 0.10165524 -0.011315749
-0.07642962 0.029094923 0.04141056 -0.005815911 0.102243565 0.058922485 -0.051533174 -0.034922283
0.16576591 0.03067077 0.124587744 0.0021474157 0.05325456 0.085234076 -0.028882394 -0.030047104
0.091247134 -0.034443773 -0.10914214 0.150559 0.068018235 0.07355589 0.025736557 0.034760974
0.09284163 -0.0404142 0.17473702 0.019627282 0.04351553 0.12776703 0.10362931 -0.026951928
0.14617868 0.08201015 -0.043230347 0.0040946067 0.056681883 0.028674234 0.09352394 -0.044527296
-0.031717867 -0.06705144 0.0756832 0.025091905 -0.05817365 0.104998074 0.014872589 0.005072226
0.025122592 0.10414569 0.12702394 -0.029207177 0.13242136 -0.029527957 0.1644033 0.08278178
0.01351004 0.149929 0.046516098 0.017500907 0.11942445 0.11264966 0.020030022 -0.012644596
-0.09312581 0.052339677 -0.060259935 -0.080782965 0.1091702 -0.009675515 0.026320612 0.08827622
-0.12558904 0.01291113 0.09274694 0.05409093 0.01570294 -0.11219651 0.003048435 0.035789773
0.099341504 -0.05953081 0.097324006 0.024954792 0.07851712 -0.1195266 -0.013783839 -0.07944449
0.051041722 -0.12619554 0.10037311 0.037477843 0.049467962 0.02878942 -0.09187995 0.08954852
0.0023276107 -0.05959089 -0.015030838 -0.010489455 0.03531504 -0.12547737 -0.055522863 -0.08427318
-0.0011651943 -0.06311094 0.08022091 0.03540457 0.0864029 -0.1243607 0.09104371 0.063805155
0.062503465 -0.018264763 0.01217033 -0.062444698 -0.087808356 -0.025865518 -0.07131704 0.08184599
0.05494049 -0.026999515 0.121139295 -0.10362882 0.11742159 0.1242677 -0.0017449626 0.059261974
0.02739057 -0.017273502 0.08326525 0.12508035 -0.027527599 -0.0037574223 0.05606779 0.06807503
-0.028245106 -0.04614504 0.063704655 0.071885675 -0.002201584 -0.012993891 -0.1118646 -0.10205291
0.1409577 0.09565609 0.03617348 0.10171513 -0.11394032 0.14177564 0.033558942 0.039469138
-0.047707994 0.14989664 -0.022751508 0.11547203 0.11951051 -0.0070261033 0.0133254845 -0.041813146
0.057470158 -0.029613774 -0.04153996 0.062880345 0.027285043 0.038480327 -0.057830688 0.007721007
0.12537286 0.0700121 0.024032023 0.07434291 0.056063376 0.05704369 0.08449618 0.05390961
0.09285071 0.025542142 -0.026968576 0.12324798 -0.040416863 0.03699246 -0.030170271 0.033034835
0.044114765 -0.07946777 0.15597971 0.13826473 0.057174917 -0.083173946 -0.00739356 -0.10645297
0.12883092 -0.033210054 0.05333326 -0.027248608 0.0041986783 0.21901555 -0.035553426 -0.07353209
