model/lstm_1.model (torch, 669851 bytes, 17 tensors)

weight_ih_l0 f4 [256, 64]
00000000: 8674 8abd b319 933c f888 9bbd e865 12be
00000010: 08ec b4bd ca38 df3c 7c5f 943c 1a43 7dbb
00000020: da75 5c3d e9b2 103d 825f b2bd 8c05 a43c
00000030: b3d8 98bd 0138 d53d 7156 e5bb c2e1 893d
00000040: 62a9 71bc 12cc 8b3b 529d 8b3c 2ef2 cf3d
00000050: d2e0 c0bd c7d0 403d 9cac e33d 7e00 b8bd
00000060: 478a f93c a850 c4bc 3b3c 183c 8465 9fbb
00000070: 82d0 f33d b053 b8bd 0682 d2bd 5d9a b93d
00000080: 3106 b8bd d82d bc3d 410f 7abd 81ab cf3d
00000090: 4d3c 303d f739 84bd da6e 453d 07c1 5abd
000000a0: 75a5 02bd 0fbd adbd 70a7 6d3d 89f3 e63d
000000b0: 0fe1 71bb d840 a43d e5a6 6cbd c0e5 cc3d
000000c0: 983f 163d 0409 f3bc 3a62 e4bd b122 32bb
000000d0: e755 00bc 45b1 c13d 284b ab3b a885 b1bd
000000e0: d574 cebd ab04 e8bd 3f6c 4b3d 0ebf ca3d
000000f0: 3ed5 f8bd c4ad 553d 4d73 a6bd 98d7 9e3c
00000100: dd63 80bc 9323 243d 3ea1 c9bd d80e ea3c
00000110: 2b70 40bd d26a 9c3d 61af 333d a710 e2bd
00000120: ad8d 8dbd a5ac a83d d6fd 0ebc 552b cf3d
00000130: 5847 3c3d c5b6 f23d 6939 ba3d a335 b53d
00000140: 966d 3cbc 9871 d3bd 2da7 cdbd f6a2 bfbc
00000150: 5f72 c73d 3b1b d1bd 6e60 e63c bb3b aebd
00000160: 9cc4 f83c 1739 e63d af31 b53d b815 89bc
00000170: 089c 913d c16a a23d aa84 ca3d 7bab 49bc
00000180: bca2 d33d a4f2 a03d 5da6 aebd 7459 ffbc
00000190: 3f3f 2f3d 747c f0bd 872f 77bc c09a 8a3d
000001a0: 65b8 ba3b 4fc9 ac3b 5d99 4a3d 7faf cb3d
000001b0: 2f8f 5e3d a646 cf3d 0f3f 923d ba4d 613d
000001c0: 267c 12bd f081 a3bb 4292 0d3d 5b75 943d
000001d0: 8210 fdba 1a5b ea3c 29f1 1abd 4b7f 6fbd
000001e0: 575e dabd 73af 783d f9fd 9c3c b9ad e0bd
000001f0: 1937 aabb 7494 633d f8b0 9a3a b3a2 ff3d
00000200: 880f 673d fcf4 ea3d 22dd bfbd a6d7 b2bd
00000210: 7d6d 583d caac 0abc 8e23 233d e85c b3bd
00000220: 65a2 bdbd 3d5f f9bb d840 a3bd 10a2 993d
00000230: d405 f63d 272c 22bd d7df 83bd e794 bf3c
00000240: 5505 833b 9fb5 eabc 7197 b5bc ebe2 05be
00000250: 97fc ccba a81b 883d bc06 27bd 9600 ea3d
00000260: 1a57 ec3a dbed fa3c a4cf 28bd c968 a93d
00000270: 406b 1e3d 8a45 bb3d 1e79 59bd 8f09 ccbc
00000280: d2be 6b3d be8f e1bd 3ce4 e0bd 658e e03d
00000290: e806 56bc 3ec2 a3bd 46bd d9bc e1c6 23bd
000002a0: 8bf6 ddbd 3e9a 3bbd d43a 163d 99c3 e23d
000002b0: d491 13bc d002 ddbd 37be 563d 8516 2a3b
000002c0: c565 b03d 5eab 94bd 89b6 8ebc f259 053d
000002d0: 2b6a 863d 742e 2d3d 61b6 323d 8844 bc3c
000002e0: 9a70 78bd 62c2 b33d fe13 df3d 8891 cfbc
000002f0: e5f5 bbbd 4adf e33d 3a4a 7cbb 0276 4f3d
00000300: 7869 f83d 59e2 933d a7fc 8abd 2f2a e5ba
00000310: 85be efbc 7299 07bd 9090 b23d ca0c d1bd
00000320: b230 233d e9d9 2bbd 2847 eb3d 79a5 8b3d
00000330: b102 593d 4fdb 0f3c 1c00 2cbc e493 d73d
00000340: 663c fabc 4fa0 ebbd 04a1 39bd 447a babd
00000350: 583f 45bd 6cbd c43d 630b 883d 4820 003d
00000360: 5a4d 53bd 91f5 d63b 737c a23d 57b2 35bc
00000370: 731e 04be 62f4 aabd faf6 9fbd e9d9 e93c
00000380: 3bbe 143d fe95 76bd fac9 d8bd dcd3 f0bc
00000390: 8c87 a23b b957 9a3d f329 ebbd bb07 cbbd
000003a0: d4fd d63d 546a 243d 4e53 80bd 26dc cdbd
000003b0: b011 15be a609 bb3d 11d8 cbbd ce7a dd3d
000003c0: 6574 243d bf5d 79bd e608 78bd 99a6 debc
000003d0: ab4d 813b ddf4 283d 960b 90bd 3db5 b13d
000003e0: 26a2 9d3d a738 79bd f1cf bfbc a614 b33d
000003f0: 3b8a 21bd 3065 523d 4895 c53d 65cd b23d
-0.06760506 0.01795659 -0.07594484 -0.14296687 -0.08834082 0.027248759 0.018111937 -0.0038644732
0.05382333 0.035326872 -0.08709623 0.020022176 -0.07463207 0.104110725 -0.00699883 0.06732513
-0.014749857 0.0042662704 0.01704279 0.10153614 -0.09417881 0.047074106 0.11116907 -0.08984469
0.030461444 -0.023964241 0.009291704 -0.0048643965 0.11905004 -0.09000337 -0.10278706 0.090626456
-0.08985556 0.091884315 -0.061049704 0.10140134 0.043026257 -0.064563684 0.04820142 -0.05340674
-0.031896073 -0.08483326 0.05802101 0.112769194 -0.0036907827 0.080201805 -0.05777635 0.10004759
0.03668174 -0.029667385 -0.11151548 -0.0027181322 -0.007832981 0.094576396 0.005227465 -0.08668071
-0.10080878 -0.11329015 0.04966378 0.09899722 -0.12150048 0.05216767 -0.08127461 0.019389912
-0.015672619 0.04007299 -0.09845208 0.028571531 -0.04698197 0.07637562 0.043868426 -0.110383324
-0.06911788 0.08236054 -0.008727511 0.10115687 0.045966476 0.11851267 0.09092981 0.08848121
-0.011500737 -0.10324401 -0.10041652 -0.023393136 0.097386114 -0.10210272 0.028122153 -0.085074864
0.030367188 0.11241358 0.08847367 -0.01673399 0.07109839 0.07930518 0.09888585 -0.012308951
0.103337735 0.0785878 -0.08527825 -0.031170584 0.042784926 -0.117424875 -0.015087015 0.067677975
0.005698251 0.0052730213 0.049462665 0.099455826 0.05433577 0.10120897 0.07140934 0.055005766
-0.03576293 -0.004989855 0.03456331 0.07248946 -0.0019307288 0.028607894 -0.037827644 -0.058471005
-0.10662525 0.060714196 0.019164072 -0.10970635 -0.0051945564 0.055561498 0.0011802008 0.12482204
0.056411296 0.11472508 -0.093683496 -0.08732538 0.05283879 -0.008464048 0.03982883 -0.08757955
-0.0925949 -0.0076102302 -0.07971352 0.07501614 0.120128304 -0.03959289 -0.064391784 0.023386432
0.0039984384 -0.028651057 -0.02216694 -0.13074844 -0.0015639242 0.066459 -0.040777907 0.11425893
0.0018031329 0.030630996 -0.041213647 0.08271939 0.0386765 0.09144123 -0.053094022 -0.024906902
0.057555027 -0.11013745 -0.10981032 0.109646596 -0.01306317 -0.07996033 -0.02657951 -0.039984588
-0.1083804 -0.045801394 0.036677197 0.110724635 -0.009006936 -0.10791552 0.052427497 0.0025953364
0.08613161 -0.07259248 -0.017421024 0.03255648 0.06563219 0.04228063 0.04363096 0.022981897
-0.06065426 0.0877731 0.10892485 -0.02533795 -0.0917776 0.111265734 -0.003849639 0.05064965
0.121294916 0.07220907 -0.06786471 -0.0017483885 -0.029265651 -0.03310532 0.08718979 -0.102075174
0.03984136 -0.041955862 0.11488181 0.06818671 0.052981082 0.008780315 -0.010498073 0.10526255
-0.030546378 -0.11505186 -0.045319572 -0.091053516 -0.048156112 0.09606442 0.06642797 0.031280786
-0.05158744 0.0065600355 0.07933893 -0.011089883 -0.1290224 -0.083473936 -0.07810779 0.02854629
0.03631423 -0.060201637 -0.10585399 -0.029397897 0.004960006 0.07536263 -0.114826106 -0.09913584
0.104976326 0.040140465 -0.06265889 -0.100517556 -0.14557528 0.091327 -0.09953321 0.10814439
0.040150065 -0.06088042 -0.06055536 -0.02717905 0.0039460263 0.041249145 -0.0703346 0.086771466
0.07696943 -0.060845044 -0.023414584 0.08744173 -0.039438467 0.05136603 0.09647614 0.08730582

weight_hh_l0 f4 [256, 64]
00000000: a30b d1bd cc5e dd3d 57e5 cebc 262d 023e
00000010: 9f88 59bd ff50 f13d c2c2 4a3d 74f1 0b3d
00000020: 457a e33d 554e cb3c 48cf fcbd e38d 43bd
00000030: 323e afbb d54b b1bc 642c 9d3d 8179 3dbd
00000040: 6c5d 0b3d a469 17bd 6416 a23d 2c1c 753c
00000050: edad 7e3d bebe 633d 04e2 bd3d fc17 9bbd
00000060: bfc9 ee3c 5d58 9e3d c8a7 a13c c12d f2bc
00000070: 819d 1b3d 11da 97bd 04a6 dbbd be37 d2bd
00000080: 7564 e23d 97f9 773c 3f29 ba3c cf68 93bd
00000090: eca0 b33d 8ad1 003e 78cc 113d 1c9b 14bd
000000a0: 652e 133d f84c 293c 9183 b43d 38e8 d33d
000000b0: 18e4 9abd 80cb eb3c 6d20 dabb 506c febd
000000c0: f257 96bc 0b02 ef3c c697 4c3d 536d 953b
000000d0: 08b2 95bd 8c6a 843c 935d e53d 409d 13bd
000000e0: 0f3e b3bd 73d3 9f3d 6c55 f4bd f674 95bc
000000f0: 840c efbd f12f 723d c934 22bb ee1a 513c
00000100: 0170 103d 1ce7 f2bd f7cc 6bbd 17a3 8bbc
00000110: e215 7a3d 3594 093d 6e1f 5f3b d31c 0ebe
00000120: 42ef c0bd c11c 423d 6750 e5bd c220 b33d
00000130: fd59 99bd 6cd5 823c 05e4 9dbd 6ebd 04be
00000140: 9390 f8bc b9a0 9fbd dadc da3d be9a b6bd
00000150: 74dc a3bd 6e74 013c ad75 06be 8ad9 8bbd
00000160: ba2b c03d 62dc a53d 9700 2c3d e55d 953c
00000170: 337d 183d 200b 4f3a 9076 8b3d d946 edbd
00000180: 91f7 ca3c 1032 92bd d932 26bd b34e 63bc
00000190: 343b 19bb c43c eb3c 281e e43d e464 c8bc
000001a0: 8ce4 02be 83f5 933d 52b9 1bbd d5dc 713d
000001b0: 53b5 333b 3469 75bc 1bfa ceba 664f c13d
000001c0: 55ac 113e e2a8 993c c420 d0bd 3031 e3bd
000001d0: 9a5d 883d 0c15 b03d 5c23 19bc a7fe af3d
000001e0: 3abb 343d 812b cdbc 080e 43bc edb1 bbbd
000001f0: b4df 463d 9183 9f3d c18b c43d e6ce 43bd
00000200: 5c24 803d 4894 e53d bf12 b93d e712 f33d
00000210: 3478 cc3d b400 47bc 4621 bcbd 35e5 69bb
00000220: 62b4 83bd cd64 10bd b832 c7bd 933a 1a3d
00000230: 2719 953d 3721 9a3b 0ace 333c f7c2 5d3c
00000240: 198a d4bd 78ec 923c 194b 1dbd 1312 803d
00000250: 149e c3bc 0a1d 78bd 75de fbbd c5d8 f5bd
00000260: 8a8c 1a3d 3823 71bd 52cf 32bd dbc0 f6bd
00000270: 4213 a1bd 7678 f43d 6393 b53c 38a8 813c
00000280: e73e 31bd ee40 0d3d 24ab a63c 8bf7 36bd
00000290: a319 ea3d 678b cb3d b7bb 793b 9794 b7bd
000002a0: a69d a93d ae84 20bd f063 d1bb dbc7 793d
000002b0: 5fec 24bd 9c23 23bc 59bc 573d ff29 c23d
000002c0: cf01 c03d a03e 4f3c 2910 853d 172b 043e
000002d0: a4b9 87bd f1eb f43d 7fb7 d23d 9732 d53d
000002e0: 928b 83bd f864 7ebd 0228 c93d 3637 4f3c
000002f0: 2dd0 b0bd 1935 a93d 0061 2d3d efff d9bd
00000300: 066d 78bd f78d bd3d 15a4 023d 4e88 2dbd
00000310: 8da8 96bd a569 d6bd 9356 923d 9f60 f4bd
00000320: 6a54 b5bc 0a50 293d 0554 6e3b 4b53 98bd
00000330: 5e1d d23b 5488 5a3d 20fe d6bd c20b 69bd
00000340: 6799 e1bd 3ee3 d93d 5024 4ebd feb8 5bbc
00000350: 23b2 c0bd e670 1b3c 627e d1bd d2d9 4e3d
00000360: 1665 b53c 67e1 ac3d 5024 353a 0473 abbd
00000370: 6b55 26bd e4c4 8a3d 1245 abbb 37f3 993d
00000380: 4cb7 273d 8ab6 923c 481c a9bd 00ca da3c
00000390: bee9 dcbd aae9 db3d bd5e 4dbd 3da6 9b3d
000003a0: fb40 433d 66b7 083e 7c47 99bd 2861 813d
000003b0: 463c d83d bc1a de3d 7b78 adbd 0743 343d
000003c0: 6fd3 a33d 387a 05be 3caf dd3d 4446 aebd
000003d0: fa1c 743d eb29 bc3c 23b7 413d 279a b63c
000003e0: 8d9d 99bd 68ef 88bd febc d13d 04e0 e2bd
000003f0: aaf3 51bd ca7a dc3d b57c 3c3c 45e7 ae3d
-0.10207298 0.10809097 -0.025255842 0.12712535 -0.053108808 0.11783027 0.04950214 0.034165815
0.111073054 0.024817625 -0.12344223 -0.047742736 -0.0053479904 -0.021642605 0.076744825 -0.046258453
0.03402464 -0.03696598 0.07914427 0.01496033 0.062177587 0.055601828 0.09271625 -0.07572934
0.029148934 0.07731698 0.019733325 -0.029562833 0.037992004 -0.0741464 -0.10725024 -0.10264538
0.11054317 0.01513519 0.022724746 -0.07197725 0.08770928 0.12579933 0.035595387 -0.036280736
0.035932917 0.010333292 0.08814157 0.103470266 -0.07563037 0.02878356 -0.0066566975 -0.12423003
-0.018352482 0.029175779 0.04994943 0.0045601516 -0.073093474 0.016164087 0.111994885 -0.036038637
-0.08752071 0.078040026 -0.119303554 -0.018244248 -0.11672309 0.05912775 -0.00247507 0.012762768
0.035263065 -0.11860487 -0.057568517 -0.01704554 0.061056025 0.033588607 0.0034045833 -0.13878183
-0.09420635 0.047390703 -0.11196976 0.087464824 -0.07487867 0.015970908 -0.07709507 -0.12962887
-0.030342376 -0.07794327 0.10686655 -0.089162335 -0.080010325 0.007901294 -0.13130827 -0.06828602
0.0938334 0.08098675 0.04199275 0.018233249 0.037228774 0.0007898081 0.068097234 -0.11585779
0.024776252 -0.07138455 -0.040575836 -0.013873744 -0.0023381235 0.028715499 0.11138564 -0.02446217
-0.12782496 0.07224562 -0.038018532 0.059048492 0.002742131 -0.014978696 -0.001579109 0.09438972
0.14225896 0.018757287 -0.101624995 -0.11093366 0.06658478 0.085977644 -0.009346809 0.08593493
0.044123866 -0.025045158 -0.011905201 -0.09164796 0.048553184 0.07788766 0.095969684 -0.047804736
0.06256935 0.11209923 0.09036779 0.1186884 0.099838644 -0.012146164 -0.09186034 -0.0035689597
-0.0643089 -0.03525238 -0.09726471 0.037653517 0.07280188 0.0047036665 0.0109744165 0.013535253
-0.103779025 0.017935023 -0.038401697 0.062534474 -0.023879088 -0.06057457 -0.1229829 -0.12004236
0.037731685 -0.058871478 -0.043654747 -0.12048503 -0.07865001 0.119370386 0.022165006 0.015827283
-0.04327288 0.03448575 0.020345278 -0.04466967 0.11430671 0.09938698 0.0038106272 -0.08963888
0.08282022 -0.039189033 -0.0063900873 0.060981613 -0.040264484 -0.00995722 0.052669857 0.09480666
0.09375345 0.012649208 0.06497223 0.12907062 -0.06627205 0.11959065 0.10288905 0.1041004
-0.06423105 -0.06210801 0.09822084 0.012647441 -0.086334564 0.08262081 0.042328835 -0.106445186
-0.060650848 0.09255593 0.031894762 -0.04236632 -0.07356367 -0.10469369 0.07145419 -0.119324915
-0.022134978 0.041336097 0.0036365998 -0.07437762 0.0064121922 0.05335267 -0.10497689 -0.05689598
-0.11015587 0.10639046 -0.0503276 -0.013410805 -0.09408977 0.009487366 -0.10229184 0.0505007
0.022142928 0.084414296 0.0006910013 -0.08371547 -0.040608805 0.06775835 -0.0052267397 0.07517093
0.04094629 0.017909307 -0.08257347 0.02670765 -0.1078677 0.10737927 -0.050139178 0.07600067
0.047669392 0.13351211 -0.07484338 0.06317359 0.10558371 0.10844943 -0.084702455 0.044009235
0.07999312 -0.13034904 0.10824439 -0.08509496 0.059597947 0.022969207 0.047293793 0.022290302
-0.075007536 -0.06686288 0.102411255 -0.11077884 -0.051257767 0.10765608 0.011504342 0.08540205

bias_ih_l0 f4 [256]
00000000: a04d 013e 020e ddbc 75b5 d33d d709 e9bc
00000010: 90dd b4bc c0c5 623d ac8c ff3d 0863 033e
00000020: a781 1dbc 272b 6e3d c49d 8a3d 6175 5ebb
00000030: 5246 b2bd e35a 123e 4f79 42bd 1d7a d3bc
00000040: 60ec 0c3e d353 d83d 0d47 1cbc 8ea5 313d
00000050: 4490 b03d 55bc 9e3d 1eec aebd 3852 16bd
00000060: 381f ff3d 4d10 3dbd 2113 8d3d 5827 983d
00000070: 3a8a 1f3d 228e ee3c 2972 b13c b1d2 e83d
00000080: 41e9 83bd 41fc edbd e75d 31bd 2b44 b5bd
00000090: 58e2 2c3d 9903 a2bd 3aaa c7bd 7989 8b3d
000000a0: 5508 13bd f7f1 dd3d 3f54 ef3d 7250 983b
000000b0: c40a 0bbd dc73 573c bf56 b9bd a77a 93bd
000000c0: f8a3 c9bc 6cf5 863d 990e d43d 96f2 f6ba
000000d0: 1127 973d 6db2 60bd 65e9 bebc 5de0 8dbd
000000e0: c502 93bd 2b7d 823d 8b8b 533d e3e3 fe3d
000000f0: d327 da3d 6bc2 253d 7280 523d 9173 8a3c
00000100: af50 96bc 66f2 55bd 7097 f43d 73fb b4bd
00000110: 024d 253c 7ac6 3bbd fe15 7d3c 624d 47bd
00000120: 9421 0b3e be98 ea3d 1c7d c03d 1014 babd
00000130: b4c1 a2bd 439f babd 21e0 90bd 78f3 d33d
00000140: a01f d6bb 13b9 eebd 8317 893d 6f4e ee3c
00000150: 8a4f 3e3d 0008 a6bc d5f5 9cbd bfd6 4dbd
00000160: 7840 1e3d cde3 d13d cf5f 6a3d 65b6 f2bd
00000170: bce8 743c 7b25 c43d 2d88 24bd 3ed8 b2bd
00000180: 3ebf 83bc dfb1 f63d 723a 963c d644 8e3c
00000190: 77bb 8fbd 1346 9a3d 8c27 a13d 483c ab3d
000001a0: 69af 953d 5685 74bd 6b5d 8abd 9a28 083e
000001b0: fac5 b3bd 275e a2bd 34cf cebd b6e6 943d
000001c0: 4ec2 11bc 5146 c4bb 95db 89bd 2eda b83c
000001d0: 0f04 04be 1240 a93d f2d5 d13d 6af9 f13d
000001e0: 7eaa babd 576f ba3d 8901 f53d 65fc 803d
000001f0: 6f60 b8bc c332 b1bd b049 d2bd ecee 4fbd
00000200: 011a 02be 518c 503c 8f0b eabd 3e55 353d
00000210: 40df 533c e472 d3bd e4ca c13d 109c 90bb
00000220: fccd d13d 8790 813d 1e09 1dbc 17da edbc
00000230: 120b 00bc db90 103b e6b8 ec3d 185c c4bb
00000240: ccab bdbd 63d1 093e c272 c13d 2b3d cabd
00000250: 80cb ecbd 7644 96bc 16e3 cebd d506 b3bd
00000260: 6c4d f7bd f1b3 dbbb 8c61 a2bd a6c9 cebd
00000270: 480e 43bd 0724 e2bc 72dc 5c3d db96 6fbd
00000280: 2405 3bbd 0671 303d 3cb2 fb3d 5bf0 b23c
00000290: 06ef fa3d 48aa 5d3c fb60 1cbe ad7f 84bd
000002a0: d34c ec3d daea 813d e1ae b83d f2e1 003d
000002b0: 895c 993d 51b2 25bd 7ac6 323c a15e 0d3d
000002c0: 78ec 943a 3f9a e9bb 2963 1b3d 1fc7 40bd
000002d0: e676 7f3d 1cff 993d c492 d83d f541 4fbd
000002e0: 22aa f83d ad7c b0bd 6853 b83d 0467 a2bd
000002f0: c6b4 e0bb 15f3 c03b 61b1 11bc 2214 a93d
00000300: 2fed 20bd 706e e03c ebd4 453d 8815 b6bd
00000310: f1e1 81bd 9525 ecbc af72 d33d d2ce ccbd
00000320: 25cb bbbd 1631 a43d abe0 28bd 4929 86bd
00000330: fbed bdbd afb5 4a3d f3eb b8bb b3c8 1ebd
00000340: a538 04bd 2903 51bd 1b44 7bbd 4bd6 63bd
00000350: 1cb2 a7bb 1bed d03d 80f7 003e bcd8 453d
00000360: 14e9 bcbd fa9b 033e d46f ad3c c343 c43d
00000370: ae1e 383d 0f2c e23d f3b0 a03b 27e9 a5bc
00000380: b5ce c03d 4db4 863d 6b96 e3bc 86e8 b5bd
00000390: 5001 bdbd 6f00 83bd b6a9 ccbd 5a8e 103c
000003a0: 587d ee3d 421e 3abd 570c 783d 315b ab3d
000003b0: a8f0 0e3e e1e4 45bd 9f1d a5bc 3b14 2e3c
000003c0: e67a 0e3e 5bfd 1f3d 90a9 a7bd a163 8bbd
000003d0: 85f4 90bd 9cc9 933d ff94 83bd 304d 67bd
000003e0: d6af eb3c 054d 69bd 0de1 053e c92a 96bd
000003f0: 3276 fe3c bd4c 8b3c 68aa 92bc f7e0 babd
0.12627268 -0.026984219 0.103373446 -0.028447075 -0.022078305 0.05536437 0.12478003 0.12830746
-0.009613431 0.058146622 0.06768373 -0.0033944475 -0.08704819 0.14292483 -0.04747897 -0.025815064
0.13762045 0.10562863 -0.009538424 0.043370776 0.086212665 0.07750765 -0.085411295 -0.036699504
0.124571264 -0.046158124 0.06888414 0.07429379 0.038950182 0.029120509 0.021660881 0.11368311
-0.06440974 -0.11620379 -0.043302443 -0.08850893 0.042208046 -0.079108424 -0.09749265 0.0681333
-0.035896618 0.10837167 0.116859905 0.0046482617 -0.033945814 0.013150182 -0.09049749 -0.072011285
-0.02461432 0.06589779 0.10354347 -0.0018840607 0.07380498 -0.05485766 -0.02330465 -0.069275595
-0.071782626 0.0637153 0.05164675 0.1244581 0.10652127 0.040468615 0.051392026 0.01690081
-0.01834902 -0.052233122 0.11942947 -0.08837023 0.010089161 -0.04584358 0.015447138 -0.048657782
0.13587028 0.114549145 0.09398863 -0.09085858 -0.07947102 -0.09112408 -0.07073999 0.10349172
-0.0065345317 -0.11656394 0.06693938 0.029090134 0.046462573 -0.020267487 -0.07664076 -0.050253626
0.0386357 0.10248528 0.057220276 -0.11851195 0.014948066 0.09577461 -0.04016893 -0.08732651
-0.016082402 0.12045645 0.018338416 0.017366808 -0.07018178 0.07532897 0.07868871 0.08361107
0.073088475 -0.05969747 -0.06756099 0.13296738 -0.087779954 -0.079281144 -0.100981146 0.07270567
-0.0088964235 -0.0059898277 -0.06731335 0.022564974 -0.12892173 0.082641736 0.10245885 0.1181515
-0.0911455 0.09103268 0.119631834 0.062981404 -0.02250692 -0.0865226 -0.10267961 -0.050764963
-0.12705232 0.012728767 -0.11427986 0.044270746 0.012931645 -0.10324648 0.094625264 -0.0044131353
0.102443665 0.063263945 -0.009584693 -0.029034657 -0.007815139 0.0022058997 0.11558704 -0.0059924237
-0.09261283 0.13458781 0.094457164 -0.09874948 -0.11562252 -0.018343192 -0.10101907 -0.087415375
-0.12075314 -0.0067048003 -0.07928762 -0.10097055 -0.04762104 -0.02760507 0.05392117 -0.058493476
-0.0456592 0.043076538 0.12289855 0.021843126 0.12252621 0.013529368 -0.1527137 -0.06469665
0.115380906 0.063436225 0.090177305 0.03146548 0.07488353 -0.04045326 0.010911578 0.034514073
0.0011361977 -0.0071289833 0.037936363 -0.047064897 0.06236925 0.075193614 0.10574868 -0.05060001
0.12141825 -0.0861753 0.090002835 -0.07929805 -0.0068574874 0.0058883526 -0.008892388 0.08255793
-0.039288696 0.02739641 0.048298758 -0.088908255 -0.06341923 -0.028826514 0.103246085 -0.10000385
-0.09169606 0.08017175 -0.041229885 -0.06550843 -0.09273907 0.049489673 -0.0056433617 -0.03876562
-0.032280583 -0.051028404 -0.061344247 -0.055624288 -0.005117668 0.10201474 0.12594414 0.048302397
-0.092241436 0.12852469 0.021171488 0.09583237 0.044951133 0.1104356 0.0049039065 -0.020252777
0.09414426 0.065773584 -0.027781686 -0.08882241 -0.09228766 -0.06396567 -0.09993307 0.008823002
0.11645001 -0.045439012 0.060558643 0.08367003 0.1395899 -0.04831398 -0.020155726 0.0106249405
0.1391407 0.039059978 -0.08186638 -0.06806112 -0.070778884 0.07216188 -0.06424903 -0.056470096
0.028770369 -0.056958217 0.13074131 -0.07332379 0.03106222 0.017004365 -0.017903522 -0.0912494

bias_hh_l0 f4 [256]
00000000: 7913 96bd 7525 efbd 187c 623d 1012 e53d
00000010: b458 dcbb 305e 13bc 8cb7 803d 5a90 a23c
00000020: ea05 52bd bf43 c43a 6785 d4bd cda6 76bd
00000030: 1270 f53d 9346 cf3c 799e 67bd 115e cd3d
00000040: 63ab 943c 6339 843d a3e7 4bba c4a1 4cbc
00000050: 6dbc 4fbd 51a5 61bd be7e d73d fd46 713d
00000060: 64a6 0a3e 4abc 05bd e7af cfbd c53a 37bd
00000070: 68c8 04bc abaf e6bd cbc6 1c3d d9d1 d13d
00000080: f520 3b3d 7c2b a6bd 5d27 e53d bb0b a13d
00000090: ea18 22bd e10e 8bbd 94f3 68bd 4c0c f83d
000000a0: 4b3a 22bc 2cde 0bbd a5ff eb3d 51a9 4bbc
000000b0: d7e4 a33d a831 383d 5b00 ae3d 2d8f ed3b
000000c0: 689d dc37 bc7c d03d 7d47 8e3d 6d84 f93d
000000d0: 2308 03bc c636 923d 39ba 4e3d 29e3 eabd
000000e0: 6cad 883d 59fe ec3d 0eac 6bbd d4b1 47bb
000000f0: ae5d c73a a6a0 e1bc 7eba 3e3d ec73 4d3d
00000100: 6f6e 9ebd e547 1e3c 4208 c9bd 07b7 aabd
00000110: a4f6 4abd 40c9 a6bd 94d0 75bd 71c4 cbbd
00000120: 29fa 2cbd 835f 94bd 1c6c f03c 23ec 58bc
00000130: 9bdf bb3c 077e 2ebd 4580 86bd 94d2 be3d
00000140: 7b1c 243d 85dc adbd 014a a13d b73f 35bd
00000150: 706d 0e3e 3983 e8bd 5f54 7f3d d859 c7bd
00000160: e9ed da3c 9e4d 033e 71bb 35bd 51cf ab3d
00000170: 625d 04bd fdb9 84bd 7dfb 15bd 50db a8bd
00000180: 1027 913d 3681 733d 917a cb3d cf12 723d
00000190: bc47 913c b151 9cbd 2613 b33c 28b4 abbd
000001a0: fd8b a83c fb7d 2d3c 31a4 153e 1660 373d
000001b0: 361f de3d 18a8 7ebd cf98 2f3d 6360 5b3d
000001c0: e32f a83d 92f8 6abd 6963 db3d 6daf 0bbc
000001d0: 0f94 9ebd 6f08 b93d 1f99 1f3c 4171 0ebd
000001e0: 9b15 1f3d 6eb2 f4bc 4b73 0c3d ff2d 6f3d
000001f0: 67f8 c43d 8f9e abbd 934b dc3d 3c33 3abd
00000200: fc93 a23d d5bc fd3d 2da0 babd 565c 7cbd
00000210: 0b80 c13d 2eb7 b0bd 079e 05bd c364 033d
00000220: e506 b0bc 3fc5 d8bb c215 333d 420b bf3d
00000230: 5c40 eabc e6e0 b83c 0afb 96bd 60c7 a0bd
00000240: 1532 01be 15ba 023d 98b9 ecbd 7796 87bd
00000250: 5110 97bc 4f08 873c 57c6 17be 2c10 a0bb
00000260: d86c 83bd 42f0 90bd acdd 763c 3183 503d
00000270: 86a7 b5bc c62c d93c a381 0dbc 1af8 ffbc
00000280: 0923 0fbc 4a42 973c 61bb e73d cd5a cebd
00000290: d511 703d e528 74bd 376c 9bbd 34df 7dbd
000002a0: f841 afbd 949d d93b 8d75 6b3c ea25 113e
000002b0: 590c eebc 2ad1 84bd 5a0b 843c b3bf e93d
000002c0: 22ec 8cbd 83cb db3d 321c 3f3d 85ac 8fbd
000002d0: bdf3 3cbd 5289 463c 9876 513b 9391 a1bd
000002e0: 3627 e8bb 102f f53c 2d06 113d efd0 bbbc
000002f0: 4394 c2bb f3e4 89bd d2bf 47bb 488b 74bc
00000300: 4d4b fd3d f913 ba3d d6a5 2f3d 2f32 013e
00000310: 2003 bc3d 6e91 fd3d 9df8 9a3d 2581 d9bd
00000320: 904d a9bd a0f5 9e3d e1a9 63bb 9dbe 0d3e
00000330: e5c7 c1bd ec0f 903c 0c52 a43d 1c4b a83d
00000340: 9f18 2dbd f10e babd 032e e93c 982a 8ebd
00000350: 419f 9e3d 0b86 41bd 7a19 6ebd efa6 e73d
00000360: 2980 f7bc 00f8 24bd d6aa a1bd a22b 6f3d
00000370: 46de 073d 9303 c73d 2e6e dc3d 6cd6 bcbd
00000380: 19b7 e03d f601 c0bc e67b 66bd a762 293d
00000390: 17b5 b43c dbdf abbd 3703 1c3d f6ca b6bd
000003a0: 4b85 953d d620 fabc 302c b23d 20f0 2b3d
000003b0: 3137 89bb 3b24 f83d d097 91bd 1ec1 60b9
000003c0: a349 99bd a214 8b39 0ab3 ce3d 6b5e 0fbd
000003d0: d034 303d e289 0f3d dc77 51bd 81c9 27bd
000003e0: 5a4c a23d 87aa 393c 9cd4 4d3d 6f92 a1bc
000003f0: 27a4 3fbb 8656 bb3d 1b31 053e afe8 eb3d
-0.07327933 -0.11677066 0.055294126 0.11185086 -0.0067244414 -0.008994624 0.06285009 0.019844223
-0.05127517 0.0014973803 -0.10377007 -0.060217667 0.11984266 0.025302207 -0.056547616 0.10027707
0.01814813 0.06456258 -0.0007778352 -0.01248974 -0.050716806 -0.0550893 0.10522221 0.05890559
0.13540035 -0.03265027 -0.101409726 -0.04473378 -0.008104421 -0.11263975 0.03827552 0.102451034
0.045685727 -0.08113763 0.111891486 0.078635655 -0.03957454 -0.06789947 -0.05687292 0.121117204
-0.009901593 -0.034147426 0.1152337 -0.012430505 0.08002632 0.04496923 0.084961616 0.007249734
2.6299342e-05 0.10180041 0.06947229 0.12183461 -0.007997545 0.071393535 0.050470565 -0.114691086
0.066737026 0.115719505 -0.05753713 -0.0030470984 0.0015210414 -0.027542423 0.04656457 0.05015938
-0.07735907 0.009660696 -0.09816028 -0.08335691 -0.04955162 -0.08143854 -0.06001337 -0.099495776
-0.04223076 -0.0724478 0.029348426 -0.013239893 0.022933772 -0.042600658 -0.06567434 0.09317508
0.040066224 -0.084893264 0.07875443 -0.044250216 0.13908935 -0.11353154 0.062336322 -0.09733933
0.026724773 0.12822577 -0.04436821 0.08389152 -0.03231562 -0.06480787 -0.03661679 -0.082449555
0.07087529 0.059449397 0.09935487 0.05909997 0.0177344 -0.07632769 0.021859717 -0.083839715
0.020574564 0.010589118 0.14613415 0.04476937 0.10845797 -0.062172025 0.04287034 0.05355872
0.08212259 -0.05736596 0.1071232 -0.0085257115 -0.07743084 0.09034812 0.009741097 -0.034775976
0.038838964 -0.029870238 0.03428964 0.058393475 0.096176915 -0.08379852 0.10756602 -0.045459017
0.07938382 0.123895325 -0.09112582 -0.061611496 0.094482504 -0.08628689 -0.03262141 0.032078516
-0.021487663 -0.0066153104 0.04372192 0.09328319 -0.028595142 0.022568177 -0.07372101 -0.07850528
-0.12616761 0.031915743 -0.11558837 -0.06620496 -0.018440397 0.016483454 -0.14821754 -0.0048847403
-0.06417245 -0.070770755 0.015067499 0.050906364 -0.022174608 0.026510607 -0.008636865 -0.031246234
-0.00873638 0.018464226 0.113150366 -0.100759126 0.058610756 -0.059609313 -0.07589 -0.06198044
-0.085575044 0.006641099 0.014371288 0.1417462 -0.029058622 -0.064852074 0.016118694 0.11413517
-0.06880976 0.10732176 0.04665775 -0.07015327 -0.046130884 0.012117701 0.0031961557 -0.07889094
-0.0070847524 0.029929668 0.03540628 -0.022926776 -0.0059380843 -0.06733122 -0.0030479324 -0.014925785
0.12367878 0.09085841 0.042882763 0.126168 0.091802835 0.12381254 0.075669505 -0.106203355
-0.08266747 0.07761693 -0.0034738707 0.13842244 -0.09461955 0.017585717 0.08023462 0.08217451
-0.04225981 -0.09084881 0.028464323 -0.06941718 0.07745219 -0.047246974 -0.058129765 0.11311137
-0.030212479 -0.040275574 -0.078939125 0.05839122 0.03317096 0.097174786 0.107632026 -0.09220585
0.10972423 -0.023438435 -0.056270503 0.041353848 0.022059007 -0.083923064 0.038089003 -0.089254305
0.07300814 -0.030533236 0.08699834 0.041977048 -0.0041874875 0.121162854 -0.07109034 -0.00021434246
-0.07484748 0.0002652752 0.10092743 -0.035002153 0.043019116 0.035043605 -0.051139697 -0.040963653
0.07924719 0.011332161 0.05025159 -0.019723145 -0.002924213 0.091473624 0.13007013 0.1151899

weight_ih_l0_reverse f4 [256, 64]
00000000: 5ee5 e8bc b5d3 02be 9943 1a3c f1ff 653d
00000010: abe6 723d 670a 93bd 60cd 643b f90b b83c
00000020: 4b24 ae3c c5df b13d 156d 9c3c f0fb b1bd
00000030: 9376 53bd 8825 6b3d cc2f 68bd 11fd 463d
00000040: ae37 fc3d bfb1 133b c5c8 f83d dc72 c53c
00000050: af02 aa3b a0c8 debd 66fe 173d a80c f8bd
00000060: 02d5 27bd c935 d03d 9509 cdbd af54 833d
00000070: 825a 823d 8a33 f43c 9a7e 2cbd 1948 383d
00000080: 6174 6ebc 5b86 f53d efe4 153d c16c debb
00000090: e040 cd3d c618 09be 9355 9dbd 051a a0bd
000000a0: bd4d c33d 97a4 9c3d f71a 9b3d dda8 c83b
000000b0: 51ba 3d3c f834 7f3c bb85 e2bd 4180 993d
000000c0: a23b e9bc c67c 8c3d 5360 4b3d 4bed 8c3d
000000d0: 57f0 3dbd f5df af3c 6135 c1bc af60 a73c
000000e0: 9b24 64bd 08b7 e03d 0269 873b 5a43 963d
000000f0: cc2c 6cbd 8dde 4dbd 3234 3e3c 6dd7 c53d
00000100: f6b8 693d 5380 f8bd bea9 8ebc 99b7 8cbd
00000110: 9a37 3d3d 1aeb 94bd 8783 b1bd ee4f afbd
00000120: 4ba5 0a3d 0899 293c 3a41 c1bc 0530 e03d
00000130: ceeb 3f3b a8a5 a7bd 00d6 a63d d679 573b
00000140: fa03 15bd c214 f93d ca86 203d e16a 013e
00000150: e4f2 4cbd e88f 6c3d 3c5e 423c 734a d6bd
00000160: c178 bbbd 5af2 5c3d c818 d73d 80ad bebd
00000170: 921d 263c e5b9 623c 0a77 7e3d f6ae 7abd
00000180: 5ddc be3d 3ef8 b43d 7d34 f13d c885 503d
00000190: 2954 e0bc 1be3 e13d 3d58 cabd 82fe 83bd
000001a0: d76a 0dbc 553b 5cbc d258 4a3b 4489 3d3d
000001b0: ff96 da3d 0242 b1bd cad6 8cbd 5e65 adbd
000001c0: ca71 f23d 04f8 6a3d bb45 6a3d ddec 943a
000001d0: 538e b5bb 5c63 96bd deb9 083d 3c0e d23d
000001e0: cb4f 563d d5e8 ddbd fe64 053e a085 e3bd
000001f0: 57b7 873d 4a30 e4bd e59b c7bd 80aa 2f3d
00000200: b8aa c03d 5fd3 bd3c 685f f33d a3cf c1bd
00000210: f955 a33d 9c9e 85bd 0176 df3a 87fa 22bd
00000220: f851 3dbd a100 d13c d129 013e fc8b f73d
00000230: e71b d0bc d737 863c d248 87bd a50c f43d
00000240: 80ae 7b3d ee2c 29bd e426 03bd d7c3 533d
00000250: 3c0b 98bd 73e4 5e3d 434d 5a3d 6952 8c3d
00000260: bd24 d2bd c3ff 31bd 7cd4 863d 624a 0a3d
00000270: bd86 a5bc 7f1d 86bd f0dd a83d 930d 2d3d
00000280: b890 bb3d 1d4a 59bd d2b1 813c 3688 243d
00000290: d9fa ff3a 13b1 fb3d eae8 7bbc f8e3 e3bd
000002a0: e99d b83d 2c8c fb3d 51e0 2a3d cb0e b2bd
000002b0: 33a4 b3bd 44ac e23c 194d 90bc ab4b 043b
000002c0: 9292 013d 2cd4 1ebd 249e 8d3c 6319 45bd
000002d0: 2b16 183c 6236 d4bd 48c9 e1bc e6e3 7d3c
000002e0: 3ece 9dbd aa60 89bd 70ec a73d 1f91 c0bd
000002f0: fb82 5d3c 4818 7fbc 8abc bd3d 3f4c 9ebd
00000300: 5bd6 1b3d b094 1abc d766 63bd c780 763c
00000310: 3b6c 3abd 868f 83bc 84ec 63bd f7b2 60bd
00000320: 800c e53c 8af9 51bd 7a48 f7bd 65de 8bbd
00000330: 5aae d2ba 0e09 173e cbf6 923c c707 b13d
00000340: 156e b43d 85cf 233c d8dc a9bc 0a51 4d3d
00000350: e8b6 a53d a1c1 0f3e 8627 26bc fb9a d03d
00000360: c597 95bd 3ff8 d9bd 2e43 183d 3f3b 333d
00000370: f48b e53d 79a7 7ebd cd7c e13d 9f21 913c
00000380: 3a82 d83c bba4 78bd 4917 a73d 9304 7bbd
00000390: 0b6f 7b3d 24f1 f3ba 1421 30bd 6a7d 15bd
000003a0: 2031 a1bd e73f d0bd ed9f 9bbd e693 ad3d
000003b0: 8e74 83ba 99f7 41ba 8f6f 8c3c f925 adbd
000003c0: 77fa d13d b2d0 b6bd 7a30 413d 79f5 f13c
000003d0: 10ae 5d3c 0ebf 74bc 0943 7b3c d9c5 873d
000003e0: 2a31 d9bd c2ce e1bd a5c5 853c acff ba3d
000003f0: 7ee8 45bd 807b aabd 6cc6 c3bd 337a 5f3d
-0.028429683 -0.12776072 0.009415531 0.056152288 0.059302013 -0.071797185 0.0034912452 0.022466647
0.02125754 0.08685259 0.019094983 -0.086906314 -0.051626753 0.05740884 -0.056686208 0.048581187
0.123153076 0.0022536365 0.12147669 0.02410262 0.005188308 -0.1087811 0.037107848 -0.12111789
-0.040974624 0.10166509 -0.10011593 0.064126365 0.06364919 0.029809732 -0.042112924 0.044990633
-0.014554114 0.11988517 0.03659528 -0.006787867 0.100221395 -0.13388357 -0.076823376 -0.07817463
0.09536312 0.076485805 0.075735025 0.0061236457 0.011580066 0.015576594 -0.11060663 0.074951656
-0.028470818 0.06859736 0.04965241 0.068811975 -0.046371784 0.021469096 -0.023585023 0.020431845
-0.055698972 0.109724104 0.004132391 0.07337065 -0.05765991 -0.05026107 0.011609124 0.0966023
0.057061158 -0.12133851 -0.017414924 -0.06870956 0.046195604 -0.072714046 -0.08667665 -0.08560167
0.033849042 0.010351427 -0.023590673 0.10946659 0.0029284838 -0.08185893 0.08146286 0.0032879016
-0.036380745 0.12162162 0.039191045 0.12638427 -0.050036326 0.057754427 0.011863288 -0.10463419
-0.09153891 0.053942062 0.105027735 -0.09310436 0.010138886 0.013838266 0.062125243 -0.061202012
0.09319375 0.08836411 0.117775895 0.050908834 -0.02738388 0.11029645 -0.09880111 -0.06445028
-0.00863143 -0.01344188 0.0030875695 0.046273485 0.106733315 -0.08655168 -0.06876905 -0.084666
0.1183811 0.057365432 0.057195406 0.0011362095 -0.005540648 -0.0734317 0.03338038 0.10256621
0.05232219 -0.10835425 0.13026807 -0.11109471 0.06626766 -0.11142023 -0.097465314 0.04288721
0.09407562 0.023172079 0.11883432 -0.09463432 0.07975382 -0.06524393 0.0017048718 -0.039789703
-0.04622075 0.025512995 0.12613608 0.12087247 -0.02540393 0.016384048 -0.06605686 0.11916474
0.061445713 -0.041302614 -0.03201951 0.05170044 -0.07424018 0.054417085 0.05329634 0.06851656
-0.102609135 -0.043456804 0.06583497 0.033762343 -0.02020585 -0.06548595 0.08245456 0.042249274
0.09158462 -0.053049196 0.015831862 0.040168963 0.0019529714 0.122896336 -0.015375355 -0.11127466
0.09014494 0.12282595 0.04171783 -0.08694228 -0.08771553 0.027670033 -0.017614888 0.0020186703
0.03163392 -0.03877656 0.017287321 -0.048119914 0.009282629 -0.10361935 -0.027561799 0.01549623
-0.07705353 -0.0670789 0.08199394 -0.0940268 0.013519998 -0.015569754 0.092644766 -0.077293865
0.038046222 -0.009434864 -0.055517998 0.015045351 -0.045513373 -0.016059648 -0.05564548 -0.054858174
0.027960062 -0.05126337 -0.12074371 -0.06829528 -0.0016073689 0.14749548 0.017939946 0.086440615
0.08810059 0.009998207 -0.02073519 0.050126113 0.08091527 0.14038707 -0.010141259 0.1018581
-0.07304338 -0.10643052 0.037173443 0.043757673 0.112083346 -0.062171433 0.11010132 0.017716227
0.026429284 -0.060703974 0.08158738 -0.06128366 0.061385196 -0.0018611294 -0.043000296 -0.036496557
-0.07870698 -0.101684384 -0.07598863 0.08475475 -0.0010029243 -0.00073992606 0.017143039 -0.08454508
0.102528505 -0.08926524 0.04716537 0.029535996 0.013530269 -0.014938129 0.015335807 0.06629533
-0.106050804 -0.11025764 0.016329596 0.09130797 -0.048317425 -0.08324337 -0.0955933 0.054559898

weight_hh_l0_reverse f4 [256, 64]
00000000: 982b e4bd f33d bd3d de90 923d 3c83 f6bd
00000010: 290f 0e3d bc7f 8c3d aba9 a1bd 6e77 653d
00000020: ca97 0d3d c6eb a53d a430 e73d 1078 703d
00000030: 8cb4 a23d c545 ef3d 2f9b c7bd 24b8 6abc
00000040: f987 2f3d ee6c 703d 6e0b f13a bed7 3cbb
00000050: 3122 67bd 545b 843d a22e 3a3d d01a 03bd
00000060: 3edb 15bc d6db c1bc 6cc0 8b3c 7deb bf3d
00000070: a81b 9d3d 2733 273d 9c77 bc3d a12f a4bd
00000080: 7228 a5bc b5e9 43bd 1fa5 733d 24f0 ab3d
00000090: 8450 f4bd 8a78 48bd bc73 60bc be49 813d
000000a0: 353f ab3d 584d b0bd 5ef8 abbd fae0 8bbd
000000b0: 2b44 2c3d d902 f43d f692 603b 28c6 813c
000000c0: 79aa c63d 640e e83d 5854 db3c b1ac 7ebd
000000d0: 55ab b7bc 2877 c3bd 8bf4 90bb 195e 073d
000000e0: 1651 333d e4ad 19bd 64e4 2b3c 7835 853d
000000f0: c1cf 3b3c ad07 27bd 1164 d3bd 9bc0 c5ba
00000100: e056 d539 296d f93b eb1d 33bc 8bef 963d
00000110: 844a dabb 340c c93d 2bb3 3abd 9fce 8a3d
00000120: 433c 483d 5c12 3a3d e950 06bd 4347 773d
00000130: 84fd 84bd dbcd b53d c599 ddbd 1948 a03d
00000140: 9f21 b8bd 5903 de3d eae3 af3d 4ac8 353d
00000150: ce21 423d caec e83d 005a dfbc 31e7 10bc
00000160: d527 cebd b113 6cbb 4444 12bb b0b8 84bd
00000170: 30b6 643c ef68 80bc 9687 4dbd 9b70 de3b
00000180: 2b18 ee3d da54 343d 6443 82bc 13dd 7dbd
00000190: 79db 17bd 915a a7bc fe48 fabb 39a3 7c3c
000001a0: 3938 d13d 6802 debd 3318 9a3d 8901 1fbd
000001b0: e07a ee3d 9d57 663d 5287 3d3d ae64 d0bd
000001c0: 466a 92bd 53a7 fabd 9532 c2bc a98f 86bc
000001d0: 5a43 463c 9c77 9b3d 5bee 68bd bcec dd3d
000001e0: ceb4 e0bc 032c 68bc 55e1 81bd 7852 eebc
000001f0: 53b6 ad3d ceb7 a53d d59e d13d 014d ce3c
00000200: 9946 513d 4d40 adbd 27e7 f33c c3dc a93c
00000210: eeac dbbd 2bcc 07bd 7e13 acbd 77dd d63c
00000220: 07c8 ac3c 87ad ba3d 2c79 00be 193c 82bc
00000230: b167 c53d 252e 513c 4196 1cbc 928c 72bd
00000240: ae4e c03c ddc7 423d 3228 36bd 0408 27bd
00000250: 1cd1 8cbd 3baf e63d 6354 0ebd 358a a6bd
00000260: 373b ca3d 34d5 19bc 50dd a03a 07ee febc
00000270: 6fd5 bfbd 193c f2bd b5ad f4bc f47c c33c
00000280: 938d b53d 9ec8 75bd 6749 b63d 92b4 6dbd
00000290: cfe4 ecbd 8b21 ac3d b1ce e3bd eb51 b2bc
000002a0: 602f d1bd 0f28 c33c ba28 043d 49ee c73d
000002b0: dbc6 e93c f288 f1bc 2e45 b1bd 2467 bbbd
000002c0: 153a ccbd 536c dc3d 252c 373d 8ab8 223d
000002d0: 61c9 6d3d 4c60 9cbd 66cc 953c 14bf 933b
000002e0: 1353 bb3d 88cb 6abd 3d2c f7bc f1c7 823c
000002f0: 413c 373d d144 053d ce8d e43d 36e0 e0bd
00000300: 3783 e43d 2a29 343c d2cc 09be 93f8 25bd
00000310: 68f3 053d 6723 ddbd 9beb 933d 4526 423d
00000320: 0526 f4bd 26bd 94bc 8c69 40bd a905 12bd
00000330: 001a babd 85e8 bbbd 5fc9 a2bb 5277 e93d
00000340: f578 923d 1138 dc3d a13e 0bbd a2a2 d83d
00000350: ee29 2f3d 12d0 cb3c 1ca3 993d 2978 0a3e
00000360: 65ff ebbb 3858 1c3d a392 ff3b 802a 72bd
00000370: e3cb ba3d 1fed fc3d 9e0a 703d 3117 053e
00000380: 58ab efbb 69ac c4bd 20e5 f43d f2cb dd3c
00000390: 5100 f33d 3491 f83d f997 9abd 0b28 3cbd
000003a0: 4028 94bd 4531 8a3c 625b c93c 203c debd
000003b0: f6cf 01bd f559 9ebd 7976 c73d f9ad 50bd
000003c0: 017a 58bd 3c5d c5bd a21f c33d 762f f23d
000003d0: 59aa f83d b523 d43d 61a0 c6bc 9232 b0bd
000003e0: df0d c7bd b076 a33d d39d d0bd 57ba 7d3d
000003f0: 39cb dbbd fccf 403d 559c f2bc ebea 413d
-0.11141127 0.092403315 0.071565375 -0.1203675 0.034682427 0.06860301 -0.0789369 0.0560221
0.034568585 0.08101611 0.11288574 0.05870825 0.07944593 0.11683229 -0.09746396 -0.014326129
0.042854283 0.058697633 0.0018390247 -0.0028815116 -0.05642909 0.06462732 0.04545463 -0.032007992
-0.00914651 -0.023664396 0.017059527 0.09371088 0.07671291 0.040820267 0.09202501 -0.08016897
-0.020160887 -0.047830302 0.059483644 0.083954126 -0.1192942 -0.04894308 -0.013699468 0.06312893
0.08361665 -0.08608502 -0.08396982 -0.0683002 0.042057198 0.11914606 0.0034267283 0.015841559
0.09700484 0.1133087 0.026773617 -0.06217641 -0.022420565 -0.095442116 -0.004423683 0.033048723
0.0437785 -0.03751935 0.010491464 0.06504339 0.011463107 -0.040778805 -0.103218205 -0.0015087308
0.00040691253 0.00761189 -0.010932426 0.07369908 -0.006661715 0.09816781 -0.045581024 0.06777691
0.048885595 0.045427665 -0.032792006 0.060370695 -0.06493667 0.088771544 -0.10820345 0.078262515
-0.08990788 0.10840482 0.08588393 0.044380464 0.04739552 0.11373289 -0.027264595 -0.008844183
-0.10066191 -0.003602248 -0.0022318522 -0.06480539 0.0139594525 -0.015675036 -0.050178133 0.006788326
0.116257034 0.044026233 -0.015901275 -0.06197841 -0.03707454 -0.020428928 -0.007638096 0.015419775
0.10215802 -0.10840303 0.07524147 -0.038819823 0.1164453 0.0562359 0.04627163 -0.10175453
-0.07149176 -0.12238946 -0.02370576 -0.016425924 0.012101019 0.07591173 -0.05686794 0.10836169
-0.027429964 -0.014170649 -0.06341807 -0.029092059 0.08482041 0.080916986 0.10235373 0.025183203
0.051092718 -0.0845953 0.029773308 0.02073515 -0.10726343 -0.033153694 -0.08402155 0.02622865
0.021091474 0.09115129 -0.12546223 -0.015897797 0.09638918 0.012767349 -0.009557308 -0.05921609
0.023475017 0.047553886 -0.044471927 -0.04077913 -0.06875822 0.11263891 -0.034748446 -0.0813183
0.098745756 -0.0093892105 0.0012272988 -0.03111936 -0.09366881 -0.11827869 -0.029867986 0.023863293
0.08864894 -0.060005777 0.08900719 -0.058033533 -0.11567079 0.08404835 -0.11123408 -0.021767577
-0.10214114 0.023822812 0.032265402 0.09762246 0.028537204 -0.029484246 -0.08655773 -0.09150532
-0.09972016 0.10762849 0.044719834 0.03972677 0.058053378 -0.07635555 0.018285941 0.0045088623
0.091467045 -0.05732301 -0.030172462 0.01596448 0.044735197 0.03253633 0.111598596 -0.10980265
0.1115784 0.010996142 -0.13457039 -0.040520262 0.032702833 -0.10797768 0.072226726 0.047399778
-0.11921314 -0.0181566 -0.046975657 -0.03564993 -0.0908699 -0.09175209 -0.004967853 0.11399712
0.07151977 0.10752881 -0.033995274 0.10577895 0.042764597 0.02487949 0.07501814 0.135224
-0.0072020763 0.03817007 0.007799463 -0.059122562 0.091209196 0.12349915 0.058603875 0.12997128
-0.007314127 -0.09603197 0.119577646 0.027074788 0.11865295 0.1213707 -0.07548518 -0.045936625
-0.072342396 0.016869197 0.024579708 -0.10851312 -0.031692468 -0.07732002 0.09739394 -0.050947163
-0.052850727 -0.09636924 0.09527518 0.11825459 0.12141866 0.10358373 -0.024246396 -0.086033955
-0.097194426 0.07981622 -0.101863526 0.061945286 -0.10732121 0.04707335 -0.02961556 0.047343176

bias_ih_l0_reverse f4 [256]
00000000: 31bd c63d 2bd1 14bd 6140 a1bd 8946 8d3c
00000010: 9748 92bd 6404 d03d 7248 85bd ca7c ce3c
00000020: 122f 83bd 0338 49bb 4d5a ed3d aa9e 313d
00000030: 5ba0 603d dcb3 5ebd 744c 9cbd a68c 8d3c
00000040: ae0d 7d3c f2e8 adbd 9995 bf3b 8b58 5fbd
00000050: 2841 123e 2c78 36bd 8332 c13d e99c 8ebc
00000060: 8077 bbbd facf 063e 2e16 b23d 71f5 22bd
00000070: 5463 d23b 7404 e7bc 5553 8f3d f662 3ebd
00000080: a24c a93d f628 c8bd 9790 e2bd 19da 8abd
00000090: 7c96 f3bd d0da 0bbd bb19 f03d c232 2e3b
000000a0: fbcb a53d 6f1d acbb 5939 903c 4520 e83d
000000b0: d1e0 ba3d fe30 f53c 3869 06bd 3a05 75bd
000000c0: 3883 9ebd e3ff e0bd 41b2 b43c 5b2f 983c
000000d0: 123e 363c 4595 863d 40c4 053e 638c d2bb
000000e0: 6613 c4bd 606f 323d 1016 ef3c 6b44 a1bc
000000f0: d696 c13d 240f 1f3d 3ddf 0dbd e00a a7bc
00000100: 8b22 d23d e221 153c 3941 af3d 5cb0 b9bc
00000110: 8880 083d 583e 963d c02b 30bc faf9 00bd
00000120: 3d68 14bb 0ca8 69bd 870e dbbd e37c 103e
00000130: 125d a03d 8dc2 1c3c 005c 0d3d 28eb cf3c
00000140: d77e 763d 88dc 98bd 45b7 ef3d 44b1 953b
00000150: 7013 273d c39f ca3d bac0 f23c 358d 21bc
00000160: e757 e23d a882 823d c4f9 36bd 067f 1ebd
00000170: a500 ef3c 5748 933c 208e dc3d b339 d6bd
00000180: 52de 7dbd 9af5 f1bd 6250 903d 3a62 aa3c
00000190: a7f4 79bd 5828 953d 3adc b33c 7b2e 86bc
000001a0: 770e 173c c97a f63d 54ab dd3d 45dc 34bd
000001b0: 9d02 bd3d 95e5 19bd 39ef c33d 48ba 803d
000001c0: 2d61 483c 0786 e33d d357 ea3c 45ba 9dbc
000001d0: 3dab d43d a324 d23d 2587 b9bb 8adf 43bc
000001e0: 672e e7bd 9925 103d ed4c 98bd a6e4 acbd
000001f0: ecf5 bd3d c6a6 16bd 87d8 d93c a7bb d53d
00000200: 27bd ecbd e377 8d3c 7ce1 a63d 5545 573d
00000210: f8c3 313c 6cfa ffbd f7fd cf3a e7a0 4b3d
00000220: be90 be3d 3b37 a4bd b6db cc3d a0b7 9e3c
00000230: 389d 993d efd2 e1bd ab61 72bc 0b97 96bd
00000240: 72f7 a03d ad94 13be af24 e03d 8990 0a3d
00000250: 161d 393d 9a03 153d cba7 ccbd dfa8 b63d
00000260: 9a7d 353c 1a79 7bbd 77b2 17bc 2856 f9bc
00000270: 7916 483d 2f4c fcbd b304 70bd 7d49 c3bd
00000280: 1aa4 83bb 90f8 8fbd 284d bf3d dc20 303d
00000290: 7545 ba3d 3adf c7bd 184e b03d 4f59 893d
000002a0: 6503 613d dd41 82bc 0d50 273c 3459 74bd
000002b0: cad3 bdbd 62e3 d3bc 1d66 77bd e6ba a03d
000002c0: 903d 613d 3cad e8bc 3d4b cc3d e27f c2bd
000002d0: dc7d f63d 2312 d33d 1cf2 9b3b 2160 723d
000002e0: dc78 103d 16da 8cbc d775 ae3d ef92 013e
000002f0: 3582 febc d818 3fbc 9906 733d 753c 8b3d
00000300: 5c06 6cbd 07a7 9ebd ce5d 9c3c 71e3 fa3c
00000310: 1e85 083b e69d e9bc deb5 bfbd 3c9b ebbd
00000320: 7a7c 623d c504 813d d954 e33c f1e7 bd3d
00000330: 72d2 cfbd 71ee c83d 21c5 2e3d 1fd1 083d
00000340: d8d1 c9bd f9b3 f63d 53e1 9fbd f305 df3d
00000350: aa51 e13d e337 70bc 5e02 a2bc 85a8 51bd
00000360: 6191 533d 5288 2fbc 6acb 99bd 71e3 283c
00000370: 1371 79bc 90a3 1a3d e53d 40bd 4355 d0bc
00000380: 7281 063e 151a 183c 800d 763c 91e7 993d
00000390: a2d2 403d df65 423d 42a1 c53d 30a3 383d
000003a0: 2127 893d c319 f23c 2f15 82bd 0548 d63d
000003b0: 26a8 91bd 2027 d83c 4f9d f2bd 4712 4f3c
000003c0: 5caa 613d 7ca1 d6bd fd79 e13d 2cbd e03d
000003d0: fbc5 363d 4881 b6bd 0094 7ebc 15bf d7bd
000003e0: 1117 e83d c478 eebc d770 f13c fc1c 01bc
000003f0: c538 16bc a3ed 013e c5c8 0cbd 9203 78bd
0.09704054 -0.03633229 -0.078736074 0.017245548 -0.07142752 0.101570874 -0.065079585 0.025205988
-0.06405462 -0.0030703552 0.11589489 0.043364204 0.054840427 -0.054370746 -0.0763177 0.01727898
0.015445156 -0.084916964 0.005846691 -0.0545278 0.14282668 -0.0445482 0.094334625 -0.017408805
-0.09153652 0.13165274 0.08695637 -0.039784852 0.0064205322 -0.028200366 0.06998316 -0.046481095
0.0826657 -0.09773438 -0.110627346 -0.0677988 -0.11893937 -0.034144223 0.11723658 0.0026580547
0.08095547 -0.005252532 0.01760547 0.1133428 0.091249116 0.029930588 -0.03281519 -0.059819438
-0.07739872 -0.109863065 0.022057654 0.018577268 0.011123197 0.0657144 0.13063145 -0.006425427
-0.095740125 0.043563247 0.029185325 -0.019685945 0.09452598 0.0388328 -0.034636725 -0.020390928
0.10260495 0.009102317 0.08557362 -0.022667103 0.033325702 0.0733611 -0.010752618 -0.031488396
-0.0022645139 -0.057045028 -0.1069613 0.1411014 0.07830252 0.009567869 0.034511566 0.025380686
0.060179558 -0.07463938 0.11704878 0.004568251 0.04079002 0.098937534 0.029632915 -0.009860327
0.11051922 0.06372577 -0.04467179 -0.038695358 0.029175112 0.01797883 0.10769296 -0.10460224
-0.0619796 -0.11814423 0.07046582 0.020798791 -0.061024334 0.072830856 0.021955598 -0.016379585
0.009219757 0.12035138 0.10823694 -0.044155378 0.09229014 -0.037572462 0.095671125 0.0628553
0.0122302 0.11109548 0.028606331 -0.01925386 0.103842236 0.10260894 -0.0056618624 -0.011955151
-0.112881474 0.035192106 -0.074365474 -0.08442049 0.092754215 -0.03678014 0.026592506 0.104361825
-0.115595154 0.01726908 0.081484765 0.052556355 0.010849945 -0.12498936 0.0015868534 0.049713995
0.09304951 -0.08018347 0.10002844 0.019374669 0.0750069 -0.110265605 -0.014793794 -0.07353028
0.078596964 -0.14412184 0.10944497 0.033829246 0.045193754 0.036380388 -0.099929415 0.08918928
0.011077309 -0.06139479 -0.009258858 -0.03043659 0.048849557 -0.12319218 -0.05859823 -0.09535501
-0.004017365 -0.070298314 0.09340888 0.043000087 0.09095279 -0.09759374 0.08608645 0.067064874
0.054934878 -0.015900547 0.010211957 -0.059655383 -0.09268911 -0.02586526 -0.060400117 0.07848148
0.05499035 -0.028402917 0.09975288 -0.09497048 0.120357245 0.10306194 0.0047590863 0.059173707
0.03527151 -0.017193835 0.0851857 0.12653707 -0.031067947 -0.011663638 0.059332464 0.06798641
-0.057623252 -0.07746702 0.019087698 0.03062603 0.0020831297 -0.028517675 -0.0936086 -0.11504218
0.05529449 0.06299738 0.02775042 0.09272755 -0.10147561 0.09811104 0.042668466 0.03340256
-0.09854478 0.12046046 -0.07806649 0.108898066 0.11001904 -0.014661762 -0.01977652 -0.051186103
0.051652316 -0.010713654 -0.07509501 0.0103081325 -0.015224713 0.03775364 -0.046934027 -0.025431281
0.13135317 0.009283562 0.015017867 0.07514871 0.047075875 0.047460433 0.09649898 0.045077503
0.06696916 0.0295533 -0.06351697 0.104629554 -0.0711215 0.026385844 -0.118464105 0.012638635
0.055094108 -0.104800195 0.110095955 0.10973582 0.044622403 -0.08911377 -0.015538216 -0.10534493
0.113325246 -0.02911032 0.029472752 -0.007880446 -0.009168808 0.12688307 -0.034371156 -0.06055028
