model/lstm_2.model (torch, 669851 bytes, 17 tensors)

weight_ih_l0 f4 [256, 64]
-0.057487674 0.021052299 -0.078910366 -0.14945719 -0.08878609 0.037178237 0.027979622 -0.006886669
0.06976147 0.023233166 -0.09523506 0.017844696 -0.07686085 0.11664941 -0.0038345533 0.05752213
-0.010100013 0.0039578704 0.025186967 0.096095584 -0.09205921 0.039845876 0.11106596 -0.08804055
0.018964361 -0.024117885 0.007715121 -0.0057663224 0.117816746 -0.10041439 -0.090932004 0.07738097
-0.089467436 0.08848262 -0.051824745 0.092076205 0.043983728 -0.07305914 0.04283459 -0.06214498
-0.036442325 -0.08794709 0.05352731 0.11237929 -0.006445631 0.08484904 -0.055857286 0.11645872
0.04026992 -0.028511133 -0.117814064 0.010762365 -0.0040368796 0.09636442 -0.010637621 -0.07425284
-0.12602958 -0.10530708 0.054386314 0.09756218 -0.13925952 0.054748215 -0.08148947 0.016662207
-0.008415246 0.04691975 -0.0973519 0.023227181 -0.057993792 0.07526161 0.046073902 -0.11054182
-0.07039189 0.0839395 -0.002800164 0.09754173 0.037361607 0.12550955 0.091053106 0.08946743
-0.0064004865 -0.08527274 -0.09511094 -0.025619332 0.10001094 -0.099920444 0.031387422 -0.08668698
0.026584135 0.11563109 0.08623302 -0.020936867 0.078412846 0.08244377 0.09997104 -0.011681794
0.10104661 0.07103541 -0.082444094 -0.029591544 0.047951557 -0.12217783 -0.030423548 0.06497195
-0.008565565 0.0040919306 0.038710523 0.0967032 0.054697655 0.109019175 0.06613199 0.054924432
-0.03294706 -0.0036527303 0.03639153 0.06883337 0.00033075732 0.030479051 -0.036840428 -0.05782336
-0.1044884 0.06069934 0.019408004 -0.107039675 -0.0059929593 0.059871837 0.007659557 0.1280208
0.060922217 0.12159458 -0.09782638 -0.085678004 0.041624483 -0.0066610808 0.041048083 -0.08358261
-0.09097667 -0.00928171 -0.08235636 0.078525476 0.12646353 -0.032892462 -0.05931963 0.025430193
0.015848614 -0.027244113 -0.0186251 -0.1337311 0.0016875514 0.06901313 -0.04005854 0.11274428
-0.0006533829 0.031341232 -0.039518133 0.08763746 0.036641017 0.09034834 -0.054212347 -0.026795963
0.057977445 -0.11320445 -0.114972875 0.11126195 -0.008899962 -0.071088724 -0.021539867 -0.03122871
-0.102286115 -0.053724766 0.030036826 0.109180264 -0.015260889 -0.11295663 0.05117212 0.006934993
0.07998619 -0.06974737 -0.026014615 0.027604977 0.06592162 0.041686434 0.043396663 0.0228779
-0.061734412 0.08780257 0.11245204 -0.027726013 -0.09579289 0.1069047 -0.010429859 0.0483261
0.1226734 0.05959285 -0.06959296 -0.0026090543 -0.032476652 -0.03118747 0.09449274 -0.098850265
0.036812246 -0.039694928 0.11905376 0.06479763 0.04696042 0.015050193 -0.0091513535 0.10943942
-0.028829398 -0.11342032 -0.048061542 -0.08982326 -0.046892185 0.09912628 0.06883223 0.02339531
-0.04521073 0.012845068 0.07511607 -0.012956603 -0.13537684 -0.07222005 -0.07586638 0.033187363
0.035329655 -0.054567985 -0.1066215 -0.03792549 0.007364735 0.08098859 -0.12518708 -0.11042413
0.099768445 0.04522063 -0.057132106 -0.10674321 -0.14604011 0.0923331 -0.09793704 0.10678984
0.043714266 -0.058339614 -0.06316516 -0.034429297 0.0058511808 0.045771785 -0.072265334 0.085514955
0.0812762 -0.06253679 -0.032978136 0.09181395 -0.03338012 0.050851565 0.09918839 0.08228887
00000000: 3278 6bbd df75 ac3c c29b a1bd 4e0b 19be
00000010: 7bd5 b5bd 3548 183d 8535 e53c 91a9 e1bb
00000020: 1adf 8e3d 7b53 be3c 990a c3bd 0a2f 923c
00000030: 3969 9dbd e3e5 ee3d 214d 7bbb 539c 6b3d
00000040: 867a 25bc 06b1 813b e654 ce3c c3cd c43d
00000050: 8a89 bcbd 6e35 233d 8d76 e33d 9b4e b4bd
00000060: 265b 9b3c df92 c5bc 20cf fc3b 6bf3 bcbb
00000070: e849 f13d 0fa6 cdbd 8f3a babd ea79 9e3d
00000080: b43a b7bd 6036 b53d 2f46 54bd 7392 bc3d
00000090: 4828 343d 08a0 95bd 5373 2f3d bc8b 7ebd
000000a0: 8c44 15bd 9b1d b4bd 743f 5b3d 1d27 e63d
000000b0: df35 d3bb 55c5 ad3d 9cca 64bd e981 ee3d
000000c0: 12f2 243d 2e90 e9bc 8048 f1bd a154 303c
000000d0: cd47 84bb b65a c53d 6b49 2ebc df11 98bd
000000e0: e60d 01be 3dab d7bd 2fc4 5e3d aece c73d
000000f0: 0c9a 0ebe aa3f 603d f4e3 a6bd 2e7f 883c
00000100: 1ae0 09bc ec2e 403d 6f60 c7bd ee46 be3c
00000110: e68a 6dbd c222 9a3d fdb7 3c3d c063 e2bd
00000120: a029 90bd 79e8 ab3d f582 37bb f5c3 c73d
00000130: 7c08 193d 9385 003e 0d7a ba3d b33a b73d
00000140: 2cbb d1bb 79a3 aebd 86c9 c2bd a2df d1bc
00000150: 89d2 cc3d 17a3 ccbd 1990 003d f288 b1bd
00000160: f9c6 d93c fecf ec3d f09a b03d cb83 abbc
00000170: ea96 a03d 47d8 a83d 9ebd cc3d ff64 3fbc
00000180: 86f1 ce3d 037b 913d 73d8 a8bd f769 f2bc
00000190: da68 443d 5f38 fabd ce3a f9bc 0410 853d
000001a0: 9556 0cbc 9a15 863b ed8e 1e3d 540c c63d
000001b0: a60a 603d 7245 df3d 3570 873d 71f8 603d
000001c0: 7ff3 06bd a562 6fbb 490f 153d 83f8 8c3d
000001d0: 7f69 ad39 34af f93c fde5 16bd 30d8 6cbd
000001e0: 04fe d5bd df9f 783d 89fd 9e3c 9e37 dbbd
000001f0: 9660 c4bb 2c3c 753d 05fd fa3b e217 033e
00000200: 9389 793d 9406 f93d 3259 c8bd f377 afbd
00000210: 6f7e 2a3d 3245 dabb 0922 283d 5c2d abbd
00000220: fa51 babd 5012 18bc 74aa a8bd f7d1 a03d
00000230: a87f 013e 3fba 06bd 24f9 72bd fb52 d03c
00000240: f4d4 813c 0c2f dfbc aa93 98bc cef0 08be
00000250: d430 dd3a c256 8d3d 6c14 24bd 79e6 e63d
00000260: c947 2bba aa5f 003d c4dd 21bd 457b b33d
00000270: e414 163d 8d08 b93d c40d 5ebd 3583 dbbc
00000280: c279 6d3d bcd7 e7bd e676 ebbd 4edd e33d
00000290: 25d1 11bc f796 91bd 6074 b0bc 5ad3 ffbc
000002a0: 627b d1bd 800e 5cbd ca0f f63c e799 df3d
000002b0: cf08 7abc ce55 e7bd db99 513d f03e e33b
000002c0: cdcf a33d b6d7 8ebd 9a1c d5bc d523 e23c
000002d0: ea01 873d 65bf 2a3d b3c0 313d 6f6a bb3c
000002e0: 39dd 7cbd d5d1 b33d 414d e63d aa21 e3bc
000002f0: 102f c4bd daf0 da3d 00e2 2abc 97f1 453d
00000300: 313c fb3d a217 743d c186 8ebd abfc 2abb
00000310: 3d06 05bd dd7c ffbc 6985 c13d 0272 cabd
00000320: 70c8 163d 2697 22bd 75d2 f33d 9fb4 843d
00000330: 9259 403d 1695 763c 8fef 15bc c621 e03d
00000340: a12b ecbc ea48 e8bd 2edc 44bd 42f5 b7bd
00000350: 0512 40bd b802 cb3d eaf7 8c3d 85a7 bf3c
00000360: e32e 39bd 1f74 523c 74d6 993d ef47 54bc
00000370: 3aa0 0abe 1be8 93bd d55f 9bbd 79ef 073d
00000380: d4b5 103d ae82 5fbd 5f5c dabd c257 1bbd
00000390: e053 f13b 59dd a53d 0b31 00be 0c26 e2bd
000003a0: 6653 cc3d 4439 393d 5b03 6abd 2f9c dabd
000003b0: 8a8b 15be 2319 bd3d 3793 c8bd a2b4 da3d
000003c0: bb0d 333d 85f5 6ebd bc5c 81bd bc05 0dbd
000003d0: 43bb bf3b 327b 3b3d d9ff 93bd 7722 af3d
000003e0: 2374 a63d 4a13 80bd 1514 07bd f408 bc3d
000003f0: 98b9 08bd bb49 503d 4823 cb3d 1187 a83d

weight_hh_l0 f4 [256, 64]
-0.09972641 0.10990987 -0.03297493 0.12400679 -0.055511132 0.112806454 0.052134637 0.03333129
0.12339801 0.017516028 -0.123841174 -0.039624102 -0.015022437 -0.02724857 0.06260241 -0.0545355
0.04699687 -0.03952988 0.083253846 0.0044452865 0.055444572 0.04744359 0.09135644 -0.0788907
0.027225344 0.08083391 0.015622831 -0.027296396 0.029233744 -0.07640123 -0.11482288 -0.107521616
0.114847116 0.017848412 0.029593313 -0.06628161 0.10045309 0.119874805 0.046107307 -0.025033716
0.03425192 -0.003094618 0.09633994 0.10268846 -0.08909086 0.023450723 -0.0031081706 -0.1258266
-0.019589335 0.032624874 0.046386678 0.0048873187 -0.062553436 0.008632813 0.11144273 -0.040382415
-0.09166118 0.07419429 -0.12324267 -0.01697393 -0.13628465 0.053007346 -0.0051123966 0.0074435053
0.0433937 -0.115470454 -0.06408795 -0.019772204 0.06838486 0.03924939 0.0023216174 -0.14030752
-0.0913433 0.037339322 -0.106982335 0.083941296 -0.07394827 0.017111478 -0.07947791 -0.13583982
-0.032380994 -0.08547188 0.11073742 -0.09295853 -0.080116525 0.0054879077 -0.13227472 -0.066614315
0.09192287 0.08368686 0.042029366 0.022210257 0.052075405 -0.00082670973 0.06726776 -0.11805476
0.027779635 -0.06744013 -0.038091827 -0.0117010055 -0.0019438023 0.029085029 0.11217247 -0.019965367
-0.13093616 0.071481645 -0.03895319 0.059755895 -0.00040251954 -0.0062042703 -0.0036927285 0.092886314
0.14941816 0.02618627 -0.10489455 -0.1090609 0.07237671 0.09111084 -0.011711222 0.077279106
0.04457011 -0.01904025 -0.014388044 -0.0883879 0.04306281 0.07447426 0.0953324 -0.049423423
0.06265442 0.106526874 0.08956637 0.11982361 0.092831925 -0.01635261 -0.09227988 -0.0038336
-0.06579624 -0.029162075 -0.101407416 0.040233806 0.06694955 0.0026376909 0.005194006 0.018201375
-0.10605356 0.011104403 -0.044261068 0.06367061 -0.023208035 -0.062517814 -0.12464708 -0.12601972
0.034363884 -0.05683685 -0.038292956 -0.122575 -0.08558311 0.122070484 0.025078438 0.017334072
-0.044035703 0.03264875 0.02414568 -0.046007916 0.11127495 0.1006684 0.0047103623 -0.09346736
0.08461524 -0.03300483 -0.0037693845 0.06381301 -0.04985436 -0.021209689 0.0551892 0.093184546
0.10190483 0.014835092 0.07191893 0.1263346 -0.06678745 0.12116866 0.104813494 0.108393334
-0.0639944 -0.06540081 0.102938205 0.007579919 -0.08601441 0.07680706 0.04495728 -0.10287058
-0.059662566 0.08791938 0.033888057 -0.042989947 -0.071152784 -0.10306766 0.06465302 -0.12113768
-0.019051446 0.040928528 0.0049266308 -0.08096925 0.0034293116 0.05544029 -0.109133855 -0.054500148
-0.115444615 0.10496463 -0.05820206 -0.012775253 -0.08905603 0.016310573 -0.10354101 0.047467362
0.02044606 0.07988172 0.0012863155 -0.09005004 -0.03491549 0.07020649 -0.0055961297 0.07849963
0.036458768 0.021302307 -0.084621556 0.029549789 -0.11516477 0.106065765 -0.052938428 0.076620035
0.044912815 0.13814528 -0.07355019 0.0647505 0.10669306 0.112003215 -0.082883246 0.041406326
0.076792896 -0.14202218 0.103275195 -0.082844645 0.06545128 0.024263246 0.049477343 0.02549046
-0.07281573 -0.065248854 0.10359192 -0.11026034 -0.051637776 0.10951472 0.020864677 0.08654526
00000000: 5c3d ccbd 6d18 e13d b810 07bd 46f7 fd3d
00000010: a45f 63bd 1207 e73d 218b 553d 6486 083d
00000020: 19b8 fc3d c67d 8f3c 71a0 fdbd e24c 22bd
00000030: ab20 76bc 6538 dfbc b135 803d 9e60 5fbd
00000040: ca7f 403d 15ea 21bd fe80 aa3d c4a9 913b
00000050: d919 633d 3654 423d 1619 bb3d 7391 a1bd
00000060: af07 df3c 408c a53d e7f6 7f3c b19c dfbc
00000070: 9b7b ef3c 4078 9cbd 4228 ebbd 4b34 dcbd
00000080: f734 eb3d d536 923c ad6d f23c a7be 87bd
00000090: 5aba cd3d ec80 f53d 04db 3c3d 8213 cdbc
000000a0: be4b 0c3d 13cf 4abb e04d c53d 544e d23d
000000b0: 4575 b6bd bb1b c03c 73b2 4bbb b0d8 00be
000000c0: d079 a0bc a9a1 053d f5ff 3d3d cd25 a03b
000000d0: 041c 80bd a470 0d3c 163c e43d 0868 25bd
000000e0: dbb8 bbbd 2df3 973d a766 fcbd e90c 8bbc
000000f0: 348e 0bbe 3b1e 593d e485 a7bb a6e8 f33b
00000100: 98bd 313d c67b ecbd 8b40 83bd 51f9 a1bc
00000110: 5d0d 8c3d f8c3 203d 4726 183b c6ac 0fbe
00000120: 3212 bbbd 1ef1 183d 8e19 dbbd 6ae9 ab3d
00000130: 3172 97bd 5f2d 8c3c 51c5 a2bd 9819 0bbe
00000140: efa1 04bd e20b afbd 4dca e23d 0b61 bebd
00000150: 2214 a4bd e8d3 b33b 0673 07be 166d 88bd
00000160: 0f42 bc3d 0464 ab3d fc26 2c3d 49f2 b53c
00000170: 054d 553d 8db7 58ba aec3 893d b2c6 f1bd
00000180: 1e92 e33c 0d1e 8abd 2d06 1cbd 93b5 3fbc
00000190: 2fc7 feba ba43 ee3c aeba e53d 698e a3bc
000001a0: 2114 06be f864 923d 618d 1fbd 99c2 743d
000001b0: 4209 d3b9 314d cbbb b401 72bb 2e3b be3d
000001c0: 1301 193e 9784 d63c f4d2 d6bd 525b dfbd
000001d0: 3e3a 943d 5298 ba3d 6de0 3fbc 8244 9e3d
000001e0: 268f 363d 4cfa 9bbc d5bb 6bbc b704 b5bd
000001f0: a162 303d f685 983d a23d c33d 3770 4abd
00000200: f650 803d c32a da3d 936e b73d 1566 f53d
00000210: aa1e be3d e9f5 85bc 3cfd bcbd 233d 7bbb
00000220: 2ec0 86bd 4ee5 eebc b1ae cfbd 34cc 243d
00000230: d81c 893d 1cdd 2c3b 7b32 aa3b 0d1b 953c
00000240: 9c32 d9bd 3eef 353c 184b 35bd bd65 823d
00000250: c71e bebc 5709 80bd f846 ffbd 500b 01be
00000260: 25c1 0c3d c2cd 68bd 13d9 1cbd 9a08 fbbd
00000270: 3346 afbd 1700 fa3d 4c71 cd3c 2f00 8e3c
00000280: c85e 34bd b2ba 053d 29cd c53c cc72 3cbd
00000290: 1fe4 e33d 3c2b ce3d 6259 9a3b d16b bfbd
000002a0: c14a ad3d 1330 07bd c707 77bb 65b0 823d
000002b0: 1634 4cbd f1bf adbc 120e 623d 8ad7 be3d
000002c0: 7bb3 d03d e30e 733c 3b4a 933d db5d 013e
000002d0: dcc7 88bd 4627 f83d 75a8 d63d 53fd dd3d
000002e0: 7f0f 83bd dcf0 85bd 44d1 d23d f860 f83b
000002f0: 5328 b0bd 054d 9d3d 2025 383d d0ad d2bd
00000300: bc60 74bd 130f b43d 34ce 0a3d 3a16 30bd
00000310: 8db8 91bd 2315 d3bd cd68 843d 0817 f8bd
00000320: c711 9cbc aca4 273d 936f a13b 35d3 a5bd
00000330: 4dbe 603b 5c15 633d 9281 dfbd 8c3b 5fbd
00000340: 3a6e ecbd b2f7 d63d 4965 6ebd 4b4f 51bc
00000350: 0263 b6bd c09d 853c 4f0d d4bd 236d 423d
00000360: 7f7e a73c 0799 a33d 9699 a83a 286c b8bd
00000370: 8b03 0fbd 6cc8 8f3d bd5f b7bb 6ac4 a03d
00000380: ca55 153d 2d82 ae3c 114e adbd 6612 f23c
00000390: 82db ebbd 0239 d93d f7d5 58bd f7ea 9c3d
000003a0: 80f6 373d f575 0d3e 7ba1 96bd e99b 843d
000003b0: e481 da3d f161 e53d b1be a9bd ae99 293d
000003c0: 9845 9d3d 436e 11be f281 d33d 74aa a9bd
000003d0: 520b 863d b7c3 c63c c1a8 4a3d 5fd1 d03c
000003e0: 6a20 95bd 31a1 85bd 0028 d43d 2cd0 e1bd
000003f0: 2282 53bd 4149 e03d 66ec aa3c a43e b13d

bias_ih_l0 f4 [256]
0.13093983 -0.027380187 0.10668002 -0.027860427 -0.019983767 0.057268787 0.12633154 0.13076012
-0.018772075 0.051264834 0.06884211 -0.008209657 -0.08748079 0.14146969 -0.044851087 -0.02443766
0.13531858 0.11350729 -0.012019005 0.043907214 0.08310818 0.07792701 -0.08820706 -0.038259484
0.118684985 -0.039041713 0.06979178 0.07383148 0.03828504 0.030639734 0.020255538 0.11591228
-0.06621021 -0.12384989 -0.05016109 -0.0898376 0.044323612 -0.07691218 -0.10909493 0.07186811
-0.0438365 0.10909549 0.12069504 0.00741389 -0.040059667 0.009152788 -0.09248485 -0.07268446
-0.029188765 0.0752956 0.103966355 -0.0060646026 0.07203923 -0.054942667 -0.02463309 -0.064820305
-0.06948409 0.064457856 0.05444379 0.112728335 0.103726536 0.043434422 0.05331473 0.0147504285
-0.014459957 -0.057285484 0.12131406 -0.091464765 0.008611473 -0.047941852 0.013234734 -0.045035187
0.1290086 0.11131725 0.09510807 -0.09473336 -0.07550582 -0.09254871 -0.0737377 0.1122679
-0.010084757 -0.110457145 0.067301914 0.022424314 0.048561987 -0.018941028 -0.079524375 -0.050280493
0.032364257 0.10834987 0.056496996 -0.11843298 0.015023591 0.09970951 -0.041667994 -0.08586249
-0.017924862 0.11800304 0.023072219 0.021301074 -0.0664753 0.07852538 0.0766889 0.089274235
0.07265442 -0.056648165 -0.071327545 0.13453585 -0.08065956 -0.073169775 -0.098792404 0.07436271
-0.011974503 -0.002128672 -0.062328257 0.016306568 -0.12964797 0.08029488 0.09912639 0.12825058
-0.08828419 0.08874779 0.12454473 0.06353184 -0.017167062 -0.08367814 -0.10053946 -0.053548645
-0.12941796 0.014105827 -0.11346069 0.045736607 0.015215574 -0.102481246 0.09215688 -0.005360509
0.10367834 0.06414159 -0.012255906 -0.028520325 -0.011052525 0.003684167 0.115959145 -0.006184031
-0.09401459 0.1376964 0.09426695 -0.0982813 -0.11736219 -0.017442249 -0.10563941 -0.08770103
-0.12128571 -0.0075728656 -0.07926467 -0.10033993 -0.0447396 -0.02482396 0.05382676 -0.056598403
-0.04638175 0.043797277 0.12250632 0.019307723 0.122439876 0.008286691 -0.1595101 -0.06395294
0.11909753 0.06699641 0.08988074 0.03365635 0.07398438 -0.040119234 0.008114898 0.03322052
0.001582527 -0.002171523 0.038670626 -0.047193725 0.062326312 0.07657846 0.108673334 -0.050134473
0.12072932 -0.082999475 0.0990708 -0.081959985 -0.0076468633 0.0086966725 -0.0056709144 0.0796817
-0.028575659 0.02364854 0.05646971 -0.088079065 -0.060696103 -0.031779245 0.102714874 -0.099898934
-0.0974114 0.080050185 -0.040808596 -0.06753994 -0.09018868 0.049793296 -0.0056246384 -0.031421393
-0.036951512 -0.044451762 -0.05928077 -0.060285877 -0.0036176094 0.105510086 0.12404355 0.04734338
-0.09502829 0.13724229 0.020455465 0.1007311 0.0409913 0.11248745 0.00334461 -0.020644061
0.09388655 0.062143415 -0.029728172 -0.09093247 -0.086305216 -0.0609257 -0.105107024 0.012031533
0.1142501 -0.043831587 0.06363767 0.08571014 0.14069475 -0.04358162 -0.020071756 0.009207775
0.13587652 0.048216995 -0.07753747 -0.07025087 -0.0685197 0.06674247 -0.06713863 -0.05268534
0.030958923 -0.057204656 0.13490796 -0.07545833 0.03476068 0.017724013 -0.018346487 -0.08895211
00000000: 1715 063e 6a4c e0bc 0e7b da3d 8d3b e4bc
00000010: ffb4 a3bc ad92 6a3d 0e5d 013e fbe5 053e
00000020: e5c7 99bc 13fb 513d 18fd 8c3d cc81 06bc
00000030: 2129 b3bd 6edd 103e c6b5 37bd 7d31 c8bc
00000040: f490 0a3e 8376 e83d 5ceb 44bc 0dd8 333d
00000050: 9f34 aa3d 3298 9f3d e7a5 b4bd fab5 1cbd
00000060: 1d11 f33d 34ea 1fbd feee 8e3d f634 973d
00000070: c6d0 1c3d 2e00 fb3c f1ee a53c 6b63 ed3d
00000080: 3899 87bd 03a5 fdbd b775 4dbd c7fc b7bd
00000090: ad8c 353d 2284 9dbd 2a6d dfbd 962f 933d
000000a0: e78d 33bd 756d df3d f62e f73d 38f0 f23b
000000b0: 9b15 24bd 93f5 153c b268 bdbd 97db 94bd
000000c0: 471d efbc 9434 9a3d 50ec d43d 93b9 c6bb
000000d0: 4e89 933d 900b 61bd 55cb c9bc 82c0 84bd
000000e0: ad4d 8ebd 7b02 843d 7400 5f3d 1dde e63d
000000f0: 946e d43d 4be8 313d 8c60 5a3d c8ab 713c
00000100: 75e9 6cbc 2fa4 6abd 8273 f83d e151 bbbd
00000110: 2317 0d3c ad5e 44bd 7fd6 583c d176 38bd
00000120: d51a 043e 4cfa e33d 05c8 c23d 9003 c2bd
00000130: cca2 9abd 2e8a bdbd cb03 97bd b6ec e53d
00000140: 893a 25bc 5b37 e2bd 96d5 893d 32b3 b73c
00000150: efe8 463d 372a 9bbc addd a2bd ebf2 4dbd
00000160: 6290 043d 89e6 dd3d 6569 673d fd8c f2bd
00000170: 8225 763c 8034 cc3d 0fac 2abd acd8 afbd
00000180: 29d7 92bc 94ab f13d f301 bd3c 977f ae3c
00000190: 3424 88bd ead1 a03d 120f 9d3d 69d5 b63d
000001a0: d7cb 943d e807 68bd 2d14 92bd c4c3 093e
000001b0: d730 a5bd 09da 95bd ac53 cabd 7a4b 983d
000001c0: b530 44bc 3181 0bbb ea4b 7fbd 5a95 853c
000001d0: 70c2 04be a471 a43d c702 cb3d 1f54 033e
000001e0: 57ce b4bd 67c1 b53d 4f11 ff3d fb1c 823d
000001f0: f0a1 8cbc 725f abbd a2e7 cdbd d355 5bbd
00000200: 2486 04be 201c 673c 145e e8bd 4f56 3b3d
00000210: be4a 793c b0e1 d1bd bfbc bc3d 35a7 afbb
00000220: 4f55 d43d aa5c 833d ffcc 48bc 75a3 e9bc
00000230: a615 35bc 1172 713b fd7b ed3d 69a3 cabb
00000240: b98a c0bd 4900 0d3e 080f c13d b547 c9bd
00000250: 965b f0bd 0ce3 8ebc 7a59 d8bd 999c b3bd
00000260: a464 f8bd cd25 f8bb 8455 a2bd 057f cdbd
00000270: df40 37bd 9e5b cbbc 7379 5c3d bad3 67bd
00000280: cafa 3dbd c664 333d 98e4 fa3d 3b2b 9e3c
00000290: c2c1 fa3d e7c4 073c 9e56 23be c2f9 82bd
000002a0: 68e9 f33d 6a35 893d 6513 b83d 3edb 093d
000002b0: 1f85 973d 1154 24bd 59f4 043c 3d12 083d
000002c0: cb6c cf3a 1c50 0ebb 1765 1e3d 354e 41bd
000002d0: e049 7f3d 2bd5 9c3d 2090 de3d ce59 4dbd
000002e0: ef40 f73d a1fb a9bd a2e5 ca3d a3da a7bd
000002f0: 8a92 fabb 7d7c 0e3c 14d3 b9bb 2930 a33d
00000300: 8017 eabc 95ba c13c c84c 673d cc62 b4bd
00000310: 7a9c 78bd f42a 02bd 2d5c d23d d097 ccbd
00000320: a17f c7bd 5af1 a33d ea26 27bd 6152 8abd
00000330: d8b4 b8bd 0ef4 4b3d e34e b8bb b8b3 00bd
00000340: 785a 17bd 0d13 36bd 65d0 72bd 53ee 76bd
00000350: 6a15 6dbb ac15 d83d 8b0a fe3d 22eb 413d
00000360: 319e c2bd 3e89 0c3e 3892 a73c 1b4c ce3d
00000370: 7ee6 273d d25f e63d 3f31 5b3b bc1d a9bc
00000380: 9747 c03d 188a 7e3d 7f88 f3bc ce3a babd
00000390: cac0 b0bd 3a8d 79bd 5a42 d7bd e81f 453c
000003a0: f5fb e93d c088 33bd 7754 823d cc88 af3d
000003b0: 4912 103e a482 32bd 866d a4bc 35dc 163c
000003c0: 3723 0b3e 2f7f 453d f7cb 9ebd b0df 8fbd
000003d0: 0e54 8cbd 47b0 883d fa7f 89bd 95cc 57bd
000003e0: 919d fd3c 6e4f 6abd 5025 0a3e e689 9abd
000003f0: 3761 0e3d f331 913c 5f4b 96bc 862c b6bd

bias_hh_l0 f4 [256]
-0.06861222 -0.11716665 0.05860071 0.11243752 -0.0046298974 -0.0070902146 0.06440159 0.022296874
-0.0604338 -0.005384385 -0.10261168 -0.06503284 0.11941006 0.023847017 -0.05391973 0.10165448
0.015846284 0.07244125 -0.0032584143 -0.011953296 -0.053821288 -0.05466994 0.10242645 0.05734561
0.12951411 -0.025533864 -0.10050209 -0.04519606 -0.008769547 -0.11112052 0.036870193 0.1046802
0.043885294 -0.088783726 0.10503286 0.07730698 -0.037458975 -0.06570323 -0.068475224 0.12485201
-0.01784147 -0.033423606 0.11906883 -0.009664869 0.07391247 0.040971816 0.082974255 0.006576546
-0.0045481483 0.11119822 0.069895186 0.11765406 -0.009763284 0.07130855 0.049142122 -0.110235795
0.06903556 0.11646206 -0.054740086 -0.01477685 -0.0012736998 -0.02457659 0.048487276 0.048009
-0.07347002 0.004608333 -0.096275695 -0.08645145 -0.051029295 -0.08353682 -0.062225778 -0.095873155
-0.04909236 -0.0756797 0.030467873 -0.01711471 0.026898935 -0.044025328 -0.06867205 0.101951264
0.036515985 -0.07878647 0.07911697 -0.05091602 0.14118877 -0.11220506 0.05945273 -0.09736626
0.020453312 0.13409036 -0.04509149 0.083970495 -0.032240093 -0.060872953 -0.038115855 -0.08098553
0.06903281 0.056995954 0.104088664 0.06303424 0.021440897 -0.07313127 0.019859936 -0.07817654
0.020140542 0.013638415 0.14236768 0.046337806 0.11557836 -0.056060683 0.045059115 0.05521577
0.07904455 -0.053504802 0.11210829 -0.01478412 -0.07815703 0.08800126 0.006408621 -0.024676906
0.041700255 -0.03215513 0.039202556 0.058943897 0.10151675 -0.08095406 0.10970616 -0.0482427
0.0770182 0.12527241 -0.090306655 -0.060145635 0.09676643 -0.08552165 -0.035089727 0.031131154
-0.020253012 -0.0057376544 0.04105069 0.093797535 -0.03183254 0.024046443 -0.0733489 -0.0786969
-0.12756936 0.03502431 -0.11577858 -0.06573678 -0.020180076 0.0173844 -0.15283787 -0.0051704086
-0.06470502 -0.07163884 0.015090426 0.051536992 -0.019293146 0.029291715 -0.0087312665 -0.029351156
-0.009458929 0.01918498 0.112758145 -0.10329451 0.058524445 -0.06485201 -0.08268647 -0.06123674
-0.08185842 0.010201306 0.0140747195 0.14393705 -0.029957794 -0.06451802 0.013322009 0.11284163
-0.06836345 0.11227924 0.04739201 -0.07028209 -0.046173833 0.01350259 0.006120824 -0.07842539
-0.0077736676 0.03310547 0.044474255 -0.025588732 -0.00672746 -0.06452286 0.0001735373 -0.01780199
0.13439184 0.08711051 0.051053714 0.12699713 0.09452596 0.12085982 0.07513829 -0.106098436
-0.08838281 0.07749537 -0.0030525893 0.13639088 -0.092069164 0.017889343 0.08025332 0.089518726
-0.04693074 -0.08427215 0.030527763 -0.07407882 0.078952275 -0.04375162 -0.060030375 0.11215234
-0.03299931 -0.031557973 -0.07965514 0.063289896 0.029211106 0.09922664 0.106072694 -0.0925971
0.10946652 -0.027068617 -0.05821699 0.039243788 0.02804144 -0.08088308 0.032915078 -0.08604576
0.07080823 -0.028925797 0.09007732 0.044017166 -0.0030826062 0.12589519 -0.07100636 -0.0016315032
-0.07811167 0.009422291 0.10525634 -0.037191927 0.045278303 0.029624179 -0.05402926 -0.0371789
0.08143573 0.011085729 0.05441822 -0.021857657 0.00077423675 0.09219329 0.12962723 0.11748719
00000000: 9084 8cbd 12f5 efbd 4c07 703d a445 e63d
00000010: 65b6 97bb 0855 e8bb fbe4 833d efa7 b63c
00000020: 6f89 77bd 7f6f b0bb 1326 d2bd f02f 85bd
00000030: 438d f43d d25a c33c efda 5cbd 3930 d03d
00000040: 11d0 813c 145c 943d 1f8b 55bb c2d7 43bc
00000050: b673 5cbd 96ed 5fbd f5c4 d13d 3be3 6a3d
00000060: 599f 043e 652c d1bc 0ad4 cdbd 811f 39bd
00000070: 25ae 0fbc 2893 e3bd 3305 173d 9362 d63d
00000080: 11c1 333d 3ed4 b5bd 781b d73d 1f53 9e3d
00000090: 956e 19bd 6a8f 86bd bd3c 8cbd 69b2 ff3d
000000a0: 4628 92bc 31e7 08bd 5cda f33d 6659 1ebc
000000b0: 6c5f 973d 10d2 273d 68ee a93d 1180 d73b
000000c0: a208 95bb e4bb e33d 3525 8f3d 9df4 f03d
000000d0: 2ef6 1fbc 380a 923d 4049 493d 4ec3 e1bd
000000e0: 8462 8d3d a983 ee3d 2437 60bd 9a1a 72bc
000000f0: 46f2 a6ba d854 c9bc 989a 463d 16a5 443d
00000100: 7377 96bd 8001 973b 312c c5bd 750d b1bd
00000110: 1804 51bd 5a15 abbd 75e0 7ebd 2559 c4bd
00000120: 1215 49bd f5fd 9abd c397 f93c 2634 8cbc
00000130: 285b dc3c e753 34bd efa3 8cbd d3cb d03d
00000140: c991 153d cd5a a1bd 1408 a23d 518d 50bd
00000150: ca93 103e c4cb e5bd b584 733d f667 c7bd
00000160: b48d a73c fc4e 093e dbb1 38bd b9f8 ab3d
00000170: 300e 04bd eb55 79bd 5f1f 1cbd bedb a5bd
00000180: 1361 8d3d 9774 693d 702c d53d 1818 813d
00000190: d2a4 af3c d9c5 95bd 4eb1 a23c 061b a0bd
000001a0: c7fd a43c a973 5f3c d5c8 113e b6cc 3d3d
000001b0: 59b4 ec3d e39f 65bd e88f 383d ee29 623d
000001c0: 1ce2 a13d da27 5bbd 0899 e53d 1839 72bc
000001d0: cb10 a0bd 013a b43d 69ff d13b 3927 cabc
000001e0: e3cd 2a3d 19b5 03bd dc92 203d 286f 713d
000001f0: 04e8 cf3d 3ecb a5bd a0ad e03d 239a 45bd
00000200: b8bb 9d3d 6947 003e b2f2 b8bd 455b 76bd
00000210: 7a2d c63d fa25 afbd 3fba 0fbd c306 ff3c
00000220: a5e9 a5bc ef02 bcbb c524 283d ec18 c03d
00000230: d662 02bd 0cfd c43c f337 96bd d72b a1bd
00000240: 8ba1 02be a775 0f3d 521d edbd 01a1 86bd
00000250: b050 a5bc bb69 8e3c 8881 1cbe 886c a9bb
00000260: 1184 84bd 62b7 92bd d63d 773c 7418 533d
00000270: a90c 9ebc 2ef5 ef3c 960d 0fbc d671 f0bc
00000280: a0f9 1abc d229 9d3c beed e63d 128c d3bd
00000290: 54b7 6f3d 21d1 84bd 8657 a9bd 60d3 7abd
000002a0: 63a5 a7bd 6123 273c a799 663c 3c64 133e
000002b0: 0c6a f5bc 0622 84bd 8e44 5a3c 8319 e73d
000002c0: 2302 8cbd a8f2 e53d 201e 423d 0ef0 8fbd
000002d0: c620 3dbd f839 5d3c 3191 c83b 7e9d a0bd
000002e0: 40ba febb 9a99 073d a32a 363d 769f d1bc
000002f0: 0672 dcbb 9024 84bd 90f7 3539 7bd5 91bc
00000300: 049e 093e ff66 b23d b31d 513d 890b 023e
00000310: d496 c13d 5a85 f73d 1be2 993d 234a d9bd
00000320: 0c02 b5bd e4b5 9e3d f30d 48bb 0daa 0b3e
00000330: c28e bcbd ac8c 923c da5b a43d 9855 b73d
00000340: 733a 40bd e196 acbd 5c15 fa3c a3b6 97bd
00000350: bbb1 a13d e634 33bd 69e2 75bd 20b0 e53d
00000360: 492a 07bd ef42 01bd 3c22 a3bd 229e 813d
00000370: 214c ef3c 5637 cb3d a43c d93d 8ca3 bdbd
00000380: fc2f e03d 01bf ddbc f074 6ebd 18be 203d
00000390: 29b7 e53c 07a6 a5bd f6d1 063d c238 b0bd
000003a0: e803 913d cbf5 ecbc 757a b83d 584b 343d
000003b0: 8d05 4abb abea 003e c86b 91bd 2ad8 d5ba
000003c0: 03f9 9fbd f45f 1a3c a390 d73d 9056 18bd
000003d0: be75 393d 68ae f23c c94d 5dbd e748 18bd
000003e0: c7c7 a63d eba0 353c a4e5 5e3d d40e b3bc
000003f0: 26f6 4a3a d6cf bc3d 00bd 043e 209d f03d

weight_ih_l0_reverse f4 [256, 64]
-0.028814469 -0.13236032 -0.007274549 0.045791823 0.059716687 -0.06664447 -0.0071140807 0.028121144
0.027020417 0.08665801 0.02711495 -0.081135996 -0.06489605 0.062435657 -0.06401337 0.039260183
0.13496356 0.010364271 0.13302673 0.010057816 0.007176674 -0.104678944 0.034087162 -0.12969856
-0.030332698 0.101499826 -0.11098231 0.04673622 0.05282511 0.040595736 -0.036400545 0.03256154
-0.015818797 0.122840986 0.03866206 -0.006930711 0.08715461 -0.14745249 -0.077613436 -0.083980866
0.094451584 0.07230396 0.079573885 0.0076226024 -0.0020952276 0.025171546 -0.10839684 0.08929197
-0.023103816 0.06746153 0.075221725 0.0634111 -0.044064783 0.02108771 -0.031837977 0.018595256
-0.053194527 0.1211015 -0.0056148735 0.069024235 -0.04121955 -0.038028676 0.010370089 0.11199968
0.058177732 -0.1248029 -0.022096613 -0.06656484 0.044806413 -0.07196898 -0.08696346 -0.09754619
0.031488627 0.011466142 -0.024048539 0.10671891 0.0021881168 -0.082427494 0.08226422 0.005325822
-0.036680035 0.12734956 0.04154418 0.12673427 -0.0508933 0.055258837 0.008114043 -0.101791695
-0.09741178 0.054901876 0.10751536 -0.09698557 0.010133804 0.015185702 0.061475977 -0.0594666
0.09556035 0.09572791 0.118546344 0.041141257 -0.029098447 0.10679325 -0.09627475 -0.061612897
-0.005228206 -0.019867377 -0.0034560414 0.04599562 0.0982313 -0.081549175 -0.067515075 -0.084103905
0.118390396 0.058212016 0.05398732 0.002140084 -0.0067368303 -0.07531651 0.02058921 0.103998594
0.051961172 -0.10744308 0.13293512 -0.11055977 0.065133244 -0.11378293 -0.09899251 0.039896585
0.10308223 0.017366853 0.10954497 -0.098825134 0.07295531 -0.061017968 0.0062933997 -0.040450852
-0.044809442 0.03001493 0.124754116 0.122116774 -0.036354918 0.031532492 -0.0599091 0.11679258
0.052243926 -0.041197415 -0.026850656 0.050059598 -0.07671212 0.0537376 0.05912543 0.06624687
-0.11802454 -0.039537255 0.06871997 0.022127151 -0.029913383 -0.06487675 0.0900882 0.035372183
0.090056375 -0.06020191 0.020155603 0.035901986 -0.0014391467 0.13177678 -0.022950284 -0.121571586
0.09693431 0.11474798 0.041418325 -0.09016836 -0.08540482 0.017057361 -0.013189469 -0.00079644046
0.034247767 -0.04337926 0.008358336 -0.05541548 0.010925107 -0.10484819 -0.036353435 0.02817651
-0.08431355 -0.06583957 0.08858911 -0.092579395 0.015504178 -0.013240046 0.085700765 -0.07846218
0.036362395 -0.0140543515 -0.058035098 0.010054426 -0.048562437 -0.01470724 -0.050562747 -0.04418058
0.030245962 -0.038964108 -0.12379282 -0.06869182 -0.008234135 0.1496225 0.017930659 0.08445313
0.08684175 0.015595327 -0.018002013 0.04748871 0.08031288 0.1364366 -0.012442262 0.10710352
-0.07247684 -0.10868689 0.04404609 0.049923543 0.10678392 -0.06357113 0.11036052 0.014526034
0.025219066 -0.052797776 0.08395173 -0.06255202 0.0661138 0.0027244403 -0.041630637 -0.039912395
-0.079745255 -0.11250771 -0.09681962 0.08949394 -0.0038228186 0.011077632 0.023254316 -0.082956046
0.10843455 -0.09324379 0.046706405 0.03420795 0.0075340583 -0.015686933 0.005643909 0.07399153
-0.11742373 -0.113613345 0.01784176 0.0867003 -0.049595807 -0.082485005 -0.10283401 0.059284687
00000000: 520c ecbc 7789 07be 575f eebb 3590 3b3d
00000010: 7c99 743d e57c 88bd 3c1d e9bb 505e e63c
00000020: ec59 dd3c c179 b13d 2c20 de3c a12a a6bd
00000030: 38e8 84bd 88bc 7f3d 7119 83bd 49cf 203d
00000040: e333 0a3e e7ce 293c 2938 083e 8ac9 243c
00000050: 4e2a eb3b ea61 d6bd fb9e 0b3d b3cf 04be
00000060: 477c f8bc 24df cf3d b14a e3bd 7b6e 3f3d
00000070: 245f 583d b747 263d bd18 15bd 405f 053d
00000080: 6c96 81bc 0e94 fb3d 1c5c 1e3d 051b e3bb
00000090: 1e7e b23d c9fd 16be cbf3 9ebd 29fe abbd
000000a0: d56f c13d 1914 943d a2f7 a23d 06c7 f93b
000000b0: 1650 09bb 8f34 ce3c 2aff ddbd b5de b63d
000000c0: 3744 bdbc 4529 8a3d d90d 9a3d aedd 813d
000000d0: 467d 34bd 22c0 ac3c 8a68 02bd 1455 983c
000000e0: 81e2 59bd 1004 f83d f9fc b7bb 945c 8d3d
000000f0: d5d5 28bd f5c3 1bbd 4ee7 293c 1760 e53d
00000100: c64b 6e3d aa98 ffbd f503 b5bc 2653 88bd
00000110: ee86 373d 7964 93bd e619 b2bd 4cc6 c7bd
00000120: 38fa 003d 7cdc 3b3c 7101 c5bc 728f da3d
00000130: 8266 0f3b bfcf a8bd 257a a83d 3c84 ae3b
00000140: ce3d 16bd ec67 023e 3b2a 2a3d a1c6 013e
00000150: 7e75 50bd 1757 623d c3f0 043c 2a78 d0bd
00000160: d47f c7bd cae0 603d 0331 dc3d 5fa0 c6bd
00000170: 4108 263c 73cd 783c 3cce 7b3d 4093 73bd
00000180: 25b5 c33d ff0c c43d 6dc8 f23d bc83 283d
00000190: de5f eebc 6bb6 da3d b22b c5bd ce5d 7cbd
000001a0: 5f51 abbb e9c0 a2bc c17e 62bb e765 3c3d
000001b0: 7e2d c93d 4103 a7bd 5845 8abd ab3e acbd
000001c0: aa76 f23d b96f 6e3d cf21 5d3d a740 0c3b
000001d0: a1c0 dcbb 8b3f 9abd b4aa a83c 37fd d43d
000001e0: 3dd5 543d 1e0b dcbd 2520 083e 296d e2bd
000001f0: 9464 853d 0607 e9bd 96bc cabd 9a6a 233d
00000200: c71c d33d ee44 8e3c 1d59 e03d d564 cabd
00000210: 9869 953d faed 79bd dd38 ce3b cbaf 25bd
00000220: 1b8a 37bd dfe1 f53c 167f ff3d 5c18 fa3d
00000230: e5e8 14bd 3728 013d 3f63 75bd f330 ef3d
00000240: bafd 553d 9fbe 28bd e8f5 dbbc 4b0b 4d3d
00000250: 3e1b 9dbd f51b 5c3d 822d 723d 70ac 873d
00000260: dab6 f1bd d1f1 21bd 0ebd 8c3d 0044 b53c
00000270: e90c f5bc 1ade 84bd 2a80 b83d 6ce2 103d
00000280: 7a6f b83d 4796 76bd 5d1d a53c f60d 133d
00000290: c0a1 bcba 7ef0 063e 3c02 bcbc 86fa f8bd
000002a0: 7f85 c63d fd00 eb3d 43a6 293d 30aa b8bd
000002b0: b9e8 aebd e1bb 8b3c a518 58bc 37c8 50ba
000002c0: 6347 0c3d 73ae 31bd 67f1 083c 58fb 62bd
000002d0: 38ff 323c a6ba d6bd 57e7 14bd 6dd2 e63c
000002e0: 95ac acbd e5d6 86bd 356e b53d 449a bdbd
000002f0: 3c05 7e3c c7ec 58bc e283 af3d c8b0 a0bd
00000300: bcf0 143d 3944 66bc 36b6 6dbd 52bb 243c
00000310: 68e9 46bd a3f6 70bc e21a 4fbd b2f6 34bd
00000320: 61c6 f73c d498 1fbd 1787 fdbd 4cae 8cbd
00000330: 77e8 06bc a436 193e 51e3 923c c3f5 ac3d
00000340: 16da b13d 8b83 7f3c f578 93bc 8683 423d
00000350: 147b a43d 09b6 0b3e a1da 4bbc 1759 db3d
00000360: bd6e 94bd 3b97 debd ac69 343d a17c 4c3d
00000370: 87b1 da3d 9531 82bd b204 e23d 9afe 6d3c
00000380: 3798 ce3c 7b42 58bd e2ee ab3d 461b 80bd
00000390: ac66 873d 868c 323b e384 2abd 2e7b 23bd
000003a0: 7b51 a3bd 716a e6bd 5d49 c6bd 9948 b73d
000003b0: 4188 7abb f57e 353c d67f be3c dce4 a9bd
000003c0: ef12 de3d 9af6 bebd 374f 3f3d a31d 0c3d
000003d0: 43e0 f63b e281 80bc 8af0 b83b df88 973d
000003e0: da7b f0bd 1dae e8bd e228 923c ed8f b13d
000003f0: f924 4bbd e6ed a8bd a39a d2bd 80d4 723d

weight_hh_l0_reverse f4 [256, 64]
-0.11042224 0.087245524 0.07103914 -0.11712079 0.038119685 0.07917957 -0.074917644 0.05215925
0.036502447 0.08666883 0.11153679 0.058856603 0.088486545 0.11609023 -0.092775986 -0.0066810697
0.036445722 0.0628287 0.004095652 0.001572052 -0.061317123 0.0685543 0.041560136 -0.03738622
-0.01262177 -0.020700136 0.015846541 0.08738722 0.074225664 0.037747126 0.08177523 -0.0777065
-0.0130161885 -0.051360708 0.05360291 0.07988594 -0.12350253 -0.042219926 -0.013578458 0.06314082
0.082203455 -0.085947715 -0.08022795 -0.055565756 0.04917634 0.11327078 0.0017965713 0.014693322
0.08766108 0.10549101 0.037188303 -0.06279502 -0.03575571 -0.09683093 0.0027218761 0.039223447
0.040344432 -0.0455411 0.00088482385 0.060407903 0.004870245 -0.041222632 -0.10346424 -0.0020695198
-5.5903394e-05 0.006732208 -0.013085186 0.069539994 -0.0064100735 0.10083157 -0.03929247 0.062445395
0.05620451 0.0467161 -0.033628043 0.056780465 -0.06471335 0.09264494 -0.11003232 0.07917725
-0.09389209 0.10822364 0.09077959 0.045277257 0.048166372 0.11684704 -0.025123892 -0.0068579875
-0.095497735 0.0010014041 -0.001725428 -0.060562987 0.011246671 -0.010420851 -0.054210193 0.013924803
0.1185393 0.04406116 -0.018445775 -0.059582036 -0.038361844 -0.017467182 -0.00906123 0.015350284
0.103690356 -0.10947756 0.08101019 -0.04110287 0.121725015 0.058953058 0.04508635 -0.09972916
-0.070806615 -0.12117791 -0.026104668 -0.015173354 0.0086713275 0.07586239 -0.057256043 0.10845955
-0.027463611 -0.009320446 -0.06025256 -0.031104008 0.084238686 0.08259376 0.10371831 0.028830986
0.04903228 -0.08021742 0.016582577 0.017962549 -0.107421264 -0.032000512 -0.076624356 0.021949269
0.01975094 0.09810606 -0.12260785 -0.016705964 0.09029902 0.018246338 -0.0032617669 -0.056565426
0.025871428 0.04505575 -0.048643377 -0.039627727 -0.07303529 0.113605544 -0.03215436 -0.08128462
0.09948544 -0.009305923 0.0043742154 -0.024712017 -0.10213857 -0.110401265 -0.035554375 0.024673868
0.09050599 -0.064095184 0.09861162 -0.059323724 -0.11733263 0.085383534 -0.113512784 -0.020267125
-0.102411166 0.03093547 0.036548126 0.0961703 0.040352058 -0.031484418 -0.09096989 -0.09077007
-0.096305616 0.10772789 0.05731318 0.051256016 0.055823818 -0.08327921 0.020515114 0.0046031517
0.09201457 -0.057748992 -0.035853844 0.01991952 0.045892827 0.0362883 0.10493687 -0.10876818
0.11351 0.01048805 -0.13860147 -0.03702089 0.035125874 -0.10098477 0.077384345 0.04126795
-0.1149662 -0.014143492 -0.05481758 -0.04606226 -0.083023325 -0.09065643 -0.0035669808 0.12330022
0.065057136 0.11300241 -0.04793587 0.101196535 0.046510823 0.024530932 0.08180157 0.12944433
-0.009165081 0.0453479 0.0054439385 -0.05851842 0.09278174 0.12472673 0.05048849 0.13497686
-0.008903336 -0.09627438 0.11788854 0.018099833 0.11368545 0.1347191 -0.07975216 -0.049906794
-0.059211895 0.016849376 0.023864157 -0.104511626 -0.04261146 -0.08626121 0.102524884 -0.056841873
-0.05107897 -0.10276376 0.09946987 0.13354337 0.11440041 0.10810318 -0.043682028 -0.08029348
-0.104041375 0.076660305 -0.10366658 0.06540626 -0.11201303 0.040033925 -0.039354663 0.037246875
00000000: 0e25 e2bd c8ad b23d f87c 913d 06dd efbd
00000010: 6323 1c3d e628 a23d 6c6e 99bd f0a4 553d
00000020: 9783 153d 6d7f b13d 676d e43d 9f13 713d
00000030: 6f38 b53d b7c0 ed3d 5601 bebd e0ec dabb
00000040: 1c48 153d 55ac 803d d234 863b 500d ce3a
00000050: aa27 7bbd 3266 8c3d f63a 2a3d 4b22 19bd
00000060: 8acb 4ebc 5593 a9bc 9bd0 813c 12f8 b23d
00000070: a003 983d bb9c 1a3d c679 a73d 9624 9fbd
00000080: da41 55bc 9b5f 52bd ba8e 5b3d 3d9b a33d
00000090: e5ee fcbd cdee 2cbd 2e78 5ebc f94f 813d
000000a0: 495a a83d 5b05 b0bd 8d4e a4bd eb98 63bd
000000b0: 216d 493d 83fa e73d ee7a eb3a 42bc 703c
000000c0: a787 b33d ac0b d83d c352 183d ad9a 80bd
000000d0: 9474 12bd 4b4f c6bd 8161 323b c4a8 203d
000000e0: 3440 253d 4e89 3abd 86f3 673a 476e 773d
000000f0: 9396 9f3b 10d9 28bd 0fe5 d3bd c8a0 07bb
00000100: d079 6ab8 db99 dc3b 3f63 56bc fc6a 8e3d
00000110: 980b d2bb c880 ce3d 24f1 20bd bec6 7f3d
00000120: b336 663d 6259 3f3d 8fbd 09bd a292 683d
00000130: 6f88 84bd a1bc bd3d a058 e1bd af27 a23d
00000140: 7f4a c0bd 5ba4 dd3d a6ea b93d a574 393d
00000150: 1a4a 453d 804d ef3d 9fd0 cdbc f8b8 e0bb
00000160: 5194 c3bd 8c41 833a c227 e2ba e510 78bd
00000170: f543 383c 38bc 2abc 820b 5ebd db24 643c
00000180: bcc4 f23d 7a79 343d 981b 97bc 4b0c 74bd
00000190: 4f21 1dbd 5617 8fbc 8e75 14bc c27f 7b3c
000001a0: 9c5b d43d c535 e0bd ace8 a53d 7c5b 28bd
000001b0: f74a f93d c378 713d 77ac 383d cd3e ccbd
000001c0: 0f03 91bd 202c f8bd 75d9 d5bc a999 78bc
000001d0: 2f12 0e3c be5d 9b3d 5085 6abd 0a20 de3d
000001e0: 5efb e0bc c9b4 18bc 63cb 76bd d5cd febc
000001f0: 5585 ac3d eb26 a93d 446a d43d f62e ec3c
00000200: 12d6 483d 0849 a4bd 2fd8 873c 3226 933c
00000210: aeff dbbd f812 03bd 3bed 9cbd f4ce b33c
00000220: b9cc a13c d4eb c83d d319 fbbd f2da 88bc
00000230: b1ee b83d 5879 953c 5ec3 55bb 26b1 67bd
00000240: 51f0 d33c 618c 383d 473e 47bd af50 22bd
00000250: 8793 95bd 06aa e83d 4ab4 03bd 8d78 a6bd
00000260: 06bf cb3d df77 18bc 9455 8f3b db70 cabc
00000270: 072e d1bd 0f1a e2bd 77a1 11bd da20 ca3c
00000280: 345b b93d 5644 83bd e4f4 c93d 6ffd 72bd
00000290: 174c f0bd 90dd ae3d 6479 e8bd 3e07 a6bc
000002a0: f2bc d1bd 626c fd3c 7db3 153d eff4 c43d
000002b0: 3348 253d cef5 00bd 6c4e babd a9e5 b9bd
000002c0: e13b c5bd 71a0 dc3d 3ac1 6a3d d4f1 513d
000002d0: 84a7 643d 4a8e aabd 500f a83c 09d6 963b
000002e0: 2372 bc3d 358a 6cbd 7bdb 12bd 432e a33c
000002f0: 1efa 3b3d 0aa3 143d 24e9 d63d dac1 debd
00000300: ee77 e83d 12d6 2b3c 8bed 0dbe 37a3 17bd
00000310: 26e0 0f3d 1ad1 cebd af7b 9e3d 9508 293d
00000320: 6673 ebbd 1bba 67bc 6688 60bd c8ab 3cbd
00000330: 2208 aabd 14aa b9bd 02c4 69bb d384 fc3d
00000340: ad3c 853d cf6d e73d 6758 44bd 2140 cf3d
00000350: 2282 3e3d 18f5 c83c 9587 a73d 0e8d 043e
00000360: 2329 16bc b8be 393d 1163 b23b 03b1 6fbd
00000370: 5a04 be3d ba70 ff3d 05cd 4e3d 6037 0a3e
00000380: 4cdf 11bc 812b c5bd 8c6f f13d 1a46 943c
00000390: ebd3 e83d cef3 093e 1a55 a3bd 116b 4cbd
000003a0: 2c88 72bd b407 8a3c c47e c33c 310a d6bd
000003b0: 5b89 2ebd b8a9 b0bd 91f8 d13d 06d3 68bd
000003c0: 2f38 51bd ce75 d2bd dcb6 cb3d 98bf 083e
000003d0: c34a ea3d 3365 dd3d edeb 32bd e870 a4bd
000003e0: a513 d5bd 1400 9d3d 254f d4bd b8f3 853d
000003f0: 1667 e5bd 9dfa 233d 5b32 21bd 2e90 183d

bias_ih_l0_reverse f4 [256]
0.09756985 -0.036861494 -0.07115775 0.014467326 -0.076501474 0.10284028 -0.064709574 0.026968582
-0.052171983 0.0017682414 0.11453376 0.043855805 0.061101403 -0.06693417 -0.09081112 0.017180799
0.01479554 -0.083615564 0.0068082344 -0.046637442 0.14349905 -0.045446713 0.1049703 -0.012504047
-0.08496374 0.1370091 0.08470566 -0.040314578 0.0023642995 -0.025397977 0.06430787 -0.04057885
0.08545267 -0.09364686 -0.111818306 -0.06983981 -0.12150086 -0.021034926 0.11750057 -0.0017793395
0.084934056 -0.0037817676 0.027354054 0.11028049 0.08267149 0.028835934 -0.03145268 -0.05964104
-0.07650661 -0.10614215 0.026358705 0.021241887 0.008987007 0.06739103 0.13125688 -0.0075826645
-0.08930631 0.043769043 0.0385065 -0.011586879 0.094088875 0.049411718 -0.0354181 -0.020393081
0.107597046 0.008940801 0.0935551 -0.022752648 0.04206256 0.07195043 -0.013625458 -0.03192392
0.013962198 -0.041220624 -0.1077839 0.14984907 0.078076206 0.016722685 0.031845585 0.027957054
0.059452165 -0.07457589 0.12137565 0.011685326 0.04104671 0.10154449 0.04608577 -0.0143724885
0.11413482 0.06695795 -0.043508664 -0.039779767 0.025096249 0.013302814 0.101949215 -0.09584521
-0.0595435 -0.11797535 0.07169872 0.022898847 -0.060204547 0.08111739 0.022472372 -0.01609943
0.01202934 0.11773236 0.11142521 -0.036842763 0.091021456 -0.038185135 0.0918244 0.068623446
0.010663132 0.12079007 0.028562771 -0.008336436 0.10694217 0.10422725 -0.0021180518 -0.012711817
-0.109458275 0.03778391 -0.07350845 -0.08464591 0.09412723 -0.03359216 0.027975675 0.10888837
-0.114525035 0.017964764 0.08185645 0.05456113 0.012324275 -0.12623063 0.0009742004 0.046832897
0.087815836 -0.073453344 0.10374105 0.02198328 0.07519496 -0.10671305 -0.015065131 -0.07701047
0.07611637 -0.14384261 0.10814573 0.03459377 0.04438249 0.038902324 -0.09591402 0.08853042
0.009120747 -0.061235484 -0.011353736 -0.029315878 0.04966801 -0.121322416 -0.056606237 -0.094330095
-0.003856394 -0.07227239 0.091621816 0.043273658 0.09102422 -0.098650984 0.08837517 0.06671499
0.057001553 -0.016884524 0.007184898 -0.061319076 -0.090611674 -0.026768439 -0.06499184 0.07934093
0.054596037 -0.027750837 0.10466571 -0.09437183 0.12136155 0.10706582 0.00046140712 0.055877365
0.034136657 -0.018269263 0.08741165 0.12643437 -0.028219003 -0.009458151 0.060348287 0.070487425
-0.05203154 -0.07945297 0.025860824 0.03496195 0.008476925 -0.029376509 -0.094580695 -0.11373379
0.06233406 0.0766008 0.027373582 0.098727524 -0.1053101 0.1009869 0.040428348 0.035031546
-0.09881695 0.12470168 -0.072539166 0.11097088 0.11151713 -0.012806841 -0.0064864545 -0.047709633
0.05121672 -0.010411909 -0.068565264 0.010854659 -0.017106008 0.035559583 -0.054245174 -0.016163357
0.13046212 0.012899328 0.01655097 0.07577489 0.05007918 0.054141756 0.094782256 0.042798243
0.07351174 0.027288102 -0.056995917 0.11082293 -0.075791456 0.025447166 -0.1189943 0.015432584
0.053973008 -0.095493145 0.11120573 0.118773244 0.045858636 -0.08632151 -0.012717071 -0.10624927
0.11785089 -0.026877297 0.03548927 -0.012284162 -0.0075079603 0.13487314 -0.032201294 -0.059955683
00000000: b4d2 c73d 14fc 16bd 28bb 91bd 5d08 6d3c
00000010: ceac 9cbd ed9d d23d 7486 84bd 37ed dc3c
00000020: 4ab2 55bd 56c4 e73a ad90 ea3d 25a2 333d
00000030: 7745 7a3d c814 89bd 2efb b9bd bfbe 8c3c
00000040: fe68 723c a33e abbd 9c17 df3b e706 3fbd
00000050: 6af1 123e 5526 3abd abfa d63d c6dd 4cbc
00000060: 7801 aebd 1d4c 0c3e 297a ad3d e620 25bd
00000070: 5df2 1a3b 6b0f d0bc d8b3 833d 0236 26bd
00000080: cf01 af3d edc9 bfbd ff00 e5bd 2d08 8fbd
00000090: 71d5 f8bd 7051 acbc 24a4 f03d ba38 e9ba
000000a0: e8f1 ad3d 88d7 77bb 9c15 e03c bdda e13d
000000b0: ac4f a93d 5639 ec3c 86d4 00bd 2a4a 74bd
000000c0: 7faf 9cbd 0e61 d9bd 36ee d73c 7703 ae3c
000000d0: 3d3e 133c 4f04 8a3d 3468 063e 0078 f8bb
000000e0: 3ae6 b6bd 2b47 333d feb8 1d3d e5d6 3dbc
000000f0: abb1 c03d f163 4a3d 9212 11bd 640f a7bc
00000100: d75b dc3d 707c 123c d199 bf3d c363 babc
00000110: ca49 2c3d bf5a 933d 503d 5fbc a8c2 02bd
00000120: b4c1 643c f5d6 28bd cebd dcbd 0972 193e
00000130: 6be6 9f3d 03fe 883c 8470 023d 3106 e53c
00000140: 1d84 733d 3fbb 98bd cc93 f83d cf73 3f3c
00000150: 9820 283d 8ff6 cf3d 6fc4 3c3d 967a 6bbc
00000160: 84bf e93d 4021 893d 2436 32bd 1cf0 22bd
00000170: a696 cd3c 0cf4 593c c0ca d03d 7e4a c4bd
00000180: e3e3 73bd 0f9d f1bd c7d6 923d 5d96 bb3c
00000190: 0b99 76bd e020 a63d fb17 b83c f4e2 83bc
000001a0: b516 453c aa1d f13d e732 e43d 70e8 16bd
000001b0: 7569 ba3d 0468 1cbd 6e0e bc3d 738a 8c3d
000001c0: 6bb4 2e3c c960 f73d 79fc e93c 8c95 08bc
000001d0: 7f04 db3d 1975 d53d 03cf 0abb 3a45 50bc
000001e0: a92b e0bd 4dc3 1a3d 998b 96bd d65a adbd
000001f0: c7c5 c03d ef97 09bd 3e2d e53c de00 df3d
00000200: 1a8c eabd d72a 933c 5ba4 a73d 7e7b 5f3d
00000210: c2eb 493c 9a42 01be 7b61 7f3a dad3 3f3d
00000220: cad8 b33d b56e 96bd 3076 d43d 4816 b43c
00000230: d1ff 993d 5f8c dabd bdd3 76bc aab7 9dbd
00000240: e6e2 9b3d 7a4b 13be 827b dd3d 32b2 0d3d
00000250: 6aca 353d 0b58 1f3d 926e c4bd 704f b53d
00000260: 306f 153c 0fd2 7abd 0505 3abc da27 f0bc
00000270: af70 4b3d e377 f8bd f1db 67bd 2330 c1bd
00000280: 8ebb 7cbb 8c03 94bd 38a4 bb3d b83f 313d
00000290: e86a ba3d 8709 cabd 0bfe b43d dea1 883d
000002a0: 767a 693d 6a51 8abc 4b6f eb3b b629 7bbd
000002b0: 9d92 b9bd 7c49 dbbc 711a 85bd 7f7d a23d
000002c0: 18a0 5f3d b955 e3bc fa5a d63d 0546 c1bd
000002d0: 688c f83d 5345 db3d 04e9 f139 aadf 643d
000002e0: e1d2 0b3d 6ca9 95bc e104 b33d 0378 013e
000002f0: 8a2b e7bc 5cf6 1abc c42f 773d b65b 903d
00000300: 061f 55bd 3db8 a2bd 14da d33c 4334 0f3d
00000310: cde2 0a3c 01a7 f0bc 86b3 c1bd 43ed e8bd
00000320: 0052 7f3d e1e0 9c3d 903e e03c a831 ca3d
00000330: d2ac d7bd 38d2 ce3d 3298 253d 3d7d 0f3d
00000340: 8b60 cabd 9863 ff3d 6a8f 94bd b344 e33d
00000350: 1863 e43d c9d3 51bc 538c d4bb 2d6b 43bd
00000360: a0c8 513d b696 2abc f26b 8cbd bdd7 313c
00000370: e621 8cbc eda6 113d 3030 5ebd 0469 84bc
00000380: dd97 053e b457 533c e695 873c de2f 9b3d
00000390: d41f 4d3d bfc3 5d3d 331d c23d 364d 2f3d
000003a0: 538d 963d 4c8b df3c 8d74 69bd 22f7 e23d
000003b0: 8d38 9bbd 9376 d03c 49b3 f3bd f3d8 7c3c
000003c0: cd12 5d3d e991 c3bd d4bf e33d 633f f33d
000003d0: 44d6 3b3d 55c9 b0bd 435b 50bc 3899 d9bd
000003e0: cf5b f13d c72d dcbc 325d 113d 8343 49bc
000003f0: 5605 f6bb 2f1c 0a3e 81e5 03bd 1794 75bd
