model/lstm_8.model (torch, 669851 bytes, 17 tensors)

weight_ih_l0 f4 [256, 64]
-0.037495013 0.023661356 -0.02118377 -0.169334 -0.085051715 0.04521304 0.008649646 -0.0077108387
0.08970816 -0.007753873 -0.10239102 0.019728046 -0.05684409 0.16475667 -0.006278178 0.023667447
0.004350406 -0.0054752356 0.04335585 0.068867706 -0.09562449 0.022580527 0.13075429 -0.08725552
0.0076384363 -0.03496492 -0.023816925 -0.00043358078 0.079351835 -0.13771413 -0.08094321 0.04121504
-0.09675557 0.02696846 -0.0392752 0.103770755 0.043549612 -0.13599044 0.048056882 -0.09120432
-0.06987889 -0.09239175 0.03879221 0.1392013 0.0044968976 0.09137839 -0.035102185 0.16990337
0.026097788 -0.03770115 -0.13350993 0.038357016 0.00086522975 0.089638084 -0.03287031 -0.05362428
-0.1750446 -0.07207928 0.05582257 0.10132868 -0.17751786 0.045916695 -0.05260337 0.0051144403
-0.0012820014 0.07633922 -0.09185594 0.022665447 -0.09331882 0.07476341 0.037947837 -0.12838653
-0.070429996 0.0856309 0.0022065807 0.09143534 0.013821583 0.12830213 0.08375503 0.082463324
0.004466296 -0.06857435 -0.07415539 -0.029923344 0.10237474 -0.10244021 0.02526006 -0.08602743
0.026178403 0.10819457 0.09493169 -0.036022324 0.07428648 0.06471799 0.10518559 -0.0116166575
0.09577123 0.050619245 -0.08053794 -0.0063203145 0.05082114 -0.15068434 -0.09237261 0.06733833
-0.0773791 -0.0014100228 0.047637317 0.105431385 0.035939243 0.11801077 0.06999786 0.060658015
-0.045982607 -0.0040391576 0.06295051 0.093061924 -0.004042424 0.031138983 -0.046198852 -0.07755347
-0.10646547 0.0691657 0.018626451 -0.10520054 -0.0019309871 0.08516992 0.05885229 0.13865122
0.08554399 0.09623045 -0.11638979 -0.086292736 0.0047127125 0.0029437698 0.038387906 -0.080182835
-0.0894576 -0.0060771657 -0.09250858 0.085027725 0.15551387 -0.0056481822 -0.047275633 0.022691667
0.07740491 -0.008412616 0.007652188 -0.14398347 0.0026952627 0.07246533 -0.04468388 0.10891931
-0.027695933 0.025800537 -0.046701424 0.09730743 0.04745933 0.084468886 -0.044938073 -0.031156275
0.060821537 -0.118733734 -0.12089637 0.12272861 -0.015087088 -0.09266982 -0.0128423255 -0.010930638
-0.08510445 -0.03960877 -0.008168812 0.08753295 -0.03296562 -0.0857767 0.058002066 0.018770726
0.024243487 -0.066825144 -0.043957647 0.0127288895 0.0685759 0.03351656 0.026542287 -4.9169117e-05
-0.064813994 0.10259487 0.11414898 -0.028483175 -0.116410926 0.06699185 -0.055469047 0.040968783
0.118374 0.057373386 -0.08035029 -0.0066405768 -0.017101856 -0.033662196 0.110294856 -0.11401772
0.033285424 -0.035089996 0.130396 0.044613786 0.04411919 0.0009456893 -0.010180564 0.103654936
-0.04818041 -0.10701695 -0.05258942 -0.09734127 -0.04676176 0.09873445 0.073630475 0.019596504
-0.04015628 0.007040458 0.10241733 -0.02791768 -0.181383 -0.0044074953 -0.055808168 0.043383803
0.050991166 -0.03028646 -0.07630945 -0.058238342 0.08932368 0.12128944 -0.18689111 -0.099427976
0.110548295 0.03933622 -0.014764147 -0.10757384 -0.14488822 0.11831032 -0.11560734 0.099404246
0.07558673 -0.070116624 -0.09365485 -0.030043151 0.0119675 0.03858675 -0.076486915 0.078696646
0.08651184 -0.06878762 -0.04347321 0.09081715 -0.024455057 0.057746913 0.12687701 0.0752832
00000000: 5f94 19bd 76d5 c13c 9689 adbc e465 2dbe
00000010: 982f aebd 4f31 393d 3fb7 0d3c 34ab fcbb
00000020: e9b8 b73d 3314 febb 62b2 d1bd b69c a13c
00000030: 59d5 68bd f9b5 283e 2db9 cdbb 3ce2 c13c
00000040: da8d 8e3b 9b69 b3bb e795 313d 830a 8d3d
00000050: c6d6 c3bd ccfa b83c 74e4 053e 06b3 b2bd
00000060: d94b fa3b 6037 0fbd b61b c3bc 3a52 e3b9
00000070: 3783 a23d ef04 0dbe 8ec5 a5bd 1ad1 283d
00000080: c927 c6bd f6ec dc3c 08df 20bd c385 d43d
00000090: 1461 323d 1441 0bbe 4bd7 443d 55c9 babd
000000a0: aa1c 8fbd e337 bdbd 95e4 1e3d c98a 0e3e
000000b0: b65a 933b 9824 bb3d 4fc7 0fbd 26fb 2d3e
000000c0: 07cb d53c 856c 1abd d4b6 08be 3f1c 1d3d
000000d0: 96d0 623a 2c94 b73d 05a3 06bd 22a5 5bbd
000000e0: e43e 33be 4d9e 93bd 35a6 643d 6985 cf3d
000000f0: 3ec7 35be 2513 3c3d a276 57bd 0997 a73b
00000100: d408 a8ba bd57 9c3d f81e bcbd e3ac b93c
00000110: f01d bfbd 8f1d 993d 316f 1b3d c277 03be
00000120: 9a3d 90bd 415f af3d 489c 103b 7442 bb3d
00000130: ec73 623c a261 033e c287 ab3d 88e2 a83d
00000140: 025a 923b b570 8cbd c8de 97bd cd21 f5bc
00000150: d9a9 d13d 2ccc d1bd 2fee ce3c 262f b0bd
00000160: 1774 d63c 1d95 dd3d 8c6b c23d 258c 13bd
00000170: 8323 983d de8a 843d 8b6b d73d cb53 3ebc
00000180: b523 c43d 2056 4f3d 13f1 a4bd a41a cfbb
00000190: d429 503d ff4c 1abe da2d bdbd aee8 893d
000001a0: ef78 9ebd 84d0 b8ba 591f 433d 69ec d73d
000001b0: 0735 133d a1af f13d 0a5b 8f3d 8a74 783d
000001c0: 4258 3cbd e95a 84bb 32ec 803d 4097 be3d
000001d0: 4f76 84bb 2e17 ff3c 023b 3dbd 5bd4 9ebd
000001e0: 910a dabd bfa6 8d3d 8096 983c 6173 d7bd
000001f0: 2d19 fdba 916d ae3d 190f 713d 96fa 0d3e
00000200: b031 af3d 7814 c53d c55d eebd 3fba b0bd
00000210: 196d 9a3b 43ec 403b a33c 1d3d e636 a4bd
00000220: 8c35 b7bd f622 c7bb 2375 bdbd 0423 ae3d
00000230: 073f 1f3e 6314 b9bb 18a4 41bd e0e3 b93c
00000240: 7786 9e3d 12d5 09bc 35bf fa3b 6770 13be
00000250: 01a3 303b b468 943d 7206 37bd 1611 df3d
00000260: 95e2 e2bc a65b d33c fe49 3fbd 1e49 c73d
00000270: b764 423d 06fe ac3d fc10 38bd 723b ffbc
00000280: 0120 793d ac2a f3bd 8498 f7bd 2359 fb3d
00000290: d52f 77bc adc9 bdbd 9e68 52bc 6b16 33bc
000002a0: 3e4b aebd ce3c 22bd 7bd6 05bc 7a44 b33d
000002b0: f506 07bd b2ab afbd 9393 6d3d 11c5 993c
000002c0: 479a c63c 9fdb 88bd ef0c 34bd d58c 503c
000002d0: 8571 8c3d a948 093d 366f d93c f03a 4eb8
000002e0: 33bd 84bd 421d d23d f1c6 e93d 8c55 e9bc
000002f0: da68 eebd 0633 893d 8333 63bd e2ce 273d
00000300: 116e f23d 5b00 6b3d b18e a4bd 3299 d9bb
00000310: 3119 8cbc 5fe1 09bd 45e2 e13d 1f82 e9bd
00000320: 4c56 083d 87ba 0fbd 8786 053e f2bc 363d
00000330: 53b6 343d 22e8 773a 61cc 26bc 0a49 d43d
00000340: d258 45bd b42b dbbd 0168 57bd dc5a c7bd
00000350: 4289 3fbd 4a35 ca3d 93cb 963d d988 a03c
00000360: e97a 24bd a4b3 e63b 2dc0 d13d 9eb3 e4bc
00000370: 77bc 39be c06c 90bb 1b97 64bd 37b3 313d
00000380: 1ddc 503d 4f1b f8bc 2148 9cbd 548b 6ebd
00000390: 55ef b63d 9966 f83d 6260 3fbe e5a0 cbbd
000003a0: 2567 e23d 041f 213d 52e5 71bc ac4f dcbd
000003b0: 945d 14be ae4c f23d 8bc3 ecbd 7494 cb3d
000003c0: 37cd 9a3d 4e99 8fbd 1dce bfbd 0e1d f6bc
000003d0: 5513 443c 240d 1e3d 2ca5 9cbd b52b a13d
000003e0: 1f2d b13d 86e0 8cbd f710 32bd 58fe b93d
000003f0: f955 c8bc 0788 6c3d 0cec 013e 142e 9a3d

weight_hh_l0 f4 [256, 64]
-0.1232653 0.14005162 -0.040268175 0.10164856 -0.08519039 0.12726104 0.041508157 0.03438576
0.23790714 0.019230114 -0.14191145 -0.028399272 -0.07144776 -0.010074563 0.06345679 -0.062564515
0.050118834 -0.057234243 0.10445553 -0.06221162 0.023817936 0.01226268 0.06537817 -0.05607856
0.023968535 0.10542652 -0.006674616 0.026429418 -0.08114174 -0.08171277 -0.17057917 -0.14639421
0.13445763 0.053227436 0.03525654 -0.07972369 0.10575537 0.069319025 0.07716744 0.022053858
0.027839886 -0.08712575 0.11875778 0.0553488 -0.12547065 0.024713071 -0.011172381 -0.14256579
-0.07295292 -0.011222117 0.025581023 -0.00017021853 -0.057041626 0.03164666 0.111886896 -0.041657098
-0.13487554 0.10137478 -0.13044253 -0.0031558736 -0.1993775 0.05932285 0.040057726 -0.013349111
0.09728359 -0.1414304 -0.09131282 -0.020187814 0.10022457 0.054727945 0.0028469295 -0.14159831
-0.094195604 0.023884429 -0.09411087 0.13265032 -0.06700641 0.025237465 -0.0984855 -0.17674302
-0.030525537 -0.115629666 0.10873505 -0.09842658 -0.093731955 -0.015234092 -0.12739103 -0.07812702
0.07564746 0.07963384 0.03994281 0.038543053 0.13337031 -0.009256475 0.063348725 -0.12554109
0.05680979 -0.07398547 0.0038038248 0.0018609549 -0.029101882 0.06612203 0.10814218 -0.0086304955
-0.14181405 0.07410618 -0.038372453 0.07208005 -0.03334026 0.0032046873 -0.03767253 0.09122776
0.15447712 0.03033194 -0.12469243 -0.08526336 0.106751435 0.10677874 -0.020649625 0.04281055
0.04485745 -0.0036553596 -0.02507842 -0.0785202 0.035905335 0.05174846 0.09854759 -0.076442964
0.05987458 0.09835346 0.1046477 0.11743678 0.077708535 -0.028860265 -0.10908515 -0.022725098
-0.042380445 -0.011465539 -0.09787509 -0.013377665 0.01919416 0.0032369841 -0.0050857235 0.061580136
-0.118302435 0.0032089418 -0.08505368 0.06832888 -0.026871318 -0.05700204 -0.14117041 -0.1457685
0.0521286 -0.029361347 -0.021113478 -0.13829029 -0.14374582 0.13608849 0.028046006 0.024098508
-0.060238574 0.04657408 -0.006900653 -0.065161586 0.12522013 0.09363778 0.013502369 -0.11848654
0.09560994 -0.013974109 -0.0006074717 0.06499498 -0.08263191 -0.10920532 0.07677552 0.079622015
0.10921486 0.031635627 0.09734267 0.13419864 -0.08371381 0.11976622 0.11345686 0.12557057
-0.07165106 -0.05751833 0.1299915 -0.008349349 -0.0644611 0.06552539 0.05441242 -0.07010192
-0.030709429 0.0894224 0.03903167 -0.046859052 -0.050595947 -0.12532888 0.058116067 -0.1225768
-0.0069664763 0.040798143 0.015873514 -0.10434669 0.00034374697 0.045558266 -0.12100485 -0.030411452
-0.12741224 0.1139094 -0.114864536 0.0055115446 -0.061283845 0.011376945 -0.09877867 0.03851437
0.021416105 0.10279723 -0.011887844 -0.09042759 -0.02428665 0.057820626 -0.008915114 0.082486615
0.025443088 0.0132308435 -0.10160151 0.049853276 -0.16040118 0.12595332 -0.07078402 0.092261575
0.02600209 0.15439394 -0.07194231 0.07129868 0.13409193 0.1390743 -0.06502301 0.047654428
0.0767789 -0.19575995 0.07275259 -0.059972685 0.10604407 -0.007359607 0.040142592 0.014551087
-0.051018663 -0.06116903 0.091515414 -0.10994901 -0.07887945 0.123893015 0.042730357 0.043356597
00000000: 8572 fcbd b169 0f3e 3ef0 24bd 1f2d d03d
00000010: 4d78 aebd b850 023e 7504 2a3d 15d8 0c3d
00000020: ee9d 733e 7988 9d3c 3c51 11be 97a5 e8bc
00000030: 3453 92bd c80f 25bc a2f5 813d d321 80bd
00000040: 6849 4d3d 746e 6abd c8ec d53d 9dd1 7ebd
00000050: d51d c33c 68e9 483c fde4 853d a2b2 65bd
00000060: a959 c43c dce9 d73d bdb6 dabb 8282 d83c
00000070: a42d a6bd 0659 a7bd 4eac 2ebe 5de8 15be
00000080: 43af 093e 0305 5a3d 2969 103d 2d46 a3bd
00000090: 4596 d83d 22f7 8d3d f609 9e3d 4baa b43c
000000a0: 7910 e43c fc6e b2bd 4737 f33d 6cb5 623d
000000b0: 617b 00be 1173 ca3c 5d0c 37bc c4fc 11be
000000c0: 5768 95bd f8dc 37bc 4b8f d13c b07c 32b9
000000d0: 7ba4 69bd ee9f 013d f524 e53d a2a0 2abd
000000e0: d01c 0abe 959d cf3d ba92 05be c6d2 4ebb
000000f0: 9e29 4cbe 84fc 723d 9213 243d 3bb6 5abc
00000100: 9e3c c73d 21d3 10be 3702 bbbd ea60 a5bc
00000110: 8a42 cd3d 692a 603d 8d93 3a3b 26ff 10be
00000120: a0e9 c0bd 47a9 c33c 33bd c0bd 7cd5 073e
00000130: a83a 89bd cdbe ce3c c4b2 c9bd 1ffc 34be
00000140: b110 fabc 3fcf ecbd 7bb0 de3d e093 c9bd
00000150: 8af6 bfbd 6a98 79bc cb72 02be 0f01 a0bd
00000160: 0eed 9a3d 1117 a33d 129b 233d 52df 1d3d
00000170: 3a92 083e 78a8 17bc fabc 813d d88d 00be
00000180: 62b1 683d b285 97bd 9749 793b 49eb f33a
00000190: 1267 eebc fd6a 873d a679 dd3d ec66 0dbc
000001a0: b437 11be fbc4 973d 6f2c 1dbd b59e 933d
000001b0: cc8f 08bd bb05 523b 834e 1abd 9fd5 ba3d
000001c0: 402f 1e3e b07a f83c bf5e ffbd 8e9e aebd
000001d0: 7fa0 da3d d0ae da3d 6729 a9bc 1e5a 2f3d
000001e0: 72bc 373d c28e 6fbb 4271 cdbc 33cf a0bd
000001f0: 7911 133d 31f6 533d 52d3 c93d 218e 9cbd
00000200: 0c3f 753d 8a6d c93d 8951 d63d b282 f03d
00000210: a725 9f3d 5d6c ecbc 0968 dfbd fc29 babc
00000220: 1e97 2dbd f5d9 3bbc bc72 c8bd fe2d 5bbc
00000230: 123d 9d3c 9523 543b 24a6 a6bb 743b 7c3d
00000240: 8c48 f2bd 1c4d 523b a030 aebd 03f0 8b3d
00000250: 3d21 dcbc f97a 69bd fa8e 10be 5644 15be
00000260: cd84 553d 3587 f0bc 2cf6 acbc f89b 0dbe
00000270: 1b32 13be c85a 0b3e bdc0 e53c 3c6a c53c
00000280: b9bc 76bd 76c4 3e3d df1e e2bb 7073 85bd
00000290: b539 003e 2ac5 bf3d 0a39 5d3c 12a9 f2bd
000002a0: 25cf c33d a9f3 64bc bc3e 1fba 171c 853d
000002b0: eb3a a9bd 0aa7 dfbd 7c3c 9d3d de10 a33d
000002c0: 0aac df3d 5c94 013d 985b c73d 5e6b 093e
000002d0: 2572 abbd fe47 f53d 125c e83d 9295 003e
000002e0: cabd 92bd 5798 6bbd 7e1c 053e b5cb 08bc
000002f0: 2e04 84bd 2d32 863d 8fdf 5e3d 9891 8fbd
00000300: 5792 fbbc 1723 b73d acdf 1f3d 47ef 3fbd
00000310: b23d 4fbd 3756 00be 1d0b 6e3d 8c09 fbbd
00000320: 0a47 e4bb f41b 273d 2c09 823c b8b3 d5bd
00000330: f038 b439 4e9b 3a3d 64d1 f7bd 7021 f9bc
00000340: 5b78 02be 5549 e93d 193e ebbd 309a b43b
00000350: c504 7bbd 5e66 3a3c 794c cabd 3ec1 1d3d
00000360: d470 af3c 5b87 d23d 3bc5 42bc 1a32 b9bd
00000370: ccf4 c6bc 52d5 6c3d b310 12bc beee a83d
00000380: 066e d03c 2ec6 583c 7414 d0bd f332 4c3d
00000390: 3540 24be e8f9 003e 36f7 90bd a3f3 bc3d
000003a0: 5602 d53c 7219 1e3e 7d56 93bd 0b05 923d
000003b0: 654f 093e 7e69 0e3e c92a 85bd 4a31 433d
000003c0: 423e 9d3d 4c75 48be 4fff 943d eba5 75bd
000003d0: a22d d93d dc28 f1bb 8f6c 243d af67 6e3c
000003e0: f2f8 50bd 608c 7abd 6f6c bb3d f22c e1bd
000003f0: 8d8b a1bd 9fbb fd3d 0706 2f3d b096 313d

bias_ih_l0 f4 [256]
0.1422744 -0.03131019 0.122696124 -0.03668193 -0.010553413 0.052729525 0.12242312 0.118327156
-0.024884261 0.04069157 0.08131226 -0.04855349 -0.03522055 0.13526742 -0.050508887 -0.01988329
0.13750748 0.159918 -0.018833242 0.068277545 0.06918842 0.06207868 -0.086204045 -0.049238093
0.11237534 -0.031012323 0.09173926 0.066524945 0.026697388 0.04244982 0.021322012 0.1387235
-0.08198059 -0.12897345 -0.06327977 -0.06801012 0.043212414 -0.059900258 -0.111242056 0.073894076
-0.05617109 0.111057274 0.12674138 0.028972443 -0.04995185 -0.003484871 -0.05366963 -0.084879234
-0.024835687 0.10767293 0.112379506 0.002442353 0.11526048 -0.044761263 -0.023246422 -0.058718663
-0.08157311 0.07244228 0.059152965 0.124905154 0.07219076 0.04825186 0.060532268 -0.0043535978
0.0035779304 -0.038861588 0.1228591 -0.09225406 0.013135858 -0.047261618 0.0128998 -0.029890113
0.13167644 0.12229973 0.09889416 -0.093783885 -0.052204184 -0.08619112 -0.08271067 0.13105059
-0.005916544 -0.07536164 0.07896618 0.028316164 0.056962315 -0.014541434 -0.07658599 -0.04243927
0.031760756 0.14292865 0.07265109 -0.10388389 0.053746432 0.1141228 -0.041141115 -0.07971774
-0.03200173 0.12439963 0.037541155 0.044766795 -0.007354495 0.12857221 0.0844895 0.095251195
0.09170394 -0.046588533 -0.076516435 0.14107805 -0.05509705 -0.028981093 -0.061624255 0.079542585
0.0013247076 0.04989844 -0.054269884 0.024166567 -0.107646324 0.0995845 0.08813161 0.15197963
-0.07930353 0.08953886 0.12514612 0.06663819 0.00160428 -0.063440114 -0.088742845 -0.07492015
-0.12571374 0.020816494 -0.11287585 0.045428436 0.01891087 -0.1045469 0.091644354 0.00015547767
0.10525827 0.06125504 -0.0106856525 -0.026096394 -0.01426258 0.006083005 0.113317296 -0.010237264
-0.087431714 0.16118684 0.099458456 -0.09756074 -0.11140417 -0.020497143 -0.102704495 -0.081744246
-0.12714602 -0.010214828 -0.06748019 -0.09277402 -0.044419013 -0.046854496 0.051306836 -0.059722383
-0.03987124 0.049431212 0.1305482 0.023175193 0.13051797 0.0035734198 -0.14649847 -0.054538216
0.122130714 0.06252842 0.08382505 0.028152533 0.07634525 -0.053174153 0.0023835166 0.028687116
-0.001670325 0.0076725953 0.041310888 -0.047399115 0.06415419 0.07814448 0.1080235 -0.060354717
0.11679137 -0.07365601 0.09798014 -0.080962166 -0.00883304 0.010705671 -0.008035469 0.072517805
0.0032581533 0.031812657 0.08378285 -0.08752505 -0.06132625 -0.032587033 0.10202315 -0.10123906
-0.102950804 0.08813177 -0.04513259 -0.06861258 -0.033374537 0.047761854 0.021605756 0.003649721
-0.04201603 -0.010457111 -0.05443249 -0.035494465 0.005643644 0.10827739 0.12250314 0.05534508
-0.07507077 0.17708251 0.03605543 0.12960118 0.06103507 0.11765854 6.529222e-05 -0.014643697
0.08568492 0.052518386 -0.02819439 -0.07159637 -0.032436658 -0.030344175 -0.08615401 0.00944851
0.11982969 -0.020439513 0.07736419 0.09046612 0.14770654 -0.023646824 0.010688787 0.0011790321
0.14023474 0.08879846 -0.052993495 -0.0396081 -0.022503536 0.0694391 -0.07007031 -0.047341887
0.038494352 -0.048210412 0.13856629 -0.07755422 0.04717128 0.025962798 -0.019084109 -0.09381644
00000000: 61b0 113e 1d3f 00bd 1b48 fb3d cb3f 16bd
00000010: 39e8 2cbc eafa 573d f9b8 fa3d 8255 f23d
00000020: 14da cbbc 34ac 263d 0b87 a63d 06e0 46bd
00000030: 6c43 10bd 8b83 0a3e 68e2 4ebd 48e2 a2bc
00000040: c3ce 0c3e 8bc1 233e 2c48 9abc 19d5 8b3d
00000050: a9b2 8d3d 3746 7e3d bf8b b0bd e2ad 49bd
00000060: 0b25 e63d 8e0d febc cbe1 bb3d 3b3e 883d
00000070: 7bb4 da3c dddf 2d3d 80ab ae3c 880d 0e3e
00000080: 71e5 a7bd 9e11 04be d398 81bd e448 8bbd
00000090: 80ff 303d f959 75bd e0d2 e3bd c755 973d
000000a0: a813 66bd ff71 e33d 7ec8 013e 9e57 ed3c
000000b0: 509a 4cbd 6f62 64bb b0d4 5bbd 2ad5 adbd
000000c0: 3674 cbbc a083 dc3d 3a27 e63d e20f 203b
000000d0: b00d ec3d 9657 37bd 486f bebc fb82 70bd
000000e0: cd0f a7bd 9e5c 943d 614a 723d 46ce ff3d
000000f0: c0d8 933d bea3 453d aff0 773d a0a8 8ebb
00000100: b67b 6a3b 542d 1fbd 8d9d fb3d b2ef bcbd
00000110: c837 573c 6695 41bd af59 533c 1cdc f4bc
00000120: 30d6 063e 4878 fa3d 0589 ca3d c411 c0bd
00000130: 0ed4 55bd f884 b0bd 3664 a9bd 2032 063e
00000140: 91df c1bb 3457 9abd 05b9 a13d 4df7 e73c
00000150: 5151 693d 323f 6ebc 1ed9 9cbd cdd4 2dbd
00000160: 9117 023d e35b 123e 18ca 943d 14c1 d4bd
00000170: 3825 5c3d 37b9 e93d 9683 28bd 0e43 a3bd
00000180: 3f14 03bd 3cc5 fe3d c1c4 193d 635d 373d
00000190: fafd f0bb 6fa8 033e d508 ad3d 0f13 c33d
000001a0: 46cf bb3d 9ed3 3ebd a6b4 9cbd c476 103e
000001b0: 72ad 61bd c269 edbc b769 7cbd 39e7 a23d
000001c0: d0a1 ad3a 4e62 4c3d 194a 5ebd f7f8 c53c
000001d0: ad75 dcbd f5f2 cb3d 587e b43d 8ca0 1b3e
000001e0: e469 a2bd 2660 b73d 4e26 003e 9a79 883d
000001f0: b446 d23a e4ec 81bd cfbe b5bd bc6f 99bd
00000200: 1abb 00be 5a87 aa3c 742b e7bd 2b13 3a3d
00000210: f8ea 9a3c af1c d6bd 09b0 bb3d b807 2339
00000220: a691 d73d 91e6 7a3d e012 2fbc 1bc8 d5bc
00000230: 99ad 69bc f253 c73b e612 e83d 33ba 27bc
00000240: 660f b3bd 2a0e 253e e0b0 cb3d edcd c7bd
00000250: df27 e4bd a0e9 a7bc bc56 d2bd 8769 a7bd
00000260: 9132 02be 185c 27bc 0e33 8abd 4e00 bebd
00000270: b6f0 35bd 80ea 3fbd 1e27 523d 759f 74bd
00000280: 0650 23bd 6278 4a3d 6dae 053e e7d9 bd3c
00000290: 81a6 053e 0930 6a3b b203 16be 7763 5fbd
000002a0: ab1f fa3d e60e 803d 78ac ab3d 24a0 e63c
000002b0: e65a 9c3d 24cd 59bd c634 1c3b 3e01 eb3c
000002c0: ceee daba 656a fb3b 9b35 293d 9325 42bd
000002d0: 4663 833d 370a a03d 6d3b dd3d 8236 77bd
000002e0: 5030 ef3d f6d8 96bd d0a9 c83d 7ecf a5bd
000002f0: 74b8 10bc d766 2f3c 33a7 03bc 3784 943d
00000300: be86 553b fd4d 023d 5896 ab3d 5540 b3bd
00000310: 3c31 7bbd fb79 05bd 83f1 d03d 6d56 cfbd
00000320: dfd7 d2bd 6e7e b43d f3dc 38bd c184 8cbd
00000330: bdb3 08bd efa1 433d 8efe b03c 2830 6f3b
00000340: 0019 2cbd 4d54 2bbc 9af4 5ebd a562 11bd
00000350: 51ee b83b 89c0 dd3d ede2 fa3d 86b1 623d
00000360: b4be 99bd 1e55 353e dcae 133d 2cb6 043e
00000370: e9ff 793d f6f6 f03d 7eed 8838 1eec 6fbc
00000380: 937b af3d 851d 573d ecf7 e6bc 1ea1 92bd
00000390: 4ddc 04bd 5994 f8bc 8371 b0bd eccd 1a3c
000003a0: 4569 f53d c470 a7bc 1e71 9e3d 4d46 b93d
000003b0: 6240 173e fcb6 c1bc 0620 2f3c c189 9a3a
000003c0: b299 0f3e f8db b53d b50f 59bd 1a3c 22bd
000003d0: 5659 b8bc 1636 8e3d 0681 8fbd 91e9 41bd
000003e0: 41ac 1d3d 4878 45bd 52e4 0d3e bfd4 9ebd
000003f0: ac36 413d efaf d43c 4756 9cbc d522 c0bd

bias_hh_l0 f4 [256]
-0.057277586 -0.12109679 0.074616775 0.103616014 0.004800448 -0.011629506 0.060493194 0.009864067
-0.06654598 -0.015957652 -0.09014154 -0.10537665 0.17167039 0.017644674 -0.05957752 0.106208876
0.018035058 0.11885197 -0.010072656 0.012416989 -0.06774105 -0.07051831 0.10442945 0.046367005
0.123204656 -0.017504467 -0.07855459 -0.052502576 -0.020357173 -0.09931047 0.037936628 0.12749138
0.028114906 -0.09390734 0.09191424 0.099134445 -0.038570173 -0.04869123 -0.07062236 0.12687793
-0.030176017 -0.03146182 0.12511516 0.011893676 0.06402028 0.028334161 0.121789426 -0.005618178
-0.00019502133 0.14357561 0.078308344 0.12616101 0.03345796 0.08148988 0.050528828 -0.10413417
0.056946583 0.12444648 -0.050030902 -0.0026000934 -0.032809492 -0.019759096 0.055704813 0.028905017
-0.05543207 0.023032231 -0.09473065 -0.08724074 -0.046504933 -0.08285666 -0.06256069 -0.080728106
-0.046424598 -0.06469722 0.034253977 -0.016165234 0.050200563 -0.037667684 -0.07764499 0.12073392
0.040684205 -0.04369097 0.09078123 -0.045024175 0.1495893 -0.10780546 0.062391173 -0.089525
0.019849783 0.16866918 -0.028937386 0.098519586 0.006482759 -0.04645967 -0.037588965 -0.07484078
0.054955963 0.063392565 0.11855756 0.08649991 0.080561735 -0.02308453 0.027660623 -0.07219958
0.03919004 0.023698073 0.13717885 0.052880153 0.1411411 -0.011871989 0.08222723 0.06039564
0.09234371 -0.0014777009 0.12016658 -0.0069241403 -0.056155395 0.10729089 -0.004586127 -0.0009479072
0.050680857 -0.031363897 0.0398041 0.062050246 0.12028805 -0.06071602 0.12150279 -0.069614165
0.08072227 0.13198304 -0.08972182 -0.060453814 0.10046178 -0.0875873 -0.035602145 0.036647134
-0.018673118 -0.008624079 0.042620968 0.096221484 -0.035042632 0.026445298 -0.07599076 -0.08275012
-0.12098665 0.058514662 -0.11058709 -0.06501619 -0.014221989 0.014329511 -0.14990263 0.0007863818
-0.07056539 -0.07428076 0.026875004 0.059102822 -0.018972514 0.007261237 -0.011251186 -0.03247508
-0.0029484653 0.024818843 0.12080002 -0.099427074 0.06660265 -0.06956525 -0.06967465 -0.051821966
-0.07882523 0.0057333107 0.008019079 0.13843313 -0.027597006 -0.07757289 0.00759063 0.108308315
-0.07161631 0.1221234 0.050032277 -0.07048753 -0.044345856 0.015068615 0.005470995 -0.088645734
-0.011711597 0.042448893 0.04338367 -0.024590865 -0.007913637 -0.06251386 -0.0021910092 -0.024965903
0.16622576 0.09527465 0.078366876 0.12755106 0.09389592 0.120051995 0.07444657 -0.10743855
-0.09392221 0.08557695 -0.00737657 0.13531837 -0.035254996 0.0158579 0.10748371 0.12458988
-0.051995255 -0.05027755 0.035376035 -0.049287323 0.08821353 -0.04098438 -0.061570726 0.120154046
-0.013041761 0.008282119 -0.064055204 0.09215998 0.049254935 0.104397744 0.10279334 -0.0865967
0.101264894 -0.03669366 -0.056683175 0.05857994 0.08190995 -0.050301656 0.05186804 -0.08862874
0.07638782 -0.0055336696 0.103803836 0.048773047 0.0039292946 0.14582989 -0.040245764 -0.009660243
-0.07375376 0.050003678 0.12980036 -0.0065490785 0.091294475 0.032320958 -0.056960914 -0.031835444
0.08897115 0.020079982 0.058076512 -0.023953477 0.013184833 0.10043202 0.12888955 0.112622865
00000000: e79b 6abd 9801 f8bd aed0 983d a234 d43d
00000010: 144d 9d3b af89 3ebc b6c7 773d e59c 213c
00000020: 4249 88bd 9fb9 82bc 219c b8bd b7cf d7bd
00000030: 5dca 2f3e 908b 903c 8f07 74bd 0a84 d93d
00000040: 42be 933c a968 f33d c807 25bc a070 4b3c
00000050: d2bb 8abd e76b 90bd 1cdf d53d 54eb 3d3d
00000060: b952 fc3d 8765 8fbc 3be1 a0bd f10c 57bd
00000070: 16c4 a6bc 4a63 cbbd 7063 1b3d 1a8d 023e
00000080: 3b51 e63c 7e52 c0bd 883d bc3d 0007 cb3d
00000090: c2fb 1dbd 7570 47bd 75a2 90bd 4aec 013e
000000a0: b233 f7bc 1cde 00bd 301e 003e b1dd 423c
000000b0: 111d 833d 0b1d e83c bc6c f93d b118 b8bb
000000c0: a47e 4cb9 7c05 133e 2060 a03d 5a30 013e
000000d0: 370b 093d 2be4 a63d 51f7 4e3d 4c44 d5bd
000000e0: d240 693d ccdd fe3d 34ed 4cbd 5466 2abb
000000f0: 3f63 06bd d4dd a1bc bb2a 643d 37ca ec3c
00000100: bd0c 63bd 17ae bc3c 2502 c2bd 46ab b2bd
00000110: f57b 3ebd c1b0 a9bd d21f 80bd c754 a5bd
00000120: b827 3ebd fa7f 84bd e64d 0c3d f46c 84bc
00000130: 1b9f 4d3d 6e49 1abd 5604 9fbd 5843 f73d
00000140: 7ba4 263d 4df5 32bd 82eb b93d 456b 38bd
00000150: f02d 193e 1cc9 dcbd e38d 7f3d e258 b7bd
00000160: 039c a23c 9db7 2c3e 190e edbc a3c4 c93d
00000170: 536d d43b 7f4c 3ebd e3f6 19bd 1f46 99bd
00000180: 8119 613d f6d3 813d 4ece f23d dd26 b13d
00000190: 8dfd a43d c51b bdbc 8898 e23c 60dd 93bd
000001a0: bc85 203d 7622 c23c 9d78 0c3e dc98 583d
000001b0: 4b87 103e bb82 42bc c066 a83d 6b61 773d
000001c0: b31e bd3d 6aaf c1ba e519 f63d e6e3 e2bb
000001d0: 3303 66bd 53bb db3d 3947 96bb fa7c 78ba
000001e0: bb96 4f3d 6e77 00bd a009 233d 6628 7e3d
000001f0: 9559 f63d 5db1 78bd 74d6 f83d df91 8ebd
00000200: b851 a53d 9026 073e 13c0 b7bd 6b9e 77bd
00000210: e8be cd3d f860 b3bd 8ed3 11bd 4e1b 163d
00000220: 5ef8 98bc 024c 0dbc 5393 2e3d c50f c53d
00000230: dd88 0fbd cfa3 d83c 0ba1 9bbd e578 a9bd
00000240: d9c7 f7bd 12ad 6f3d 7c7b e2bd 3527 85bd
00000250: 5803 69bc 53c6 6a3c 1380 19be 3025 4e3a
00000260: 9684 90bd 8320 98bd f828 dc3c cd15 723d
00000270: 3f6c 9bbc acef ed3b e556 38bc 9704 05bd
00000280: 0a3b 41bb e350 cb3c 0066 f73d 6ca0 cbbd
00000290: f866 883d 3a78 8ebd 95b1 8ebd 4543 54bd
000002a0: 1f6f a1bd 7fde bb3b 7562 033c 6ac1 0d3e
000002b0: 1e13 e2bc 89de 9ebd d2ba f83b c0d0 dd3d
000002c0: 92ab 92bd d51b fa3d a5ee 4c3d c45b 90bd
000002d0: 00a4 35bd 5ae2 763c 0846 b33b e58b b5bd
000002e0: 00e2 3fbc e4de 2d3d 13b3 313d c872 c9bc
000002f0: 33a8 01bc 4407 80bd 0997 0fbb 4b85 ccbc
00000300: 1637 2a3e 5b1f c33d d07e a03d bf9c 023e
00000310: 814c c03d d2dd f53d 7177 983d be08 dcbd
00000320: 4a5a c0bd f842 af3d 27b7 f1bb e690 0a3e
00000330: 8b67 10bd 6de8 813c 6b20 dc3d fb28 ff3d
00000340: faf8 54bd d5ef 4dbd 76e6 103d 81e1 49bd
00000350: 4ca9 b43d 3ddf 27bd 9631 7cbd 5313 f63d
00000360: 1cad 55bc bab1 073c 602f 83bd 5fbe bc3d
00000370: 8bbf 493d 7cce d53d 5185 d23d 9c59 b1bd
00000380: f863 cf3d 174c 16bd 9e2c 68bd 85f1 6f3d
00000390: 67c0 a73d 1c09 4ebd 9573 543d fc82 b5bd
000003a0: 3871 9c3d c953 b5bb 1b97 d43d 3fc6 473d
000003b0: 50c1 803b 6e54 153e bed8 24bd ff45 1ebc
000003c0: 360c 97bd a8d0 4c3d 63ea 043e a799 d6bb
000003d0: 99f8 ba3d fb62 043d d94f 69bd e265 02bd
000003e0: 8236 b63d c67e a43c a3e1 6d3d 153a c4bc
000003f0: 3305 583c 4eaf cd3d 9ffb 033e d1a6 e63d

weight_ih_l0_reverse f4 [256, 64]
0.0003645239 -0.16386132 -0.008991762 -0.002510243 0.062173024 -0.05051244 -0.055243153 0.06071769
0.05016714 0.10320563 0.042735007 -0.06576347 -0.09253142 0.11945659 -0.06038789 0.05193349
0.14486529 0.0015100047 0.17184207 -0.032882288 0.02267369 -0.10430699 0.029358348 -0.14020467
0.005234201 0.11705245 -0.15475231 0.0024282325 0.034709197 0.05408436 -0.022330329 -0.010836739
0.010374402 0.11517363 0.056845993 -0.031656485 0.04637484 -0.21444906 -0.07089888 -0.09402297
0.11253926 0.06739678 0.08312177 0.023634316 -0.0076666297 0.034628704 -0.10273477 0.11675391
0.0010802728 0.07070559 0.14525625 0.04480334 -0.037984077 0.041606683 -0.04766937 0.012350251
-0.047199197 0.09899173 0.0023467757 0.078956045 0.024936441 -0.021888781 0.015441789 0.13145699
0.0438425 -0.1578372 -0.04571183 -0.06449149 0.026469896 -0.0960076 -0.098036505 -0.13485527
0.04836179 0.021231158 -0.013957754 0.10580271 0.004364227 -0.057633314 0.053273313 0.05000968
-0.060010046 0.15863653 0.044558823 0.09770078 -0.050520178 0.050224297 0.008023385 -0.10567767
-0.07090527 0.06133246 0.116919056 -0.13144554 -0.00084770744 0.049980987 0.093503155 -0.045774113
0.087710075 0.14435248 0.16465095 0.011076945 -0.007566 0.044577766 -0.09933724 -0.032392427
0.0025041027 -0.023851564 0.026180629 0.04806906 0.060159616 -0.053417105 -0.027586961 -0.100388855
0.14200161 0.05103559 0.048353717 -0.0015364322 -0.010797355 -0.09644711 -0.031359322 0.11382896
0.036968667 -0.058625307 0.114059865 -0.13756457 0.056591824 -0.14165474 -0.06901948 0.031669494
0.1320317 -0.039078463 0.15616061 -0.09725302 0.060802717 -0.047058776 0.0082379095 -0.07519237
-0.035542842 0.04204965 0.12306929 0.13093732 -0.08797972 0.06667001 -0.03137146 0.12517342
-0.015904374 -0.008283595 -0.018492226 0.048120413 -0.08137362 0.04285064 0.06467664 0.05663422
-0.15196548 -0.04634165 0.09929194 -0.015344243 -0.07932832 -0.06893112 0.12808639 0.017980678
0.07957201 -0.087474555 0.020300364 0.0033624785 -0.007061456 0.13326466 -0.063658416 -0.11292577
0.11687848 0.14221829 0.061093383 -0.0672873 -0.06706194 -0.022237098 -0.0068433546 -0.0022840586
0.03522893 -0.05045797 -0.031424403 -0.1001404 0.017564999 -0.10411797 -0.07667996 0.01756322
-0.09097299 -0.046336863 0.04857556 -0.08093437 0.009990277 -0.025875252 0.10395967 -0.0763612
0.023336323 -0.05862706 -0.05743227 0.002316189 -0.06690334 0.0074047307 -0.024682209 -0.058019683
0.045520835 -0.024375195 -0.14398703 -0.065125294 -0.041544877 0.14610316 0.011753092 0.060227588
0.1000533 -0.010529942 0.004789841 0.015035533 0.06481221 0.10284663 -0.03061178 0.13958447
-0.08875178 -0.12688306 0.03781341 0.055873018 0.06127064 -0.043298177 0.06989402 -0.012153018
0.014696526 -0.033453003 0.095987156 -0.048513465 0.07443149 -0.0022230055 0.0012385304 -0.02359471
-0.1295108 -0.14622216 -0.19899431 0.09266344 -0.0034231904 0.024401262 0.031019785 -0.051944546
0.07054026 -0.14411464 0.08415553 0.05516209 -0.012045775 -0.04415955 -0.048496295 0.100113116
-0.15864047 -0.10043981 0.0049246494 0.04997973 -0.058021728 -0.07464076 -0.15528233 0.080614604
00000000: 921d bf39 43cb 27be 2f52 13bc e482 24bb
00000010: 24a9 7e3d 22e6 4ebd a546 62bd 1db3 783d
00000020: 0f7c 4d3d 795d d33d e70a 2f3d 00af 86bd
00000030: 1d81 bdbd a8a5 f43d 4b59 77bd 36b8 543d
00000040: 9157 143e 5aeb c53a 5ef7 2f3e 94af 06bd
00000050: 2dbe b93c e79e d5bd eb80 f03c d091 0fbe
00000060: a983 ab3b 32b9 ef3d 6477 1ebe fb22 1f3b
00000070: 3b2b 0e3d 9087 5d3d 18ee b6bc 948c 31bc
00000080: 65f9 293c 27e0 eb3d 58d7 683d 3baa 01bd
00000090: 8bf3 3d3d 8998 5bbe 6f33 91bd 1d8f c0bd
000000a0: fc7a e63d 5307 8a3d bf3b aa3d c19c c13c
000000b0: 5a38 fbbb d4d6 0d3d 9b66 d2bd ad1c ef3d
000000c0: f197 8d3a 18ce 903d 0ebe 143e b583 373d
000000d0: 3195 1bbd c56b 2a3d f540 43bd b558 4a3c
000000e0: f253 41bd 2dbc ca3d 5dcc 193b b5b3 a13d
000000f0: 8247 cc3c 1a50 b3bc 8fff 7c3c a99c 063e
00000100: 3194 333d 13a0 21be 543c 3bbd 1d14 84bd
00000110: 65d7 d83c a29f c4bd 5dc7 c8bd 8017 0abe
00000120: 0317 463d f7ec ad3c 10af 64bc 17af d83d
00000130: ca01 8f3b e910 6cbd 1e35 5a3d f3d6 4c3d
00000140: 18cd 75bd 9d71 223e 5083 363d 5917 c83d
00000150: 3fee 4ebd feb7 4d3d 8474 033c 896d d8bd
00000160: c836 91bd bf37 7b3d 4273 ef3d a999 06be
00000170: af38 5eba ddb8 4c3d 957e bf3d a37d 3bbd
00000180: 57a1 b33d 23d1 133e 429a 283e 137c 353c
00000190: 35ec f7bb 2d97 363d 5371 cbbd ecad 04bd
000001a0: df1b 243b 5b64 c3bc c278 d63c 10e4 443d
000001b0: ee69 763d e5cb 5abd 0dfe e1bc ac98 cdbd
000001c0: df68 113e b20a 513d 8c0e 463d 1c62 c9ba
000001d0: 64e7 30bc 1086 c5bd a272 00bd 281f e93d
000001e0: 756c 173d 1721 70bd 3898 e93d badd 0cbe
000001f0: d4cc 673d f10d 11be 165a 8dbd dfb7 013d
00000200: 5133 073e bd10 20bd 91e8 1f3e 972c c7bd
00000210: 450c 793d b4c0 40bd 4cf8 063c 75fe 99bd
00000220: 5f95 11bd 413c 2c3d c00b fc3d 6f14 063e
00000230: b62e b4bd 498a 883d 5c7f 00bd 762d 003e
00000240: e449 82bc eab7 07bc 027d 97bc e919 453d
00000250: 36a7 a6bd 2784 2f3d 3075 843d 49f9 673d
00000260: d79c 1bbe bed0 3dbd 9359 cb3d 6b66 7bbc
00000270: e376 a2bd c22b 8dbd 1429 033e 374c 933c
00000280: a6f6 a23d dc25 b3bd f34c a63c 075d 5c3b
00000290: c963 e7bb 8876 083e 585f 82bd a045 e7bd
000002a0: fc5d ef3d aca1 113e 0e3d 7a3d edcd 89bd
000002b0: c557 89bd 932a b6bc 383e e0bb 25b0 15bb
000002c0: 364c 103d 04ad 4ebd e0b6 00bd 6916 cdbd
000002d0: 79e4 8f3c cd3b d5bd 620a 9dbd bee0 8f3c
000002e0: 0c50 babd b9cb 3dbd 2bf7 463d ebc0 a5bd
000002f0: 42ae 233c 56f8 d3bc cfe8 d43d 4363 9cbd
00000300: d12b bf3c ee22 70bd 1a3e 6bbd 34cb 173b
00000310: 9e04 89bd 62a3 f23b 5832 cabc 0ca6 6dbd
00000320: 0e74 3a3d 7dae c7bc 5671 13be 6960 85bd
00000330: f62a 2abd 119c 153e 0a90 403c 34b1 763d
00000340: bfe8 cc3d c785 2cbc 19f4 9c3b 9957 763c
00000350: 44bc 843d 41a1 d23d 8ec5 fabc 3bef 0e3e
00000360: 7ec3 b5bd a2ed 01be 3ce2 1a3d 1bdb 643d
00000370: ecf6 7a3d 6e59 31bd 9924 8f3d 741d 47bc
00000380: b3c9 703c 0406 09bd ea94 c43d 0eb6 46bd
00000390: 896f 983d d8af 11bb 2f56 a23a b149 c1bc
000003a0: 7b9e 04be 43bb 15be 2ac5 4bbe 54c6 bd3d
000003b0: 9b57 60bb 28e5 c73c 341d fe3c cec3 54bd
000003c0: 6977 903d ca92 13be bc59 ac3d a5f1 613d
000003d0: a45b 45bc a5e0 34bd 0da4 46bd 1b08 cd3d
000003e0: a672 22be 63b3 cdbd f45e a13b 8cb7 4c3d
000003f0: 31a8 6dbd 41dd 98bd 5502 1fbe 4519 a53d

weight_hh_l0_reverse f4 [256, 64]
-0.08863024 0.054403596 0.03842548 -0.11547701 0.086195946 0.11041512 -0.06427072 0.026136462
0.065807536 0.11885642 0.14545822 0.060585573 0.124395825 0.04961698 -0.05346985 0.03819598
0.060258035 0.088246435 0.024588034 0.0014802535 -0.09969991 0.06009032 -0.0038931353 -0.06310378
-0.070443735 -0.04338123 0.024397891 0.07867084 0.041064184 0.043612655 0.051282816 -0.06364319
-0.0021348265 -0.06872147 0.023949495 0.07505755 -0.1470327 0.024915263 -0.01938333 0.060218867
0.110556215 -0.04956562 -0.048038617 -0.047873553 0.05612131 0.09564809 -0.03964948 -0.004013425
0.037536345 0.075571105 0.05826381 -0.062543795 -0.11035158 -0.13303426 0.027540948 0.06535201
0.015856137 -0.06214295 -0.048635133 -0.029671062 -0.021302214 -0.039319705 -0.07193832 0.0075274953
0.026954493 0.017079787 -0.023090437 0.07666444 -0.06555189 0.073750325 -0.048171505 0.07389141
0.017243339 0.030308675 -0.027162766 0.06839327 -0.04360945 0.083583556 -0.10363198 0.06330005
-0.05843422 0.08237984 0.10300581 0.05714598 0.015892748 0.09606537 -0.05189605 0.014854864
-0.14155057 0.0064365547 -0.005158998 -0.021564074 0.025266206 -0.087258525 -0.04910848 0.032409642
0.13033037 0.0044619287 0.024140205 -0.07565681 -0.07303793 -0.035038773 -0.026963808 0.059681457
0.10239334 -0.09293089 0.0723797 -0.042313103 0.116303675 0.04559007 0.05340108 -0.091971435
-0.086763866 -0.13189308 -0.025814937 -0.01869561 0.018814402 0.08526196 -0.090619676 0.098973535
-0.013498433 0.0141404895 -0.07061255 -0.07756856 0.12096607 0.10108699 0.13612263 0.017107204
0.07331252 -0.04371738 -0.087807596 0.01100213 -0.15673544 -0.010237632 -0.051132303 0.02050879
0.032639578 0.13388468 -0.12548538 -0.015325819 0.011418194 0.0141242575 -0.017712567 -0.052984074
0.0015689738 0.062318258 -0.10684103 -0.016209781 -0.075366616 0.09090166 -0.03999626 -0.08574357
0.12739538 -0.035798695 0.014378611 0.026955733 -0.07073448 -0.09340399 -0.06669852 0.05246998
0.1365524 -0.069616556 0.16213042 -0.057950594 -0.16501626 0.09508763 -0.106336415 -0.07553923
-0.061332356 0.096140295 0.036400586 0.0949205 0.1445484 -0.0007675552 -0.1911141 -0.123283
-0.14814912 0.086790286 0.1286666 0.09047499 0.042543545 -0.105922595 0.05798856 0.02083991
0.092818975 -0.054723423 -0.07269168 0.01632014 0.05247622 0.07258195 0.09853534 -0.080828816
0.085359894 0.043747474 -0.17802137 -0.033346836 -0.0026174267 -0.050777387 0.10393911 -0.012079941
-0.1777414 -0.019705253 -0.112447724 -0.09838188 -0.078681864 -0.11221461 0.067581326 0.15810074
0.047396902 0.11654982 -0.094274186 0.06610698 0.04355272 -0.034794033 0.054244798 0.12983151
-0.013977025 0.046338215 0.018244456 -0.033034395 0.06505539 0.12022799 -0.016024737 0.12780967
-0.012998213 -0.10655153 0.1220896 -0.0026119146 0.09051289 0.1810966 -0.08075149 -0.102915995
-0.038814258 0.020194018 -0.001489084 -0.12231942 -0.047709897 -0.13726221 0.10590281 -0.059433598
-0.039179124 -0.06758759 0.16484994 0.16951096 0.08312655 0.10258682 -0.17348424 -0.08707725
-0.110714056 0.11847074 -0.105389066 0.09953318 -0.13383049 0.03369042 -0.0686207 0.022267874
00000000: c583 b5bd 4ed6 5e3d 0964 1d3d 367f ecbd
00000010: 8087 b03d 5321 e23d 5ea0 83bd 221c d63c
00000020: 1ac6 863d ff6a f33d 00f3 143e 9428 783d
00000030: 3dc3 fe3d 2d3b 4b3d 3403 5bbd 6373 1c3d
00000040: 21d1 763d 8cba b43d d86c c93c 1105 c23a
00000050: 772f ccbd 4421 763d f923 7fbb 8e3c 81bd
00000060: ce44 90bd 84b0 31bd 16de c73c 2d1e a13d
00000070: eb32 283d 2fa3 323d ee0d 523d 5c57 82bd
00000080: 72e8 0bbb d8bd 8cbd bb31 c43c c6b7 993d
00000090: bd8f 16be 181b cc3c cac9 9ebc 0fa8 763d
000000a0: 4c6b e23d 5205 4bbd 24c4 44bd 0f17 44bd
000000b0: 75df 653d 25e3 c33d 7e67 22bd 0d83 83bb
000000c0: b6bf 193d 06c5 9a3d 08a6 6e3d f616 80bd
000000d0: 0200 e2bd 223a 08be 8e9d e13c 46d7 853d
000000e0: bbe4 813c 9b89 7ebd a235 47bd ba10 f3bc
000000f0: fb81 aebc b30d 21bd 6654 93bd 35a9 f63b
00000100: abcf dc3c e9ea 8b3c 2828 bdbc 3f02 9d3d
00000110: 1240 86bd 690a 973d 7c4f 45bd 6154 973d
00000120: e741 8d3c e649 f83c 7384 debc c511 8c3d
00000130: d39f 32bd db2d ab3d 013d d4bd 75a3 813d
00000140: b858 6fbd c3b6 a83d b6f4 d23d e711 6a3d
00000150: 8231 823c ecbd c43d f490 54bd d161 733c
00000160: a2f2 10be bce9 d23b d00c a9bb 24a7 b0bc
00000170: 13fb ce3c 99b4 b2bd f925 49bd f9bf 043d
00000180: 5375 053e 5f35 923b aec1 c53c f5f1 9abd
00000190: e994 95bd d184 0fbd 34e3 dcbc 8b74 743d
000001a0: 99b3 d13d 8d52 bebd cf3b 943d 8150 2dbd
000001b0: 9f30 ee3d a7bc 3a3d 17bb 5a3d 855b bcbd
000001c0: 41b1 b1bd fb0e 07be d979 d3bc 8927 99bc
000001d0: a920 9a3c d39d ae3d cf96 b9bd a3b2 ca3d
000001e0: 8828 5dbc 83ad 673c 509d 90bd 44dc 9ebd
000001f0: 0fbd f73d b206 cf3d bb63 0b3e 6824 8c3c
00000200: e024 963d ff10 33bd 78d4 b3bd 4742 343c
00000210: 417f 20be bebb 27bc 1b70 51bd 0d02 a83c
00000220: 14b1 053d 1119 093e 3d7f 00be 2519 7bbc
00000230: 6013 3b3c 6e69 673c f219 91bc d405 59bd
00000240: 06a6 cd3a 6e41 7f3d 78cf dabd 60ca 84bc
00000250: d059 9abd a62a ba3d 1ed3 23bd 539a afbd
00000260: ef73 023e a7a1 12bd 4494 6b3c 45d2 dc3c
00000270: 3ddd 90bd 974a bfbd 3c99 88bd c3ea 563d
00000280: 64d4 0b3e 2093 8ebd 8405 263e 9a5d 6dbd
00000290: 06fa 28be 4ebd c23d e8c6 d9bd 50b4 9abd
000002a0: a337 7bbd 34e5 c43d c818 153d ae65 c23d
000002b0: 7f04 143e c235 49ba 6ab3 43be cc7b fcbd
000002c0: 67b4 17be 1bbf b13d 2dc1 033e f44a b93d
000002d0: 2442 2e3d f2ed d8bd 6a85 6d3d 75b8 aa3c
000002e0: e017 be3d ab25 60bd 60df 94bd d0b1 853c
000002f0: 4ef1 563d d8a5 943d e5cc c93d 9489 a5bd
00000300: 2bd1 ae3d 8d30 333d 3c4b 36be b196 08bd
00000310: 2289 2bbb f3fb 4fbd 07de d43d f2ea 45bc
00000320: d701 36be e96c a1bc fe4a e6bd 707c c9bd
00000330: f523 a1bd c6d0 e5bd 1468 8a3d 29e5 213e
00000340: 4123 423d acb1 ee3d d312 c1bd 1963 873d
00000350: 5664 323d 3084 0ebd cb2f 5e3d 8df2 043e
00000360: e4ff 64bc 24cd 3d3d 6675 953c 134f 07bd
00000370: c33b 853d 183a f63d 4f46 83bc 8ae0 023e
00000380: 75f6 54bc b037 dabd 1d0a fa3d a82c 2bbb
00000390: d25e b93d 6371 393e 0a61 a5bd 9fc5 d2bd
000003a0: b3fb 1ebd ed6d a53c 5e2d c3ba 9b82 fabd
000003b0: 746b 43bd 778e 0cbe 93e3 d83d a570 73bd
000003c0: 4a7a 20bd 5d6b 8abd 6cce 283e 4894 2d3e
000003d0: 413e aa3d 0a19 d23d daa5 31be 8f55 b2bd
000003e0: 0dbe e2bd caa0 f23d 39d6 d7bd 0dd8 cb3d
000003f0: dc0a 09be f7fe 093d 0289 8cbd 1e6b b63c

bias_ih_l0_reverse f4 [256]
0.08592921 -0.0086828405 -0.044731304 0.015118136 -0.11172993 0.094872035 -0.05727198 0.023146117
-0.034749348 -0.019997811 0.10979495 0.033418316 0.03259964 -0.064139396 -0.11531618 0.011759698
0.05119972 -0.077253945 0.035492394 -0.041936915 0.14016823 -0.059718207 0.090045124 0.00084900926
-0.099894755 0.12728143 0.097817026 -0.012574032 -0.008444572 -0.021377187 0.024780883 -0.0141587565
0.087685704 -0.054893196 -0.10292924 -0.087208785 -0.12559623 -0.011639889 0.111540884 -0.011308984
0.090598136 0.0020822336 0.021384839 0.091242895 0.072378755 0.034349028 0.024391213 -0.06949263
-0.07717598 -0.14573428 0.04379368 0.003193454 0.009669442 0.0646892 0.109029606 -0.015896773
-0.07902479 0.03616887 0.041566107 -0.01917453 0.100885935 0.0657973 -0.049774043 -0.036729217
0.15779966 0.037539154 0.12256076 -0.0011313653 0.04396262 0.078169174 -0.029369999 -0.024670567
0.07827092 -0.03552098 -0.11621728 0.15323989 0.069096245 0.059820462 0.020412352 0.026485642
0.09031521 -0.048301738 0.1728319 0.015613087 0.041258346 0.117263496 0.09882631 -0.024742698
0.13667728 0.07551802 -0.043190353 -0.00527048 0.05547318 0.016165208 0.09241623 -0.04731289
-0.041801114 -0.076769106 0.07711843 0.022517918 -0.053675048 0.10362913 0.014667343 -0.004161915
0.024916975 0.103830464 0.12704204 -0.034799173 0.13433282 -0.037105903 0.15557387 0.082330436
0.012977003 0.1463296 0.046945143 0.010778664 0.118399434 0.10799729 0.01051147 -0.017872252
-0.09718688 0.046322748 -0.06376953 -0.09297225 0.108349286 -0.010545307 0.023691466 0.092348404
-0.123312175 0.008294844 0.09189184 0.055053115 0.0153756915 -0.113633804 0.0032234504 0.03346246
0.10012139 -0.058523696 0.09716073 0.026991323 0.078277335 -0.117858134 -0.015558363 -0.0801028
0.05287755 -0.12681879 0.10211709 0.037464447 0.048994508 0.0318769 -0.09143574 0.0892661
0.0023097768 -0.0600473 -0.013622242 -0.013073223 0.040240858 -0.12425645 -0.054637868 -0.08905403
-0.0027266932 -0.065047756 0.08068039 0.035812978 0.08682781 -0.12051636 0.0913182 0.060514092
0.06717709 -0.017013026 0.0107372 -0.060841713 -0.0888426 -0.02642699 -0.06606648 0.08166512
0.05413182 -0.028679557 0.12076698 -0.10049087 0.11582052 0.12256948 -0.002892981 0.05800871
0.028117117 -0.019090505 0.08571218 0.12584203 -0.027223423 -0.0059723924 0.05923864 0.06755073
-0.029110573 -0.0461406 0.06341887 0.06513947 -0.008635847 -0.017970925 -0.11151313 -0.10216352
0.122746505 0.09167827 0.030709943 0.10297104 -0.11444222 0.13919954 0.027264377 0.036119737
-0.05623234 0.1422868 -0.027204594 0.1099248 0.11527819 -0.011241079 0.011271441 -0.041348852
0.046506483 -0.035130907 -0.045980047 0.053847946 0.024503145 0.031784058 -0.0596145 0.0057957214
0.121260434 0.05954865 0.022575792 0.06879416 0.056639265 0.058992866 0.083863065 0.044668794
0.09267728 0.023463614 -0.028773755 0.1166356 -0.047922492 0.029075742 -0.044610728 0.030362437
0.04620197 -0.084061496 0.14257047 0.13426837 0.052936632 -0.084718 -0.011585097 -0.11376236
0.12602708 -0.034208685 0.04893598 -0.032336246 0.002234361 0.2039549 -0.03674398 -0.07477303
00000000: a7fb af3d 7942 0ebc 2c38 37bd 0fb2 773c
00000010: a9d2 e4bd 454c c23d 0696 6abd ed9c bd3c
00000020: 5555 0ebd 73d2 a3bc 2ddc e03d a5e1 083d
00000030: 3387 053d 845b 83bd e42a ecbd c0ab 403c
00000040: ccb6 513d 5137 9ebd 7960 113d 0bc6 2bbd
00000050: 4388 0f3e 149b 74bd 9469 b83d 0c90 5e3a
00000060: 9f95 ccbd 1056 023e 4b54 c83d 5003 4ebc
00000070: 1a5b 0abc 361f afbc 4701 cb3c 21fa 67bc
00000080: 9094 b33d b0d7 60bd 91cc d2bd 859a b2bd
00000090: 4c9c 00be 3cb5 3ebc 8c6f e43d 5149 39bc
000000a0: 848b b93d 1576 083b 422f af3c 8edd ba3d
000000b0: 503b 943d 91b1 0c3d 15d0 c73c 2752 8ebd
000000c0: 710e 9ebd 5e3b 15be 0061 333d 4449 513b
000000d0: 946c 1e3c c57b 843d ea4a df3d f339 82bc
000000e0: c0d7 a1bd cf25 143d 3941 2a3d e713 9dbc
000000f0: 499d ce3d bcc0 863d dedf 4bbd 6071 16bd
00000100: 3c96 213e a8c2 193d 2301 fb3d 524a 94ba
00000110: 2612 343d 2917 a03d 5a99 f0bc ee19 cabc
00000120: 814c a03d 727e 11bd 5303 eebd ebea 1c3e
00000130: 5582 8d3d 4d06 753d ce37 a73c 6bf8 d83c
00000140: 2ef7 b83d 0bd8 45bd d8fa 303e 09ce 7f3c
00000150: 83fe 283d d827 f03d 7365 ca3d 33b1 cabc
00000160: 21f5 0b3e 31a9 9a3d 5ee8 30bd feb3 acbb
00000170: d837 633d e66c 843c b844 bd3d 29cb 41bd
00000180: a537 2bbd 1f39 9dbd 44f0 9d3d 7f77 b83c
00000190: 5eda 5bbd 823b d43d 4c4f 703c ac60 88bb
000001a0: af1e cc3c 11a5 d43d 4f17 023e 9489 0ebd
000001b0: 8b8e 093e 5cfc 17bd c24e 1f3e dc9c a83d
000001c0: 7f9d 543c 6dd7 153e 8d49 403d fe98 303c
000001d0: 677b f23d af2d dd3d 4d38 2c3c d468 92bc
000001e0: ea09 c7bd ecbc 3d3d 9999 82bd 3c68 bebd
000001f0: 3be6 dd3d 39c6 2cbc 9b14 c23c 2921 bd3d
00000200: 188b fcbd 19e7 073c ca31 bc3d 607f 613d
00000210: 53ea 7b3c d7b8 e8bd 8640 533b ef0f 093d
00000220: 710c cd3d 8bb6 6fbd 34fc c63d e81c dd3c
00000230: de4f a03d 9b5f f1bd 81e8 7ebc f00c a4bd
00000240: 2196 583d c9dc 01be c422 d13d 5274 193d
00000250: 77ae 483d 5a91 023d a942 bbbd 25d1 b63d
00000260: a05f 173b 28f4 75bd d32f 5fbc 1231 56bc
00000270: 99d3 243d 2a7a febd f5cb 5fbd f661 b6bd
00000280: 52b2 32bb c237 85bd c33b a53d a1b0 123d
00000290: c7d2 b13d 48d1 f6bd 0905 bb3d a0dd 773d
000002a0: 2494 893d e75e 8bbc 15eb 2f3c 2935 79bd
000002b0: 1cf3 b5bd 6a7d d8bc dd4d 87bd 0b40 a73d
000002c0: 54b9 5d3d 64f1 eabc ae54 f73d 28ce cdbd
000002d0: 4f33 ed3d b505 fb3d 2b98 3dbb 8b9a 6d3d
000002e0: de55 e63c b163 9cbc de89 af3d bcdc 003e
000002f0: a803 dfbc 0fb4 c3bb 37a4 723d 0a58 8a3d
00000300: 4c79 eebc edfd 3cbd c1e1 813d d867 853d
00000310: 5e7d 0dbc c337 93bc ff60 e4bd 1c3b d1bd
00000320: 8562 fb3d d1c1 bb3d 6b93 fb3c 7be2 d23d
00000330: af60 eabd 538a 0e3e 8b59 df3c 4af2 133d
00000340: e253 66bd a2b3 113e 2bdc debc 4120 e13d
00000350: f916 ec3d 812c 38bc daab 383c 6a5d 29bd
00000360: 957d 3e3d 6de5 0fbd 9355 3cbd aa8f 5c3d
00000370: d2ba c83c 0030 023d 552e 74bd 09ea bd3b
00000380: 6457 f83d 49e9 733d def0 b83c f4e3 8c3d
00000390: 93fe 673d 81a2 713d 66c0 ab3d a0f6 363d
000003a0: 96cd bd3d c436 c03c f0b6 ebbc a5de ee3d
000003b0: 604a 44bd 4030 ee3c bdb9 36bd a5ba f83c
000003c0: 473e 3d3d 6f28 acbd fefd 113e a67d 093e
000003d0: 15d4 583d a180 adbd 6bcf 3dbc 3dfc e8bd
000003e0: 3e0d 013e 681e 0cbd 1871 483d 0373 04bd
000003f0: 5b6e 123b 8ed9 503e db80 16bd 9a22 99bd
