model/lstm_5.model (torch, 669851 bytes, 17 tensors)

weight_ih_l0 f4 [256, 64]
-0.048585635 0.020122832 -0.057165354 -0.15525588 -0.09004636 0.05090843 0.03204009 -0.007470475
0.09081503 -0.0067099323 -0.10743461 0.016483925 -0.06863783 0.15666838 -0.008450672 0.03457143
-0.0070002526 -0.0056760265 0.04431781 0.07490324 -0.095264405 0.023656031 0.121672094 -0.08739223
0.0071125296 -0.03273464 0.0020990933 -0.0033118757 0.10206523 -0.13231415 -0.072212785 0.047080345
-0.088681 0.05566514 -0.041134547 0.08366673 0.036272537 -0.10874637 0.04753624 -0.07946463
-0.047997244 -0.09313674 0.049463224 0.126157 -0.0022287604 0.09130121 -0.04442985 0.15701589
0.03454735 -0.03296096 -0.12659901 0.036494926 -0.0004095512 0.086690776 -0.037914474 -0.041847497
-0.17159373 -0.086199015 0.05500869 0.08943805 -0.16481759 0.05781642 -0.072418846 0.01163285
-0.0011551613 0.065178476 -0.09750811 0.018243728 -0.07220985 0.07446991 0.042102955 -0.11550308
-0.06955458 0.08607552 0.003201498 0.09305125 0.025154782 0.12431987 0.09155297 0.08708932
0.0019548105 -0.06590727 -0.08243169 -0.029373832 0.1015339 -0.09885672 0.030585023 -0.08636812
0.027554514 0.11433019 0.08709791 -0.030922757 0.077422746 0.080359414 0.1043093 -0.012379549
0.097422905 0.05336818 -0.08065208 -0.02127353 0.052296937 -0.13883328 -0.06123649 0.06298598
-0.041634023 0.0057430808 0.032687616 0.096911244 0.046714917 0.12053872 0.058407072 0.06142518
-0.03837321 -0.0029377842 0.047083545 0.08088388 0.0009866023 0.031697445 -0.039897613 -0.06280568
-0.10358327 0.06661398 0.022401432 -0.10491521 -0.0022282924 0.07736287 0.03090263 0.13362178
0.07430878 0.11572835 -0.111013696 -0.08720784 0.022517715 -0.0001459988 0.040557314 -0.07922621
-0.0908907 -0.012312335 -0.08920168 0.08346482 0.13381165 -0.017345298 -0.05055571 0.024730088
0.049193718 -0.022071982 -0.0049898284 -0.14151 0.0041082897 0.07307762 -0.0419327 0.110321246
-0.015317599 0.030381616 -0.04185437 0.09523116 0.04282343 0.086560875 -0.050323177 -0.032104157
0.061297458 -0.11982438 -0.1205539 0.11913867 -0.009882483 -0.07726606 -0.010991125 -0.017964859
-0.0865767 -0.05213067 0.008823927 0.10193734 -0.026472788 -0.101904355 0.049395762 0.01459322
0.056253232 -0.066632174 -0.040544745 0.020620225 0.066327564 0.037372272 0.034663603 0.013782464
-0.06373781 0.092246376 0.11677114 -0.030640034 -0.11494281 0.08296322 -0.03265621 0.044027567
0.118536964 0.050799202 -0.07407694 -0.0066161854 -0.025353529 -0.030108191 0.10531092 -0.103795625
0.036644183 -0.035632163 0.12594877 0.055491664 0.04530341 0.0142362015 -0.0072913687 0.1087892
-0.032164995 -0.108661465 -0.05447696 -0.09418173 -0.04585014 0.10032348 0.07298387 0.016372044
-0.03614266 0.012129 0.08926484 -0.02136293 -0.1625749 -0.031204375 -0.06736624 0.04292575
0.040562812 -0.0388248 -0.09795853 -0.051403165 0.049484205 0.09996932 -0.16502993 -0.10757875
0.10260728 0.054247063 -0.024894435 -0.1151602 -0.15089557 0.106776945 -0.102605104 0.102137096
0.066958174 -0.0623821 -0.0740999 -0.04350607 0.006605555 0.04653146 -0.076101586 0.07868042
0.08642708 -0.06487362 -0.040552128 0.09382023 -0.020643989 0.049366537 0.10896422 0.07221505
00000000: bb01 47bd a3d8 a43c 3826 6abd 66fb 1ebe
00000010: 3a6a b8bd 5c85 503d 783c 033d e3ca f4bb
00000020: 3bfd b93d fede dbbb ad06 dcbd 4c09 873c
00000030: fe91 8cbd ad6d 203e b074 0abc c69a 0d3d
00000040: 6062 e5bb f6fd b9bb 9886 353d df66 993d
00000050: fc19 c3bd 4bca c13c 382f f93d b3fa b2bd
00000060: 3910 e93b c214 06bd f190 093b 0e0c 59bb
00000070: 9307 d13d 5c7d 07be 4ce4 93bd 52d7 403d
00000080: 629e b5bd 2101 643d b37c 28bd 7659 ab3d
00000090: 8392 143d 6bb6 debd 5cb5 423d 5abe a2bd
000000a0: c298 44bd 7abe bebd f399 4a3d 4d2f 013e
000000b0: 6510 12bb 21fc ba3d 13fc 35bd c6c8 203e
000000c0: 8681 0d3d 1202 07bd 2ca3 01be b47b 153d
000000d0: 08b9 d6b9 ef8a b13d 354c 1bbd 4868 2bbd
000000e0: 44b6 2fbe 1c89 b0bd cb50 613d 4c2b b73d
000000f0: f1c5 28be e9d0 6c3d 5550 94bd b697 3e3c
00000100: c868 97ba 4b7c 853d 55b2 c7bd df73 953c
00000110: c2e2 93bd ae83 983d 2674 2c3d e18c ecbd
00000120: a272 8ebd 5d48 b03d 39d0 513b a791 be3d
00000130: 6711 ce3c 6a9b fe3d 2080 bb3d e35b b23d
00000140: 471c 003b 64fa 86bd f2d1 a8bd 64a1 f0bc
00000150: 01f1 cf3d 6475 cabd 718d fa3c c5e1 b0bd
00000160: 01ba e13c f225 ea3d 6460 b23d b951 fdbc
00000170: d18f 9e3d 7a93 a43d 1da0 d53d 98d3 4abc
00000180: a985 c73d 9898 5a3d eb2c a5bd d345 aebc
00000190: 5035 563d 502a 0ebe 1dd3 7abd cbfe 803d
000001a0: 7088 2abd 7430 bc3b 73e3 053d 6779 c63d
000001b0: 2458 3f3d 01dd f63d 413c 6f3d f898 7b3d
000001c0: 3a2d 1dbd d787 40bb adda 403d 73a6 a53d
000001d0: e150 813a 2ed5 013d ae6b 23bd 44a0 80bd
000001e0: 7723 d4bd e96c 883d 3583 b73c c9dd d6bd
000001f0: 8b08 12bb 6d70 9e3d 8327 fd3c 26d4 083e
00000200: 342f 983d fc02 ed3d 265b e3bd 069a b2bd
00000210: 1277 b83c 4117 19b9 6d1f 263d 5a41 a2bd
00000220: e724 babd adb9 49bc 5faf b6bd 9bef aa3d
00000230: ec05 093e ba17 8ebc 8113 4fbd c196 ca3c
00000240: 5a7f 493d 4dd0 b4bc b781 a3bb ffe7 10be
00000250: d59e 863b b8a9 953d 9fc1 2bbd 1bf0 e13d
00000260: abf6 7abc dee2 f83c 7d6f 2bbd 8e08 c33d
00000270: 9f67 2f3d d446 b13d ad1f 4ebd a67f 03bd
00000280: 0b13 7b3d 7c66 f5bd f7e4 f6bd fafe f33d
00000290: 23ea 21bc ab3d 9ebd 1f14 34bc 0a2b 93bc
000002a0: 204f b1bd f886 55bd 3b92 103c 86c4 d03d
000002b0: 76dd d8bc 3bb3 d0bd 3653 4a3d 6718 6f3c
000002c0: ca69 663d 7376 88bd 3f12 26bd bfeb a83c
000002d0: bfd6 873d ab13 193d 6cfb 0d3d d8cf 613c
000002e0: f888 82bd abeb bc3d b525 ef3d cf00 fbbc
000002f0: 2367 ebbd 9fe8 a93d 85c2 05bd 4056 343d
00000300: 82c3 f23d d312 503d a7b5 97bd 96cc d8bb
00000310: 34b2 cfbc 74a5 f6bc 40ad d73d cd92 d4bd
00000320: 3618 163d 08f3 11bd b7f8 003e 3a4b 633d
00000330: 1290 393d f53e 693c 6fec eebb dfcc de3d
00000340: 71bf 03bd e789 debd 3c23 5fbd 5ae2 c0bd
00000350: 5bcd 3bbd 6676 cd3d 9178 953d aa1e 863c
00000360: 530a 14bd b7b8 463c 7cd0 b63d 5001 afbc
00000370: 097a 26be 51a0 ffbc 50f7 89bd e9d2 2f3d
00000380: 3125 263d c106 1fbd 7b9e c8bd 208c 52bd
00000390: f3af 4a3d b7bc cc3d 9bfd 28be 3f52 dcbd
000003a0: c423 d23d 2b32 5e3d 6aef cbbc 1cd9 ebbd
000003b0: 5e84 1abe dfad da3d a022 d2bd 412d d13d
000003c0: 5e21 893d 5f84 7fbd b0c1 97bd 6c33 32bd
000003d0: 6973 d83b c697 3e3d 26db 9bbd 3323 a13d
000003e0: ae00 b13d 76dc 84bd fd19 26bd d224 c03d
000003f0: 951d a9bc 9134 4a3d a228 df3d 7ce5 933d

weight_hh_l0 f4 [256, 64]
-0.106595926 0.11798727 -0.03953824 0.1091084 -0.071803235 0.113651805 0.062470905 0.040123016
0.18791653 0.0031299328 -0.12479859 -0.029455472 -0.046369735 -0.030607123 0.057164367 -0.058138527
0.06537827 -0.05086501 0.102289915 -0.043776527 0.03777954 0.025453366 0.084938966 -0.074906714
0.03670002 0.09617321 -0.0021063618 -0.011966627 -0.023673391 -0.08428547 -0.1451478 -0.13475363
0.1312414 0.04604721 0.04549816 -0.06727264 0.124896385 0.09425825 0.06913397 0.0060197185
0.037240896 -0.05410456 0.10459063 0.07304046 -0.105652295 0.020481754 -0.005069193 -0.12723178
-0.049186386 0.019303828 0.0348507 -0.00587058 -0.055625573 0.006834499 0.10834829 -0.04473573
-0.109892204 0.08627715 -0.13469973 -0.005392248 -0.17377119 0.05731692 0.0033059465 -0.009133537
0.06848673 -0.123661816 -0.073057584 -0.021462774 0.07930415 0.04418331 0.0019428477 -0.14311713
-0.095036894 0.029812483 -0.10107374 0.106989585 -0.0675446 0.019566229 -0.08253708 -0.15549496
-0.03339466 -0.09939532 0.120585606 -0.092466794 -0.08675282 -0.0012294917 -0.13131478 -0.067336395
0.08329646 0.087803386 0.038921006 0.028742125 0.09872834 -0.0042480202 0.0653083 -0.12341279
0.041179083 -0.063104704 -0.027895743 -0.0062768855 -0.013174395 0.040596794 0.11388797 -0.013687606
-0.13260326 0.07542283 -0.03836331 0.066507705 -0.022064695 0.000664598 -0.016602801 0.08862472
0.15879257 0.02995542 -0.114827625 -0.09974828 0.09558056 0.10283177 -0.015138758 0.059167646
0.04798293 -0.009896856 -0.017931007 -0.08198387 0.043108582 0.06146338 0.09358817 -0.06280686
0.061276555 0.10251327 0.092607446 0.117991686 0.07779749 -0.020055514 -0.097494274 -0.006531583
-0.05509423 -0.021865336 -0.09744197 0.025153045 0.03266232 0.0014888517 -0.011425072 0.026667833
-0.11052236 -0.0020791085 -0.06478218 0.064877965 -0.023497947 -0.068270646 -0.12733465 -0.1369008
0.0357429 -0.038940698 -0.032964867 -0.12851924 -0.120889306 0.126395 0.02604503 0.01983602
-0.049017977 0.040437337 0.0128559815 -0.051426996 0.11924819 0.08761857 0.014773491 -0.10845192
0.09750929 -0.024509085 -0.0045894356 0.06256293 -0.07455874 -0.063511096 0.0647746 0.088718854
0.09843529 0.026665187 0.080197446 0.12851146 -0.0785892 0.1211326 0.10855802 0.116660684
-0.074338004 -0.06523059 0.11302929 0.0010975703 -0.07584785 0.06711044 0.05017022 -0.09545067
-0.04290402 0.08197672 0.037497155 -0.049167186 -0.058156524 -0.11130513 0.059484582 -0.11823505
-0.019277968 0.03895493 0.011801717 -0.092423715 0.007835796 0.053569 -0.11696106 -0.045917444
-0.12282017 0.10952429 -0.08605626 -0.000114711474 -0.07403347 0.016582264 -0.10367794 0.04840123
0.020043584 0.08465846 -0.0014014223 -0.09439752 -0.021695087 0.06486319 -0.008391625 0.07897187
0.031099867 0.020985566 -0.0919805 0.03854452 -0.13835491 0.116591476 -0.057758987 0.08315805
0.038557716 0.148674 -0.07396083 0.06636071 0.114631794 0.12006689 -0.07556665 0.04357011
0.067545444 -0.17577149 0.0899366 -0.06803888 0.09099731 0.015810339 0.04618469 0.022752885
-0.06368397 -0.06000608 0.097153455 -0.10589781 -0.06243871 0.110035904 0.030591201 0.06772182
00000000: f74e dabd 4fa3 f13d d9f2 21bd 3a74 df3d
00000010: 930d 93bd 47c2 e83d 7ee1 7f3d 0858 243d
00000020: 316d 403e 8f1f 4d3b 6796 ffbd 9a4c f1bc
00000030: 31ee 3dbd cabb fabc 2f25 6a3d aa22 6ebd
00000040: 0be5 853d d457 50bd 607d d13d 044f 33bd
00000050: b8be 1a3d 9483 d03c 7bf4 ad3d b168 99bd
00000060: c352 163d 76f6 c43d e30a 0abb ac0f 44bc
00000070: b3ee c1bc dc9d acbd a0a1 14be dbfc 09be
00000080: 2564 063e 009c 3c3d 475c 3a3d 3dc6 89bd
00000090: adc9 ff3d 780a c13d 1c96 8d3d 0f41 c53b
000000a0: e989 183d be9c 5dbd 9d33 d63d 3d96 953d
000000b0: 3b60 d8bd 5ac9 a73c 791b a6bb 0c49 02be
000000c0: aa77 49bd 1023 9e3c 9cbf 0e3d ff5d c0bb
000000d0: a4d7 63bd eff3 df3b b5e5 dd3d d03c 37bd
000000e0: 2a0f e1bd 13b2 b03d baee 09be 74b1 b0bb
000000f0: 13f1 31be 26c5 6a3d 94a8 583b d5a4 15bc
00000100: c542 8c3d 6842 fdbd 379f 95bd b3d2 afbc
00000110: 376a a23d 8ff9 343d 27a7 fe3a 4c8d 12be
00000120: b4a2 c2bd 4f39 f43c c0ff cebd 5b1d db3d
00000130: d354 8abd 5b49 a03c 3309 a9bd 123a 1fbe
00000140: d7c8 08bd c68f cbbd 96f5 f63d 3b5f bdbd
00000150: 76ab b1bd e526 a1ba 6277 06be aae7 89bd
00000160: 5697 aa3d 43d2 b33d a26b 1f3d 9b74 eb3c
00000170: 1532 ca3d fa32 8bbb 5cc0 853d d8bf fcbd
00000180: 66ab 283d 0a3d 81bd 9d85 e4bc 55ae cdbb
00000190: 6bd9 57bc d348 263d 193e e93d fb41 60bc
000001a0: 26c9 07be 4977 9a3d d922 1dbd 3135 883d
000001b0: 05c1 b4bc 6b38 2e3a 9902 88bc e180 b53d
000001c0: 859a 223e 1265 f53c bf2a ebbd d448 ccbd
000001d0: bebf c33d 7799 d23d 8e08 78bc c659 723d
000001e0: c089 443d 6c26 22bc 0ce4 92bc 29e7 a7bd
000001f0: a092 303d 06c1 7b3d 28ab bf3d e2a0 80bd
00000200: 20fd 7a3d 7af2 d13d f9a8 bd3d a0a5 f13d
00000210: 4a54 9f3d 764b a4bc 14ab c7bd e406 d6bb
00000220: 7daa 61bd ef1e b3bc a88f c7bd c20d ce3c
00000230: edc8 053d 9325 c33a 3a30 3bbc 8076 da3c
00000240: 8c59 e2bd a741 08bb 85ac 84bd bdde 843d
00000250: c47e c0bc 7bd1 8bbd 0464 02be b92f 0cbe
00000260: 2667 123d 4880 1fbd 2b06 07bd 8c9a 03be
00000270: d094 f7bd b16d 013e 635c d53c 267f a23c
00000280: 13c7 48bd 9fa1 253d e5a1 523c 1da5 52bd
00000290: 6538 f43d 5d71 b33d 830c 723c 0a1c debd
000002a0: f3b2 c73d 47c7 c8bc fa62 96bb fe20 803d
000002b0: 41b2 98bd 1b12 82bd 8ca8 843d 3bb2 b53d
000002c0: 7198 c93d f370 da3c 8f3e a43d 8298 033e
000002d0: 60f3 a0bd 5e14 f83d ab53 de3d cceb ee3d
000002e0: 863e 98bd 9e97 85bd e77b e73d 59dc 8f3a
000002f0: 1e56 9bbd 3371 893d 4a7f 4d3d a47b c3bd
00000300: 20bc 2fbd 69e3 a73d 9e96 193d 8863 49bd
00000310: 8935 6ebd f2f3 e3bd 1ba6 733d 3825 f2bd
00000320: d4ec 9dbc 348f 1f3d fd5b 413c a548 bdbd
00000330: b661 003c 2b6b 5b3d 4889 efbd ee13 3cbd
00000340: 2489 fbbd 454e e03d 443e b0bd 4191 f0b8
00000350: dc9e 97bd 87d7 873c 1a55 d4bd 5e40 463d
00000360: 7132 a43c 6a61 ad3d eeaf b7ba 7d53 c1bd
00000370: e5b9 b1bc fed6 843d 077d 09bc 01bc a13d
00000380: 26c5 fe3c ece9 ab3c 4660 bcbd dce0 1d3d
00000390: e9ac 0dbe 83c7 ee3d b094 6cbd c54e aa3d
000003a0: b2ee 1d3d ff3d 183e c778 97bd 20e8 873d
000003b0: 13c4 ea3d a1e5 f53d b0c2 9abd 9276 323d
000003c0: 4455 8a3d 71fd 33be ae30 b83d f857 8bbd
000003d0: cc5c ba3d af84 813c 282c 3d3d 4264 ba3c
000003e0: be6c 82bd efc8 75bd 64f8 c63d f3e0 d8bd
000003f0: bcbf 7fbd 815a e13d 669a fa3c bdb1 8a3d

bias_ih_l0 f4 [256]
0.13466439 -0.030354893 0.113374144 -0.034286723 -0.016501915 0.05020598 0.12261157 0.12714422
-0.026276447 0.04238993 0.07686543 -0.04121898 -0.074293725 0.13542151 -0.04922214 -0.023811711
0.13343488 0.1253137 -0.010924813 0.05028633 0.071135275 0.06922385 -0.09224757 -0.04940262
0.11372338 -0.03140698 0.08077247 0.07038082 0.028370416 0.03648072 0.017876284 0.12829086
-0.07496748 -0.12648082 -0.056922894 -0.08305682 0.048583854 -0.06883552 -0.11855002 0.07628868
-0.04498476 0.10710586 0.11274529 0.020034734 -0.054185078 -0.0035785213 -0.08292415 -0.07628382
-0.036323063 0.08829004 0.106483474 -0.0030407184 0.09211013 -0.052624468 -0.021249464 -0.06270803
-0.07611107 0.07047828 0.05860504 0.10294799 0.08078914 0.04129349 0.052817803 0.0019054931
-0.0012650727 -0.05713987 0.117464356 -0.09610105 0.0066986475 -0.055166066 0.00923302 -0.03924119
0.12898588 0.11762339 0.09910052 -0.104266636 -0.0670271 -0.088754304 -0.076808766 0.12047241
-0.013744354 -0.098654345 0.07480569 0.022431105 0.049631678 -0.01773858 -0.084965415 -0.047812972
0.032377493 0.12548043 0.061196364 -0.112789065 0.033079974 0.10831253 -0.044883594 -0.08432989
-0.026190259 0.12029299 0.03544021 0.029279564 -0.03567124 0.10498995 0.07656204 0.09421634
0.08272785 -0.05266984 -0.079358056 0.13680358 -0.057007067 -0.052767754 -0.0816484 0.0747388
-0.011794113 0.015860552 -0.055789933 0.023924416 -0.12127707 0.08277117 0.09188088 0.14108936
-0.08618005 0.08934423 0.13061367 0.06414043 -0.005256741 -0.07780237 -0.09316193 -0.06565502
-0.12880558 0.022386812 -0.11446213 0.045041885 0.01943397 -0.10276884 0.090363935 -0.00010392147
0.10592741 0.06363538 -0.010670883 -0.027370958 -0.016663764 0.0065708035 0.11560453 -0.00936355
-0.09212639 0.14674553 0.0983847 -0.0976125 -0.115090184 -0.019018253 -0.10148532 -0.08234987
-0.12633115 -0.0087162955 -0.0723421 -0.0978902 -0.0426328 -0.039222665 0.052985087 -0.05708562
-0.043342646 0.04693861 0.12508671 0.023311647 0.12782763 0.0050894273 -0.15106241 -0.061315015
0.122141704 0.06633557 0.0886861 0.03039984 0.07305912 -0.045319494 0.0022553515 0.03092561
0.00011077002 0.0043466673 0.044091742 -0.048076507 0.064249374 0.07847834 0.10640695 -0.055644237
0.11816265 -0.07514936 0.09827399 -0.08239197 -0.0069409152 0.010196999 -0.0064098593 0.07686873
-0.0058085066 0.020346671 0.07043724 -0.08801422 -0.060652908 -0.034657333 0.099202506 -0.10285231
-0.10347477 0.08660354 -0.043620046 -0.07511391 -0.07199294 0.048268735 0.007402224 -0.013654031
-0.04292302 -0.035214674 -0.055608444 -0.052052386 -0.001594994 0.10891912 0.11867019 0.04808091
-0.08538094 0.15864706 0.021674227 0.11570258 0.048825264 0.11270854 -0.0008555158 -0.019530017
0.08885299 0.0563391 -0.027677713 -0.08380916 -0.062259894 -0.050466713 -0.10225572 0.01184455
0.11818773 -0.03588697 0.06689985 0.08886693 0.146751 -0.03529913 -0.012254334 0.0034020606
0.13460344 0.065411404 -0.06885252 -0.057763748 -0.044499114 0.062408514 -0.074352756 -0.051886648
0.033547033 -0.052859932 0.13754378 -0.079318374 0.0377007 0.01702972 -0.020295348 -0.09126471
00000000: 76e5 093e d3aa f8bc b430 e83d 3c70 0cbd
00000010: 062f 87bc c9a4 4d3d c61b fb3d 1832 023e
00000020: b441 d7bc 10a1 2d3d 9f6b 9d3d 3cd5 28bd
00000030: 4f27 98bd f0ab 0a3e 289d 49bd c710 c3bc
00000040: 27a3 083e 3c52 003e fdfd 32bc 0af9 4d3d
00000050: 5faf 913d 3cc5 8d3d 4bec bcbd 675a 4abd
00000060: cee7 e83d 9ba4 00bd 096c a53d d223 903d
00000070: 1369 e83c cf6c 153d 4971 923c ae5e 033e
00000080: 8d88 99bd 3084 01be fb27 69bd b219 aabd
00000090: ddff 463d a3f9 8cbd 5aca f2bd 3d3d 9c3d
000000a0: f141 38bd 515a db3d 01e7 e63d e21f a43c
000000b0: 2cf1 5dbd a085 6abb 23d4 a9bd b13a 9cbd
000000c0: 7ec7 14bd 69d1 b43d 0214 da3d ca46 47bb
000000d0: 3ca4 bc3d c18c 57bd 5b13 aebc 116d 80bd
000000e0: 1fe0 9bbd eb56 903d d70b 703d 65d6 d23d
000000f0: c774 a53d 5d23 293d 7b57 583d bdc1 f93a
00000100: ccd0 a5ba 7f0b 6abd 2791 f03d a1d0 c4bd
00000110: 5480 db3b d0f5 61bd 1846 173c 5fbb 20bd
00000120: e014 043e 88e4 f03d 37f5 ca3d bf89 d5bd
00000130: 8145 89bd d1c4 b5bd ea4d 9dbd 3dba f63d
00000140: 0030 61bc 4a0b cabd ba33 993d 70c1 b73c
00000150: 964a 4b3d 8050 91bc 5902 aebd 89d7 43bd
00000160: 439e 043d f17d 003e 0aa9 7a3d f4fd e6bd
00000170: de7e 073d f6d2 dd3d dcd7 37bd 26b5 acbd
00000180: f48c d6bc 2c5c f63d c129 113d b2db ef3c
00000190: 021c 12bd f904 d73d 8fcc 9c3d 7ff4 c03d
000001a0: 386d a93d 55bc 57bd 7a86 a2bd 3d16 0c3e
000001b0: 3e80 69bd 0023 58bd 4737 a7bd a810 993d
000001c0: 183c 41bc fded 813c fc83 64bd 23fd c33c
000001d0: 1d60 f8bd ee83 a93d 0b2c bc3d bb79 103e
000001e0: 2b7f b0bd 1cfa b63d 97bf 053e 0f5c 833d
000001f0: bd40 acbb d956 9fbd afcb bebd 2476 86bd
00000200: 9ce5 03be 8c64 b73c 1f6b eabd d77d 383d
00000210: fd33 9f3c 7878 d2bd ba10 b93d 6af0 d9b8
00000220: 78f0 d83d 4453 823d edd4 2ebc 0f39 e0bc
00000230: 7282 88bc e54f d73b 11c2 ec3d 9369 19bc
00000240: c3ac bcbd 7644 163e eb7d c93d 10e9 c7bd
00000250: 67b4 ebbd 2bcc 9bbc 89d7 cfbd 0ca7 a8bd
00000260: f45c 01be cbce 0ebc 1828 94bd a87a c8bd
00000270: bb9f 2ebd f2a7 20bd e406 593d 9cd2 69bd
00000280: 0f88 31bd b342 403d bb16 003e 11f8 be3c
00000290: 3fe5 023e 36c5 a63b 1bb0 1abe 7425 7bbd
000002a0: 6e25 fa3d f1da 873d 0fa1 b53d 1609 f93c
000002b0: 05a0 953d efa0 39bd 85ce 133b b457 fd3c
000002c0: 344d e838 7d6e 8e3b 8b99 343d dfeb 44bd
000002d0: 2d95 833d 40b9 a03d e3eb d93d 36eb 63bd
000002e0: 42ff f13d e8e7 99bd e043 c93d 1fbd a8bd
000002f0: 9e70 e3bb 5011 273c cc09 d2bb 5a6d 9d3d
00000300: 4955 bebb 10ae a63c 6641 903d cd40 b4bd
00000310: 2f6f 78bd d9f4 0dbd af2a cb3d 3ba4 d2bd
00000320: 95ea d3bd 325d b13d efaa 32bd 52d5 99bd
00000330: 0971 93bd 70b5 453d 5b8e f23b 28b5 5fbc
00000340: 0cd0 2fbd 433d 10bd aec5 63bd e234 55bd
00000350: 1e0f d1ba fd10 df3d 5b09 f33d 7df0 443d
00000360: 34dc aebd 6074 223e 268e b13c 79f5 ec3d
00000370: 00fd 473d bcd3 e63d b244 60ba 6afd 9fbc
00000380: 8ef8 b53d d4c3 663d 5fbc e2bc 23a4 abbd
00000390: 3b04 7fbd 2fb6 4ebd 726b d1bd a50f 423c
000003a0: 690c f23d 37fe 12bd ca02 893d ddff b53d
000003b0: e545 163e d295 10bd 67c6 48bc 1bf5 5e3b
000003c0: 7cd5 093e 6af6 853d 8d02 8dbd ae99 6cbd
000003d0: b444 36bd 12a0 7f3d 4246 98bd 1887 54bd
000003e0: 9d68 093d a883 58bd 47d8 0c3e ac71 a2bd
000003f0: 0d6c 1a3d e981 8b3c 6e42 a6bc fee8 babd

bias_hh_l0 f4 [256]
-0.0648876 -0.12014141 0.0652948 0.106011145 -0.0011480493 -0.014153038 0.0606816 0.018681087
-0.06793809 -0.014259298 -0.09458837 -0.09804214 0.13259716 0.017798737 -0.058290776 0.10228035
0.013962456 0.08424758 -0.0021642263 -0.005574192 -0.06579421 -0.06337314 0.09838593 0.046202477
0.12455268 -0.017899117 -0.08952139 -0.048646774 -0.018684158 -0.10527962 0.034490902 0.117058806
0.035127975 -0.09141476 0.098271124 0.08408775 -0.033198737 -0.057626527 -0.07793032 0.12927255
-0.018989699 -0.035413202 0.111119084 0.002955972 0.05978704 0.028240511 0.09253495 0.0029771833
-0.011682451 0.12419265 0.07241231 0.120677896 0.010307628 0.07362672 0.052525774 -0.10812352
0.06240857 0.122482486 -0.05057882 -0.0245572 -0.024211125 -0.026717499 0.04799035 0.0351641
-0.060275156 0.0047539463 -0.1001254 -0.091087736 -0.05294214 -0.09076103 -0.06622751 -0.090079196
-0.049115054 -0.069373555 0.034460302 -0.026647994 0.03537768 -0.040230878 -0.0717431 0.11015577
0.032856375 -0.06698366 0.08662075 -0.050909225 0.14225861 -0.11100259 0.054011676 -0.094898745
0.020466529 0.15122096 -0.040392146 0.089614406 -0.014183704 -0.052269902 -0.04133145 -0.07945293
0.060767442 0.05928592 0.11645668 0.07101271 0.052244943 -0.046666674 0.019733096 -0.07323444
0.030213973 0.017616758 0.13433711 0.04860553 0.13923103 -0.035658687 0.062203094 0.05559187
0.07922492 -0.03551559 0.118646584 -0.0071662697 -0.06978613 0.09047754 -0.0008368606 -0.011838229
0.04380436 -0.03155863 0.04527169 0.059552502 0.11342707 -0.075078286 0.11708369 -0.06034905
0.0776306 0.13355342 -0.091308095 -0.06084036 0.100984804 -0.08580924 -0.036882587 0.03638772
-0.018003974 -0.0062437914 0.042635716 0.09494692 -0.0374438 0.026933087 -0.07370352 -0.08187639
-0.12568134 0.044073433 -0.11166083 -0.06506796 -0.017908024 0.0158084 -0.14868367 0.00018076549
-0.069750436 -0.07278222 0.022013048 0.053986702 -0.01718632 0.014893029 -0.009572936 -0.029838363
-0.00641983 0.022326281 0.11533849 -0.09929059 0.06391224 -0.068049245 -0.074238725 -0.058598764
-0.078814246 0.00954046 0.012880092 0.1406805 -0.030883122 -0.06971827 0.0074624633 0.110546745
-0.06983521 0.11879749 0.052813124 -0.0711649 -0.04425073 0.015402496 0.0038544105 -0.083935246
-0.010340326 0.040955555 0.043677494 -0.026020745 -0.0060215103 -0.06302254 -0.00056540366 -0.020614984
0.15715903 0.08380868 0.06502127 0.12706186 0.09456918 0.117981724 0.071625926 -0.109051794
-0.09444618 0.08404872 -0.0058640437 0.12881711 -0.07387341 0.016364759 0.0932802 0.107286155
-0.05290224 -0.07503514 0.03420008 -0.06584529 0.080974855 -0.04034263 -0.0654037 0.11288992
-0.023351867 -0.010153192 -0.07843635 0.07826137 0.037045114 0.09944773 0.101872526 -0.09148307
0.10443296 -0.032872945 -0.056166507 0.046367135 0.052086722 -0.07042418 0.03576635 -0.08623271
0.07474586 -0.02098113 0.0933395 0.04717393 0.0029736168 0.1341776 -0.06318892 -0.0074372166
-0.07938495 0.026616676 0.1139413 -0.02470474 0.0692989 0.0252903 -0.061243434 -0.03638021
0.084023826 0.015430439 0.05705406 -0.025717745 0.003714239 0.09149899 0.1276783 0.11517459
00000000: cae3 84bd b30c f6bd 48b9 853d 5f1c d93d
00000010: 247a 96ba 25e2 67bc 458d 783d 1409 993c
00000020: 2023 8bbd d59f 69bc 8cb7 c1bd 51ca c8bd
00000030: 8dc7 073e a8ce 913c 4fc2 6ebd 5c78 d13d
00000040: c9c2 643c ff89 ac3d b1d5 0dbb b6a7 b6bb
00000050: 1dbf 86bd c7c9 81bd 907e c93d cf3e 3d3d
00000060: 7a15 ff3d 2ba1 92bc fe56 b7bd d741 47bd
00000070: 850f 99bc d79c d7bd 5546 0d3d 87bc ef3d
00000080: 5ae2 0f3d a937 bbbd 5f42 c93d 3336 ac3d
00000090: 66fb 07bd cb09 6cbd ee99 9fbd 0660 043e
000000a0: 4990 9bbc 6f0d 11bd 6792 e33d fbb8 413b
000000b0: 41e3 743d a558 e73c f782 bd3d d91c 433b
000000c0: c067 3fbc b758 fe3d e84c 943d f925 f73d
000000d0: 53e1 283c 9bc9 963d 4425 573d dd6f ddbd
000000e0: 21a0 7f3d 19d8 fa3d bd2b 4fbd 2e2c c9bc
000000f0: 6956 c6bc a8de dabc 8791 443d 3b08 103d
00000100: 15e3 76bd fec6 9b3b 8c0e cdbd 358c babd
00000110: dbd9 58bd ebe0 b9bd 4aa2 87bd 717b b8bd
00000120: de2c 49bd b913 8ebd 3f26 0d3d e54c dabc
00000130: 30e8 103d 22c9 24bd 0cee 92bd 5999 e13d
00000140: 6894 063d bb2e 89bd 3866 b13d 3186 50bd
00000150: 3eac 113e 5355 e3bd 593b 5d3d 465a c2bd
00000160: 6ca9 a73c abd9 1a3e 3c72 25bd c287 b73d
00000170: c462 68bc f718 56bd 2b4b 29bd 38b8 a2bd
00000180: 48e7 783d cbd5 723d d780 ee3d 1d6f 913d
00000190: cbfe 553d 8e25 3fbd 4da7 a13c f0fb 95bd
000001a0: 4b83 f73c 0551 903c ab8f 093e 9816 473d
000001b0: 9492 0e3e d80e 12bd acc8 7e3d 4db4 633d
000001c0: ad40 a23d cc78 11bd fbfc f23d 07d3 eabb
000001d0: 08ec 8ebd 4a4c b93d c460 5bba 22f5 41bc
000001e0: 336c 333d 9f43 01bd cf6e 393d 53ed 733d
000001f0: 744c e83d a5c2 99bd 93c9 ef3d 9130 77bd
00000200: cbfc 9e3d 3ac2 083e bdff babd be33 79bd
00000210: 1fd1 ce3d c1bc afbd 3212 17bd 4a0b 153d
00000220: 127d 93bc b898 ccbb caa2 2e3d 8873 c23d
00000230: ac5e 19bd c7a2 dc3c dff1 96bd cfae a7bd
00000240: 9cb2 00be 5886 343d 6fae e4bd 5a42 85bd
00000250: d9b3 92bc 9e80 813c 8840 18be de8b 3d39
00000260: 51d9 8ebd d80e 95bd b554 b43c 2921 5d3d
00000270: 53ca 8cbc e401 743c ced7 1cbc 956f f4bc
00000280: 705d d2bb 9be5 b63c 9636 ec3d dd58 cbbd
00000290: 6ce4 823d 675d 8bbd 790a 98bd 4205 70bd
000002a0: 5d69 a1bd 974f 1c3c 0507 533c 8d0e 103e
000002b0: 9afe fcbc 74c8 8ebd ae87 f43b 5566 e23d
000002c0: c305 8fbd 194c f33d 9352 583d e7be 91bd
000002d0: 4140 35bd c05a 7c3c 479a 7c3b 3ee6 abbd
000002e0: 786a 29bc 03c1 273d 2ce7 323d 7529 d5bc
000002f0: 1750 c5bb f611 81bd 9937 14ba c1e0 a8bc
00000300: 4cee 203e e3a3 ab3d df29 853d 811c 023e
00000310: 7cad c13d 67a0 f13d 9db0 923d 8c56 dfbd
00000320: 006d c1bd bc21 ac3d 2a27 c0bb a2e8 033e
00000330: f14a 97bd 630f 863c b109 bf3d d8b8 db3d
00000340: 05b0 58bd 06ac 99bd 6215 0c3d e5d9 86bd
00000350: 25d6 a53d 503e 25bd 60f2 85bd d532 e73d
00000360: 6a4c bfbc 9359 26bc 3da3 a0bd 7f47 a03d
00000370: 9ebc 173d 40ab cb3d 8ba2 d03d 7a5b bbbd
00000380: f3e0 d53d c8a5 06bd da0e 66bd 77eb 3d3d
00000390: e358 553d 8d3a 90bd bc7f 123d c69a b0bd
000003a0: 5c14 993d 9ee0 abbc c828 bf3d 7339 413d
000003b0: 03e1 423b da65 093e 3169 81bd e5b3 f3bb
000003c0: 9494 a2bd 370b da3c 0e5a e93d 9861 cabc
000003d0: 95ec 8d3d 9a2d cf3c 65da 7abd 6a03 15bd
000003e0: af14 ac3d f4cf 7c3c 85b1 693d 05ae d2bc
000003f0: 976a 733b d363 bb3d 1abe 023e a8e0 eb3d

weight_ih_l0_reverse f4 [256, 64]
-0.016392969 -0.15066288 -0.01707745 0.018148737 0.05705508 -0.055074032 -0.04432656 0.045919042
0.041139144 0.09181369 0.03881152 -0.075375386 -0.078861564 0.08657616 -0.07029519 0.03729018
0.15435652 0.006398463 0.16682628 -0.01901781 0.014688549 -0.10921 0.036720734 -0.13689864
0.001024749 0.11380343 -0.13474093 0.011959269 0.03653251 0.057055432 -0.02443716 0.0010642012
-0.010819607 0.117066026 0.050171837 -0.024581749 0.05025882 -0.19314864 -0.0793439 -0.09616792
0.09757324 0.05995847 0.079076864 0.018620644 -0.016461056 0.037050657 -0.10174387 0.11802523
-0.00027740625 0.06842604 0.12798718 0.054012597 -0.042254414 0.02640956 -0.049605835 0.009185493
-0.0580128 0.113321476 -0.0058325534 0.06337439 0.012202749 -0.02451686 0.01653645 0.14066297
0.057930566 -0.13675965 -0.035651855 -0.06344152 0.03571662 -0.07549489 -0.10564309 -0.13199945
0.037429146 0.019084087 -0.027073378 0.1102605 0.0038989293 -0.0697437 0.06746094 0.023577854
-0.051743705 0.13553765 0.04719465 0.118113644 -0.05789959 0.053018488 0.00034754956 -0.09865263
-0.084653646 0.06369 0.11517639 -0.12517665 0.00067917776 0.026172157 0.07834897 -0.065917835
0.08846877 0.11958283 0.13868958 0.027602222 -0.038979862 0.0860038 -0.08684786 -0.06338791
-0.007005157 -0.023322092 0.014988071 0.046816092 0.06052184 -0.07009825 -0.04974484 -0.08435401
0.13246417 0.05145583 0.05235002 0.0030537022 -0.010796003 -0.08315405 -0.013597768 0.1134353
0.048542425 -0.08483682 0.122131445 -0.1217874 0.051727016 -0.123396985 -0.09133845 0.039476085
0.12087533 -0.007329753 0.12730311 -0.10850099 0.066916816 -0.04679957 0.0098070465 -0.04732226
-0.04032797 0.039367154 0.12378097 0.1260826 -0.06406819 0.05953012 -0.041576907 0.1160113
0.010977434 -0.023004176 -0.022231607 0.04822388 -0.081880175 0.04688433 0.0615442 0.061080292
-0.14712198 -0.041385867 0.09168173 0.008017928 -0.056590207 -0.06477229 0.11543082 0.02539055
0.08454327 -0.088719316 0.028693758 0.02131 -0.001619661 0.1387987 -0.044592418 -0.12652548
0.110392496 0.12728584 0.047123756 -0.07562463 -0.08428247 -0.0111076245 -0.003419064 -0.00500024
0.042675205 -0.048685774 -0.010654382 -0.090086415 0.013688148 -0.10509659 -0.060078256 0.040925235
-0.094314925 -0.055148132 0.07574595 -0.0854148 0.016414402 -0.019201186 0.08141306 -0.08075335
0.031772476 -0.04394901 -0.060921498 0.0075494456 -0.062384415 -0.00806997 -0.03092247 -0.04375543
0.034959532 -0.04282046 -0.13468213 -0.07101204 -0.026676355 0.14910837 0.018793084 0.07458553
0.090946175 0.0060107475 -0.0052510793 0.032904476 0.074737824 0.115998276 -0.017344544 0.12408838
-0.079500355 -0.11806224 0.047493 0.05952432 0.088020444 -0.057355545 0.08388356 0.0044290824
0.011724268 -0.037649706 0.08824845 -0.065984435 0.06911909 -0.0027433834 -0.0174466 -0.036554452
-0.09641915 -0.13718705 -0.1651492 0.096521355 -0.0037423214 0.022319365 0.03356028 -0.06969983
0.09714021 -0.11183193 0.06778276 0.042815894 -0.0028927957 -0.026299356 -0.025119353 0.10403693
-0.15532349 -0.10928186 0.0073394403 0.06750855 -0.059926417 -0.07510085 -0.12820862 0.06512477
00000000: 8c4a 86bc 5f47 1abe 02e6 8bbc a9ac 943c
00000010: 96b2 693d 4f95 61bd c48f 35bd 9b15 3c3d
00000020: 8581 283d d108 bc3d d4f8 1e3d 695e 9abd
00000030: 2c82 a1bd d74e b13d edf6 8fbd 96bd 183d
00000040: a30f 1e3e 33aa d13b 82d4 2a3e 3dcb 9bbc
00000050: 3da8 703c 7ea9 dfbd 7b68 163d 282f 0cbe
00000060: df50 863a c611 e93d 87f9 09be cff0 433c
00000070: 1da3 153d f5b2 693d 7030 c8bc ab7c 8b3a
00000080: b944 31bc 50c0 ef3d fc80 4d3d aa5f c9bc
00000090: 31dc 4d3d c2c8 45be 0e7f a2bd b0f3 c4bd
000000a0: 7bd4 c73d 0397 753d 0df3 a13d 528a 983c
000000b0: 56d9 86bc 6ec2 173d 175f d0bd 36b7 f13d
000000c0: d670 91b9 f422 8c3d 120f 033e 503c 5d3d
000000d0: f712 2dbd dd58 d83c 7d2f 4bbd c07e 163c
000000e0: d49e 6dbd 1715 e83d 011f bfbb 6fca 813d
000000f0: 0aee 473c 95d7 c8bc 7377 873c f409 103e
00000100: 9a48 6d3d b90a 0cbe ae07 12bd a1ed 81bd
00000110: 974b 123d 119d 9abd 685b d8bd dd2a 07be
00000120: 4e4f 193d 3b56 9c3c fdc8 ddbc 42d0 e13d
00000130: 2e85 7f3b c9d5 8ebd f628 8a3d 5826 c13c
00000140: 35f1 53bd 62ca 0a3e 2d4f 413d 91e5 f13d
00000150: 1f28 6dbd ea29 593d 5037 b639 640a cabd
00000160: e45e adbd e76f 823d 99e1 eb3d 4f2e 00be
00000170: d90a 323a fe66 d63c 6d75 a03d eeff 86bd
00000180: 1d2f b53d d8e7 f43d a404 0e3e 0e1e e23c
00000190: 59a9 1fbd c322 b03d 4add b1bd 85d1 81bd
000001a0: 848b e5bb f90d bfbc 8790 753c 3bc2 3f3d
000001b0: c0e5 773d ac8f 8fbd 3fc1 4bbd ccc1 acbd
000001c0: b0a4 073e 59c3 523d f96c 563d 9f20 483b
000001d0: b8e1 30bc ac4c aabd 2cc9 5ebc c450 e83d
000001e0: 6cd4 463d edbe adbd 0d20 fa3d ac6b f9bd
000001f0: b5df 533d 8fb7 fcbd a70f bbbd adb1 213d
00000200: 7c8d f73d 6d2e f0bb bf5b 023e c435 debd
00000210: af0b 893d e8b0 3fbd bcad 203c fcd4 41bd
00000220: f12e 25bd 743f 213d e180 fd3d cc1b 013e
00000230: 2f36 83bd dbd5 733d 8c4c 2abd 5597 ed3d
00000240: b2da 333c 4173 bcbc 0f1f b6bc 6786 453d
00000250: cbb0 a7bd c909 403d c515 7c3d 542f 7a3d
00000260: 25a7 16be 3a84 29bd a1c3 bb3d a15d 033c
00000270: 22cb 67bd 56a7 84bd fe66 ec3d d8ff cf3c
00000280: 0625 ad3d 79b2 b5bd 2c0f eb3c 4f92 ae3c
00000290: ce4a d4ba 3f21 0e3e 8aa6 36bd e58f 01be
000002a0: 7615 e23d 3857 023e d704 413d 16e1 9abd
000002b0: 4a9c acbd c1fc 35bc 6012 60bb 0ed9 a3bb
000002c0: 32cc 2e3d bc6a 47bd b88f 2ebc 3a7f b8bd
000002d0: 4144 603c e23c d7bd 9e14 76bd 38a1 273d
000002e0: 2f28 c1bd 02e3 61bd b120 9b3d f4ed aebd
000002f0: 7f77 863c ce4b 9dbc e4bb a63d 0362 a5bd
00000300: db23 023d e103 34bd d288 79bd 5761 f73b
00000310: cd86 7fbd e837 04bc 1f51 fdbc e538 33bd
00000320: ba31 0f3d 8264 2fbd 1dea 09be c36e 91bd
00000330: 5f88 dabc ddaf 183e f4f3 993c 4cc0 983d
00000340: fd41 ba3d cef5 c43b 3f11 acbb d8c6 063d
00000350: 2510 993d 8190 ed3d 2516 8ebc 0c22 fe3d
00000360: 15d1 a2bd 9eca f1bd 0588 423d c6cf 733d
00000370: 1044 b43d a6ed 6abd 25cb ab3d d621 913b
00000380: 2517 403c 9436 1abd 9abb b43d d922 87bd
00000390: 4f8e 8d3d 56ca 33bb 2cec 8ebc 1fba 15bd
000003a0: 6777 c5bd c37a 0cbe df1c 29be fdac c53d
000003b0: bc41 75bb 1ad7 b63c 8176 093d c9be 8ebd
000003c0: 72f1 c63d 2408 e5bd b0d1 8a3d b85f 2f3d
000003d0: 0f95 3dbb bf71 d7bc 1ac7 cdbc 5011 d53d
000003e0: 1f0d 1fbe 2bcf dfbd b07f f03b ec41 8a3d
000003f0: 6775 75bd 79ce 99bd 1f49 03be 2360 853d

weight_hh_l0_reverse f4 [256, 64]
-0.09981556 0.058747545 0.07493692 -0.10937087 0.054200713 0.10698822 -0.06263563 0.035863094
0.059639663 0.107905455 0.11368095 0.05850069 0.112806395 0.08918194 -0.07510044 0.027256936
0.030942252 0.08568534 0.012289391 -0.00014226903 -0.075743675 0.06632611 0.0139587885 -0.06309486
-0.039235633 -0.032290906 0.0033186101 0.07456636 0.06335321 0.048524592 0.059739433 -0.05991241
0.0052740346 -0.058440473 0.029777063 0.07835727 -0.1381981 0.00053452083 -0.012912003 0.05956882
0.08946326 -0.067431495 -0.052693937 -0.035163384 0.059181377 0.10517875 -0.013481451 0.0054651843
0.056699466 0.07293481 0.06715686 -0.05517322 -0.08122623 -0.10071065 0.02360644 0.06821494
0.017159646 -0.067471564 -0.030439824 0.020384712 -0.023507293 -0.041616447 -0.10104286 -0.007156188
0.0018792222 0.017761588 -0.0071498915 0.0716231 -0.027216176 0.10393563 -0.027678264 0.059744287
0.042076573 0.027182003 -0.040250566 0.057311837 -0.061753735 0.09985371 -0.10002104 0.07573992
-0.09427923 0.105203524 0.08944379 0.05482512 0.047257666 0.11776294 -0.040058684 -0.0029813563
-0.1110203 0.015322183 0.0021247747 -0.057677913 0.008662021 -0.03601047 -0.05007643 0.035324614
0.1242587 0.032995738 -0.0065915952 -0.05882505 -0.054271657 -0.028705703 -0.018668005 0.030391462
0.11419111 -0.09815721 0.07346107 -0.034147568 0.12657799 0.054601226 0.035804667 -0.09444457
-0.06265713 -0.123630986 -0.021861391 -0.029552957 -0.005277703 0.08676712 -0.0626192 0.1121153
-0.027928121 0.006304778 -0.066805825 -0.03822505 0.094832286 0.088119395 0.11708281 0.035971522
0.06371584 -0.06616573 -0.041370373 0.020882979 -0.11278957 -0.013875647 -0.06437559 0.021186115
0.028218845 0.115844004 -0.11799487 -0.023692157 0.04924014 -0.0004309024 -0.013953934 -0.049633138
0.020451149 0.04824968 -0.06945377 -0.024107557 -0.078938946 0.10282659 -0.028846566 -0.09174454
0.11810754 -0.010631619 0.0045991414 0.008596266 -0.09038968 -0.09210788 -0.057191726 0.03698242
0.12087472 -0.06757027 0.13491811 -0.066003695 -0.13852833 0.097203866 -0.10684725 -0.03300572
-0.07826301 0.075956196 0.03909089 0.10173585 0.094739005 -0.024117604 -0.13665643 -0.10576797
-0.109474614 0.09640799 0.09094619 0.07183948 0.051208995 -0.09279314 0.04351894 0.01571649
0.09779587 -0.05597356 -0.05633773 0.006010808 0.0587136 0.052020803 0.099662565 -0.0928828
0.09776613 0.022335356 -0.16382255 -0.030631306 0.018982368 -0.07259511 0.10076482 0.02813312
-0.119427174 -0.014983762 -0.08659652 -0.08019055 -0.092926316 -0.093450785 0.037251193 0.15066363
0.05339348 0.121343516 -0.08244042 0.076060906 0.055043913 0.0039623957 0.07249858 0.1223073
-0.012199567 0.05895272 0.0018907159 -0.041829605 0.06612669 0.122005165 0.020866353 0.15394509
-0.014906662 -0.097784266 0.110723056 0.0052724914 0.0981843 0.161311 -0.088401146 -0.061409157
-0.04614219 0.021324318 0.022921354 -0.09766986 -0.06288639 -0.11775435 0.099953786 -0.06279729
-0.03564705 -0.09539728 0.14191979 0.16025177 0.09746772 0.1086418 -0.115735695 -0.07019962
-0.11418514 0.09410126 -0.10792313 0.078719065 -0.12736116 0.04388469 -0.062000785 0.0184975
00000000: 1a6c ccbd 44a1 703d 8778 993d d6fd dfbd
00000010: 9101 5e3d a41c db3d 1c47 80bd 2ee5 123d
00000020: b848 743d 89fd dc3d 8fd1 e83d 6b9e 6f3d
00000030: 0a07 e73d 05a5 b63d 42ce 99bd f049 df3c
00000040: 9b7a fd3c cc7b af3d 7159 493c 0d2e 15b9
00000050: 801f 9bbd fcd5 873d 67b3 643c e137 81bd
00000060: 8bb5 20bd 7843 04bd 0a7d 593b 3fb6 983d
00000070: 54bf 813d b9c1 463d 56b1 743d b766 75bd
00000080: cfd1 ac3b 475f 6fbd 07ef f33c c779 a03d
00000090: cd83 0dbe 161f 0c3a de8c 53bc 6ffe 733d
000000a0: 8338 b73d 8619 8abd 99d5 57bd 7b07 10bd
000000b0: 2c68 723d f567 d73d 4ee1 5cbc 4a15 b33b
000000c0: b33d 683d d85e 953d 8989 893d 50fd 61bd
000000d0: f059 a6bd 6341 cebd 4b62 c13c 46b4 8b3d
000000e0: 6392 8c3c 882e 8abd f05c f9bc d7fd a63c
000000f0: 5e92 c0bc 0276 2abd 8fef cebd 757e eabb
00000100: 3c50 f63a c080 913c a349 eabb 22af 923d
00000110: 75f4 debc 34dc d43d 87bd e2bc 6db6 743d
00000120: 7c58 2c3d cbac de3c c7dd 24bd d1bf 6a3d
00000130: 7cf1 7cbd 1a80 cc3d d5d7 ccbd 881d 9b3d
00000140: 7815 c1bd f274 d73d 4e2e b73d 4e90 603d
00000150: 4191 413d b22d f13d 9314 24bd dc62 43bb
00000160: 9c5e e3bd e509 7b3c ce3f 0b3b ad3f 6cbd
00000170: 26eb 0d3c b77f 13bd f11c 4dbd 8bb0 103d
00000180: 587b fe3d 8a26 073d 4ffe d7bb 89f2 70bd
00000190: f54b 5ebd 3928 ebbc a5ed 98bc 84f7 f83c
000001a0: 07dd e93d a606 c9bd c272 963d 52de 0bbd
000001b0: a99d 013e 89a5 5f3d eaa7 123d 286c c1bd
000001c0: 6252 80bd 3e32 fdbd a916 b3bc 0b19 f2bc
000001d0: 95f0 acbb f6b2 b13d 7f3e 80bd b59c e53d
000001e0: 84c9 e4bc 5098 ce3b 7ed1 88bd df91 1cbd
000001f0: 6e37 c23d f177 b43d 1dc9 ef3d e056 133d
00000200: 737d 823d e681 87bd fb73 29bd c812 ab3c
00000210: 38fe e6bd af56 63bc 59d7 83bd 818e ad3c
00000220: 352b e73c 9f3f ed3d 4ba7 f1bd 0e16 c2bc
00000230: 07b0 493d beea e1b9 0b9f 64bc 1e4c 4bbd
00000240: 2b89 a73c 75a1 453d c73d 8ebd 367d c5bc
00000250: beaa a1bd bf96 d23d a24f ecbc 90e4 bbbd
00000260: 5ee2 f13d 3e30 2ebc 65b4 963b 5ad7 0c3c
00000270: 391e b9bd 0ea3 bcbd df41 6abd e17a 173d
00000280: 2a8d f73d 4862 8abd f927 0a3e f22c 87bd
00000290: 5fda 0dbe d212 c73d bbd2 dabd 0131 07bd
000002a0: 5b48 a0bd ec8e 9b3d c51d 203d e35a d03d
000002b0: 8606 c23d 4892 c5bc aaef 0bbe e19c d8bd
000002c0: 3a34 e0bd 8d71 c53d ff41 ba3d 9420 933d
000002d0: 86c0 513d 540a bebd eb40 323d debf 803c
000002e0: 3349 c83d 8844 65bd 64c2 66bd 50f6 c43b
000002f0: ac7d 703d c413 553d e31b cc3d 5639 bebd
00000300: 9c39 c83d a3f8 b63c 19c1 27be 81ee fabc
00000310: e980 9b3c bfac 94bd c95d ce3d 6e77 e63c
00000320: 3c96 f4bd 747e 75bc 8459 b1bd f13a a4bd
00000330: 2750 bebd 2063 bfbd b594 183d 9147 1a3e
00000340: 1fb3 5a3d f382 f83d 86d6 a8bd d2c5 9b3d
00000350: ba75 613d fcd6 813b 237a 943d 407c fa3d
00000360: b1e0 47bc 6878 713d e6d1 f73a 8555 2bbd
00000370: 6e6d 873d d8dd f93d eaef aa3c c8a3 1d3e
00000380: 123b 74bc 1e43 c8bd c5c2 e23d ddc4 ac3b
00000390: da14 c93d b62e 253e a90b b5bd 2b88 7bbd
000003a0: 98ff 3cbd 56b0 ae3c 90c5 bb3c 2307 c8bd
000003b0: 94ca 80bd 3129 f1bd 92b4 cc3d de9b 80bd
000003c0: a402 12bd a65f c3bd 6c53 113e 0a19 243e
000003d0: 289d c73d 987f de3d d606 edbd d2c4 8fbd
000003e0: e6d9 e9bd 29b8 c03d cd06 ddbd 7637 a13d
000003f0: f76a 02be 6fc0 333d 89f4 7dbd 1288 973c

bias_ih_l0_reverse f4 [256]
0.08917732 -0.03322498 -0.05331244 0.010837965 -0.1016394 0.100258 -0.063539 0.02268308
-0.038226876 -0.006541659 0.11021738 0.036361802 0.04237554 -0.07970188 -0.11133664 0.013510225
0.024572778 -0.08145533 0.013016365 -0.04628376 0.14639641 -0.049957767 0.095165394 -0.009216468
-0.09020909 0.124280564 0.08715633 -0.028308498 0.0012828589 -0.022792406 0.04306539 -0.030913087
0.08703017 -0.061024383 -0.11126389 -0.080195315 -0.12354511 -0.016623966 0.11255161 -0.013511183
0.089844845 -0.006432649 0.022245038 0.09762917 0.07118592 0.033677347 -0.016046088 -0.067610525
-0.076149955 -0.12352392 0.036498196 0.011714868 -0.0005034702 0.06171319 0.12139295 -0.01389809
-0.085594945 0.037856854 0.041597255 -0.024111256 0.094477095 0.0650402 -0.044558786 -0.033890463
0.14217415 0.01944759 0.118016526 -0.015645599 0.04445041 0.07389041 -0.026865292 -0.03287388
0.0452505 -0.027805835 -0.11481798 0.15412727 0.07248347 0.03523217 0.025948005 0.027984943
0.06986491 -0.064976186 0.14573747 0.017319793 0.039148808 0.11123106 0.08191012 -0.022146355
0.119030185 0.07017701 -0.04086088 -0.027475419 0.03951694 0.007444199 0.09188063 -0.06786592
-0.053433612 -0.083971776 0.0764564 0.025726503 -0.055559687 0.08961974 0.017627366 -0.014125627
0.022609614 0.110650145 0.11767306 -0.037939854 0.11294943 -0.041177552 0.102498084 0.081508555
0.013608711 0.13973525 0.04851667 0.009123423 0.10975224 0.10366234 0.0005184494 -0.018743593
-0.103556775 0.041698854 -0.06776596 -0.09261692 0.100905985 -0.017966153 0.025289183 0.1015516
-0.11984372 0.011176156 0.08421062 0.056135833 0.01487656 -0.11742937 0.00074560795 0.034534913
0.0959182 -0.062749945 0.099477924 0.0247329 0.07699068 -0.113037676 -0.015672255 -0.08068685
0.060943656 -0.13385731 0.10257666 0.037368692 0.046369445 0.033652492 -0.09320029 0.08953727
0.0047570122 -0.059578978 -0.012657588 -0.02208136 0.044802632 -0.12113574 -0.054718465 -0.091283776
-0.0053917593 -0.06777691 0.085386164 0.037211295 0.086120375 -0.11313596 0.090861276 0.06346502
0.064668424 -0.017453313 0.008882397 -0.06042193 -0.088951305 -0.028717473 -0.06430027 0.08040672
0.055626623 -0.02677818 0.116693735 -0.09445816 0.11840548 0.11887318 -0.0015997891 0.05588077
0.030862033 -0.018700697 0.08825578 0.12623158 -0.029216286 -0.008913982 0.059234243 0.06816461
-0.03135097 -0.06986117 0.05194568 0.04692676 -0.0027937945 -0.0256369 -0.10513526 -0.11248487
0.08800481 0.08897527 0.027298836 0.10312687 -0.11537311 0.11592174 0.033422615 0.03668074
-0.08373505 0.130704 -0.050853282 0.11044279 0.11334763 -0.016527288 0.011700078 -0.043438338
0.047657322 -0.024161573 -0.05404257 0.026518678 0.004994366 0.02640597 -0.057436842 0.002005598
0.12474974 0.04812373 0.020059686 0.07377045 0.052951824 0.053723976 0.08757249 0.03841943
0.08871315 0.026532793 -0.044247895 0.11304307 -0.06927954 0.021738749 -0.098016806 0.027852567
0.052938946 -0.08455057 0.12607428 0.12786947 0.046881303 -0.084903516 -0.016439222 -0.112378985
0.12339804 -0.03131856 0.04647016 -0.029946107 -0.0027838869 0.17142594 -0.03301196 -0.069788255
00000000: 99a2 b63d eb16 08bd 255e 5abd b891 313c
00000010: 5128 d0bd 1154 cd3d bc20 82bd ded1 b93c
00000020: c993 1cbd 6a5b d6bb a6b9 e13d 1df0 143d
00000030: f991 2d3d bd3a a3bd 7704 e4bd fe59 5d3c
00000040: da4c c93c 0dd2 a6bd 9742 553c 0a94 3dbd
00000050: f1e8 153e 84a0 4cbd 13e6 c23d ab00 17bc
00000060: 8bbf b8bd cf86 fe3d 057f b23d 39e7 e7bc
00000070: 9a25 a83a 24b7 babc 5665 303d 713d fdbc
00000080: e03c b23d b4f4 79bd 53de e3bd 713d a4bd
00000090: 3805 fdbd fc2e 88bc 7581 e63d 025e 5dbc
000000a0: 9300 b83d f9c8 d2bb 3a3b b63c cdf1 c73d
000000b0: ecc9 913d 42f1 093d 1673 83bc 6377 8abd
000000c0: 82f4 9bbd 1cfa fcbd 227f 153d b8ef 3f3c
000000d0: 50fb 03ba f8c6 7c3d de9c f83d d1b4 63bc
000000e0: 674c afbd ca0f 1b3d e261 2a3d f884 c5bc
000000f0: 357d c13d cc33 853d 4683 36bd bad0 0abd
00000100: 1a96 113e 8d50 9f3c a6b2 f13d 332b 80bc
00000110: a211 363d db53 973d 9a14 dcbc c3a6 06bd
00000120: 9758 393d 10c9 e3bc b025 ebbd 8ad3 1d3e
00000130: 3772 943d 9c4f 103d e990 d43c ae40 e53c
00000140: 5515 8f3d 3c12 85bd 343c 153e 3de2 8d3c
00000150: 805a 203d 1ccd e33d 7ec0 a73d 466c b5bc
00000160: 19c6 f33d f7b8 8f3d bd5d 27bd 2114 e1bc
00000170: 84dc 213d 78ee f33b e92b bc3d 4afd 8abd
00000180: 34dd 5abd 65f9 abbd 2c95 9c3d 63c0 d23c
00000190: 8e92 63bd 8e8a b73d 4467 903c 2d6f 67bc
000001a0: cc37 b93c 8b9c e23d 93fe f03d d266 1bbd
000001b0: 0852 e73d cba9 28bd 84ea d13d f5ed a63d
000001c0: 12f7 5e3c c216 0f3e 6ab9 463d 697a 153c
000001d0: c8c5 e03d ec4c d43d 8de8 073a 2a8c 99bc
000001e0: 9315 d4bd 6bcc 2a3d e1c8 8abd f1ad bdbd
000001f0: cca7 ce3d c12d 93bc 432b cf3c 49fa cf3d
00000200: a070 f5bd 321c 373c 9e76 ac3d b0ee 653d
00000210: d1bc 733c cf7e f0bd e774 433a 7b74 0d3d
00000220: c370 c43d 0b83 80bd 15bb cb3d a79c ca3c
00000230: 4aad 9d3d 4c80 e7bd 1a63 80bc 263f a5bd
00000240: 0ea0 793d e411 09be b613 d23d ea0f 193d
00000250: e3ed 3d3d 32d7 093d cbdf bebd 515f b73d
00000260: b6e0 9b3b 1609 74bd c661 4fbc f8e3 b4bc
00000270: f782 373d 0416 f8bd 7820 60bd fdf2 babd
00000280: 5bad b0bb 9fce 8abd f1de ae3d df6a 183d
00000290: e15f b03d d4b3 e7bd 7a15 ba3d f3f9 813d
000002a0: e170 843d 40fa 8ebc 7987 113c fc7c 77bd
000002b0: 1a2c b6bd e840 ebbc dcaf 83bd 47ac a43d
000002c0: bed8 633d ea5d dbbc 20fd ee3d 4873 c1bd
000002d0: 937e f23d c873 f33d 04b0 d1ba 3ce3 643d
000002e0: 60d2 fc3c 3432 99bc 72bf b43d da42 013e
000002f0: fe56 efbc f30b 12bc 9b9f 723d e399 8b3d
00000300: e069 00bd 6013 8fbd fec4 543d 4636 403d
00000310: 1818 37bb 7a04 d2bc 2851 d7bd 785e e6bd
00000320: de3b b43d ab38 b63d cfa1 df3c 2e34 d33d
00000330: bd48 ecbd 6168 ed3d 27e6 083d 8b3e 163d
00000340: 487d abbd 45d7 053e 884b 50bd d42f e23d
00000350: cd22 e83d 3c64 87bc afb1 3f3c 66ec 31bd
00000360: 5334 433d 7eee c5bc be5b 5dbd b33d d93c
00000370: c7a7 a33b 5551 d83c e542 6bbd 5a70 033b
00000380: cb7c ff3d 631d 453d 3654 a43c f614 973d
00000390: 03e4 583d ac0d 5c3d 3559 b33d b15d 1d3d
000003a0: 3daf b53d 4d5b d93c 483d 35bd 2083 e73d
000003b0: 6ee2 8dbd 7615 b23c 09bd c8bd 112b e43c
000003c0: 82d6 583d d928 adbd 9e19 013e 37f0 023e
000003d0: 9c06 403d e5e1 adbd 8cab 86bc f426 e6bd
000003e0: 1db8 fc3d e447 00bd 7f57 3e3d 8a51 f5bc
000003f0: df71 36bb 488a 2f3e 8d37 07bd 25ed 8ebd
