model/lstm_7.model (torch, 669851 bytes, 17 tensors)

weight_ih_l0 f4 [256, 64]
-0.043677017 0.023130855 -0.032482367 -0.16306971 -0.08622385 0.0541175 0.013226368 -0.0072939713
0.095057614 -0.005498983 -0.10737261 0.021789726 -0.06202039 0.15669279 -0.00968891 0.023772638
0.00056702277 -0.004642556 0.045947902 0.06549448 -0.097187415 0.02011189 0.12385606 -0.08415994
0.008768364 -0.036359437 -0.013638195 -0.0034845106 0.08202421 -0.14033253 -0.07986624 0.04098259
-0.092553146 0.036466423 -0.038370077 0.096046746 0.04012247 -0.13420093 0.04604443 -0.08481982
-0.063692495 -0.093719065 0.04114718 0.13731903 0.0032465134 0.095190205 -0.036287352 0.17189343
0.030772654 -0.038136136 -0.12524581 0.041370668 -0.0027813627 0.08472924 -0.039306104 -0.049291704
-0.1796597 -0.07696777 0.05786576 0.09281014 -0.17297707 0.04980365 -0.05971912 0.009092984
-0.0014298784 0.07241806 -0.09218917 0.021154147 -0.085709065 0.074945256 0.03864476 -0.11759055
-0.06866746 0.08928021 0.0013087406 0.09060836 0.022973971 0.12454202 0.085313044 0.08364034
0.009538931 -0.06417082 -0.07578546 -0.030617038 0.10184037 -0.10115066 0.025311723 -0.086078346
0.025785781 0.11090749 0.09181781 -0.034445185 0.07663551 0.07144759 0.10659569 -0.012214126
0.098341234 0.050408877 -0.07939366 -0.011069053 0.0520153 -0.14856063 -0.079041384 0.06258848
-0.0630051 0.0010771375 0.048849415 0.10419151 0.039506145 0.12215268 0.06506524 0.061038613
-0.037673417 -0.0038951389 0.054020748 0.09172412 -0.002997299 0.029961705 -0.044869468 -0.072553836
-0.10874775 0.069166884 0.021803023 -0.10638361 -0.00067080336 0.08529901 0.049585223 0.13663997
0.080734864 0.10480992 -0.11382779 -0.08930643 0.0095731495 0.0033399907 0.03842086 -0.07835602
-0.08967012 -0.008302243 -0.09282779 0.08447757 0.15048613 -0.011581982 -0.04756872 0.022489997
0.067491904 -0.013021702 0.0055935965 -0.1444029 0.0017661735 0.07226161 -0.04482756 0.10991233
-0.02280443 0.02767004 -0.044688523 0.0980942 0.04300393 0.083466694 -0.046570644 -0.033020746
0.060299788 -0.11716708 -0.12127726 0.12308306 -0.015366183 -0.09268654 -0.009672706 -0.0080325175
-0.08677073 -0.040408965 -0.0054974253 0.090842046 -0.030488363 -0.08871613 0.055374064 0.017914087
0.03142779 -0.06699227 -0.042091176 0.01530075 0.06701402 0.033820283 0.02779102 -0.002545776
-0.06605114 0.098760724 0.11650635 -0.030759707 -0.118290424 0.07179665 -0.05081775 0.041827224
0.1192717 0.054932453 -0.07709837 -0.0053291637 -0.019868856 -0.03492271 0.107930064 -0.111074544
0.034784224 -0.036842514 0.13032767 0.046774756 0.04745679 0.007563935 -0.0077370214 0.10566595
-0.04191066 -0.10868329 -0.054326218 -0.09581559 -0.04588517 0.10031031 0.07346311 0.017352311
-0.03593135 0.008445705 0.09795498 -0.024854777 -0.17643392 -0.01204734 -0.06388735 0.046066597
0.045271605 -0.03407814 -0.08213932 -0.057070445 0.07631928 0.11171659 -0.18121769 -0.09672915
0.10489111 0.049011134 -0.017069614 -0.111086205 -0.14963797 0.11340046 -0.11278883 0.10123007
0.069822654 -0.0667855 -0.09012546 -0.033612736 0.011806915 0.04201086 -0.07691074 0.08079947
0.08808295 -0.0684272 -0.03906578 0.09242762 -0.023684118 0.053666506 0.12379897 0.07222151
00000000: ace6 32bd eb7c bd3c 3b0c 05bd bffb 26be
00000010: 2196 b0bd 50aa 5d3d 69b3 583c 4402 efbb
00000020: 91ad c23d d030 b4bb 2ce6 dbbd 5e80 b23c
00000030: 1809 7ebd 1374 203e 3cbe 1ebc d6be c23c
00000040: 41a4 143a 9520 98bb de33 3c3d f821 863d
00000050: 320a c7bd b1c1 a43c 3fa8 fd3d 0c5c acbd
00000060: 2fa9 0f3c a2ed 14bd bc72 5fbc 635c 64bb
00000070: 4ffc a73d 55b3 0fbe e990 a3bd 5cdd 273d
00000080: 818c bdbd d15d 153d f129 1dbd 28b4 c43d
00000090: 7657 243d f86b 09be 1699 3c3d 04b6 adbd
000000a0: 3671 82bd c8ef bfbd f289 283d 5c9d 0c3e
000000b0: 75c3 543b 15f3 c23d 0ca2 14bd d504 303e
000000c0: ef16 fc3c a334 1cbd 7040 00be 4a74 293d
000000d0: 8647 36bb 8686 ad3d 70ff 20bd 19e6 49bd
000000e0: b6f8 37be 47a1 9dbd a604 6d3d 3e13 be3d
000000f0: e720 31be e9fe 4b3d 099c 74bd bdfa 143c
00000100: c26a bbba eb4f 943d adcd bcbd 764b ad3c
00000110: 3c88 afbd e67c 993d f849 1e3d 50d3 f0bd
00000120: 86a1 8cbd 8bd8 b63d 0c8a ab3a e090 b93d
00000130: e933 bc3c e30f ff3d 9bb8 ae3d a04b ab3d
00000140: 2d49 1c3c fe6b 83bd 6835 9bbd 95d0 fabc
00000150: af91 d03d 1428 cfbd 885a cf3c d849 b0bd
00000160: b43c d33c 7723 e33d fa0a bc3d 6516 0dbd
00000170: 14f3 9c3d 1d53 923d d74e da3d c21d 48bc
00000180: 2167 c93d 8a79 4e3d 2599 a2bd f95a 35bc
00000190: ff0d 553d 4720 18be 73e0 a1bd 642e 803d
000001a0: d108 81bd bd2e 8d3a 5316 483d 5c62 d53d
000001b0: 32d1 213d 2f2b fa3d ed40 853d a003 7a3d
000001c0: 714f 1abd 9645 7fbb dc44 5d3d dbd9 bb3d
000001d0: 556e 44bb 4072 f53c 0cc9 37bd 1b97 94bd
000001e0: 24b7 debd 5ea7 8d3d 419c b23c a6df d9bd
000001f0: dad8 2fba 3fb1 ae3d e019 4b3d 59eb 0b3e
00000200: 5258 a53d 95a6 d63d 8b1e e9bd 4ae6 b6bd
00000210: b3d8 1c3c bfe3 5a3b 315f 1d3d 1f79 a0bd
00000220: f8a4 b7bd 2206 08bc 7f1c bebd 9402 ad3d
00000230: 0919 1a3e 5ac2 3dbc 6bd7 42bd f13c b83c
00000240: 3239 8a3d fa58 55bc 7d4a b73b 5bde 13be
00000250: f37e e73a e5fd 933d 1b9d 37bd b719 e13d
00000260: 5bd0 babc 48ac e23c 500b 37bd 9de5 c83d
00000270: e424 303d 96f0 aa3d dcc0 3ebd c340 07bd
00000280: e9fc 763d 4bf5 efbd 3660 f8bd f912 fc3d
00000290: 71c2 7bbc 71d2 bdbd 457a 1ebc d29a 03bc
000002a0: dab4 b1bd df83 25bd bf23 b4bb 650b ba3d
000002b0: bbc2 f9bc cdb0 b5bd eacf 623d 90c0 923c
000002c0: 6dba 003d 3e33 89bd cc67 2cbd ffaf 7a3c
000002d0: a63e 893d 2387 0a3d fea9 e33c 09d7 26bb
000002e0: d245 87bd 1043 ca3d e29a ee3d c8fb fbbc
000002f0: 4042 f2bd 1f0a 933d 4626 50bd 0653 2b3d
00000300: b944 f43d da00 613d c0e5 9dbd 44a0 aebb
00000310: 03c4 a2bc 1e0b 0fbd 700a dd3d 0d7b e3bd
00000320: e779 0e3d 2de8 16bd 9e74 053e e396 3f3d
00000330: 0d62 423d e3da f73b d786 fdbb 6467 d83d
00000340: 83aa 2bbd 5895 debd 2b85 5ebd f73a c4bd
00000350: 17f2 3bbd 7e6f cd3d d473 963d 6f26 8e3c
00000360: c02c 13bd db5f 0a3c 9f9c c83d 3f9c cbbc
00000370: 18ab 34be 3562 45bc 5fd7 82bd 54b0 3c3d
00000380: b86e 393d 8595 0bbd a938 a8bd b3c2 69bd
00000390: 484d 9c3d abcb e43d 2191 39be ef19 c6bd
000003a0: 26d1 d63d e6bf 483d 93d5 8bbc 2a81 e3bd
000003b0: b23a 19be 803e e83d d5fd e6bd b651 cf3d
000003c0: 2eff 8e3d d6c6 88bd b293 b8bd 82ad 09bd
000003d0: ca71 413c 9413 2c3d 6183 9dbd 317a a53d
000003e0: d564 b43d 8f23 8cbd 7003 20bd b14a bd3d
000003f0: 3205 c2bc 69d1 5b3d 508a fd3d dfe8 933d

weight_hh_l0 f4 [256, 64]
-0.118443154 0.13246386 -0.043126676 0.098760314 -0.080906875 0.1239147 0.051296692 0.03894083
0.2290202 0.009572241 -0.13434593 -0.02996785 -0.06460961 -0.02098276 0.060860477 -0.06003569
0.05827597 -0.058800597 0.10251997 -0.06553781 0.02563365 0.012023771 0.070101894 -0.060946945
0.029799618 0.09868505 -0.00673095 0.012208476 -0.06504483 -0.08617256 -0.16817352 -0.15001726
0.13555534 0.05283392 0.042290952 -0.074565634 0.11075366 0.07910305 0.07969006 0.020991728
0.030396573 -0.082300976 0.10994336 0.053603295 -0.11781915 0.021444157 -0.009506851 -0.13586402
-0.0685748 0.0001333029 0.02674205 -0.0040698797 -0.05926983 0.02511693 0.10618564 -0.042251512
-0.12796494 0.09713418 -0.13737677 0.0016391675 -0.18446122 0.05774802 0.030846445 -0.013765629
0.092798956 -0.135618 -0.08498173 -0.022745207 0.093094416 0.05117396 0.005082447 -0.14135765
-0.09315415 0.024505999 -0.09436865 0.12343664 -0.07130572 0.021225423 -0.08611641 -0.16684508
-0.028889256 -0.11240002 0.112669006 -0.09678088 -0.09201099 -0.010877972 -0.1286169 -0.07430854
0.07968124 0.088061444 0.04037155 0.036281288 0.12422615 -0.0090665985 0.06203713 -0.12592952
0.05273512 -0.07181195 -0.005807791 -0.00049607496 -0.022233894 0.06238252 0.10776014 -0.0087449085
-0.1361761 0.0724915 -0.04003409 0.07173087 -0.03168108 0.006394764 -0.028063735 0.09137439
0.15143509 0.03171152 -0.121887214 -0.08922634 0.10634319 0.10418574 -0.021430036 0.04534049
0.04580126 -0.0028913536 -0.024190105 -0.07760368 0.03939077 0.05486815 0.094567664 -0.07671095
0.05899289 0.1012276 0.09603988 0.11500812 0.07044711 -0.027932724 -0.103488885 -0.014446896
-0.04538807 -0.016729059 -0.09542552 0.004761432 0.0250937 0.0011317296 -0.012853867 0.046488505
-0.11601618 -0.0021447833 -0.076115966 0.06360835 -0.027026305 -0.06373907 -0.13320805 -0.1400355
0.04983851 -0.030970696 -0.03008571 -0.13456751 -0.14029069 0.13070095 0.02449089 0.019759929
-0.056171775 0.049740613 -0.00548975 -0.0614411 0.122224025 0.08871079 0.017545778 -0.1136894
0.09833314 -0.021281952 -0.004411422 0.06020564 -0.081124745 -0.09256483 0.07402189 0.08280154
0.106268115 0.02661464 0.091696836 0.13203807 -0.080837585 0.12345648 0.11021075 0.12147593
-0.074517876 -0.061262846 0.1219103 -0.0023900666 -0.06444208 0.062317736 0.052054383 -0.080456086
-0.035784952 0.085578755 0.038796607 -0.04966332 -0.051150143 -0.12536365 0.059707694 -0.12221879
-0.010215999 0.03961445 0.016838232 -0.09827237 0.0033459114 0.04739743 -0.12009763 -0.032431785
-0.12315771 0.119928434 -0.106340736 0.005529709 -0.06390414 0.01464853 -0.100281276 0.039280616
0.024395185 0.09800529 -0.008465788 -0.09051941 -0.021870486 0.059061732 -0.008350095 0.08164241
0.028653206 0.016521614 -0.096048154 0.046225987 -0.14911072 0.123167634 -0.06524817 0.08928277
0.033406466 0.15154241 -0.07420549 0.07058834 0.12538196 0.13312961 -0.06733956 0.047407623
0.074423246 -0.18818936 0.07946305 -0.060466755 0.10239462 -0.0031542093 0.04074271 0.014962744
-0.054951068 -0.058821734 0.09248725 -0.10682822 -0.07384781 0.118020914 0.03805909 0.052909583
00000000: 5392 f2bd 9ba4 073e 99a5 30bd d942 ca3d
00000010: 81b2 a5bd fdc6 fd3d 7b1c 523d 6b80 1f3d
00000020: 4584 6a3e e4d4 1c3c fb91 09be 237f f5bc
00000030: 0b52 84bd 09e4 abbc d648 793d fce7 75bd
00000040: c9b2 6e3d e5d8 70bd fdf5 d13d b038 86bd
00000050: a9fd d13c 5aff 443c 9591 8f3d 81a3 79bd
00000060: 541e f43c 631b ca3d 4d8f dcbb 0f06 483c
00000070: 3936 85bd 3d7b b0bd ae35 2cbe 209e 19be
00000080: 05cf 0a3e 6168 583d 4739 2d3d deb5 98bd
00000090: d1d2 e23d c800 a23d 8b34 a33d d8f6 ab3c
000000a0: 3c02 f93c 6a8d a8bd fc29 e13d 218f 5b3d
000000b0: 2b4b f1bd a8ab af3c a0c2 1bbc f01f 0bbe
000000c0: f270 8cbd 3ac7 0b39 2512 db3c a05c 85bb
000000d0: ecc4 72bd 05c2 cd3c db77 d93d ec0f 2dbd
000000e0: 3e09 03be 49ee c63d 7fac 0cbe 56d9 d63a
000000f0: 67e3 3cbe 3089 6c3d afb1 fc3c 3c89 61bc
00000100: 610d be3d 72df 0abe e70a aebd 2854 babc
00000110: 49a8 be3d c99b 513d a88a a63b 0fc0 10be
00000120: 9ac7 bebd cec0 c83c 5a44 c1bd 59cc fc3d
00000130: bc08 92bd f0e0 ad3c cd5d b0bd 70d9 2abe
00000140: 29a9 ecbc fb31 e6bd 02bf e63d 0e35 c6bd
00000150: 4270 bcbd 8539 32bc 26b4 03be 132f 98bd
00000160: eb2f a33d 8f59 b43d a35c 253d b09b 143d
00000170: 486a fe3d 128c 14bc a51a 7e3d abf3 00be
00000180: c800 583d 2512 93bd 484f bebb 070b 02ba
00000190: db23 b6bc d084 7f3d 59b1 dc3d ce46 0fbc
000001a0: bf71 0bbe 6c76 943d c9fa 23bd a2e7 923d
000001b0: 05c4 01bd 2b8b d13b ebe5 e5bc 7f22 bb3d
000001c0: cd11 1b3e f0e3 013d 01a0 f9bd 4dbc b6bd
000001d0: 75ca d93d 555f d53d 0b8e afbc f3b6 393d
000001e0: 1a9a 3b3d dd7c 3dbb 542a c6bc aeee 9ebd
000001f0: 3758 213d 6dbd 603d b1ac c13d a11a 9dbd
00000200: 87a2 713d 6a50 cf3d 8eb0 c43d 6189 eb3d
00000210: 9346 903d 2bd3 e4bc fbf1 d3bd acb2 6cbc
00000220: d7e8 39bd 610b 89bc 746e c3bd c905 9c3b
00000230: 4e91 cd3c 8b56 943a 0799 52bc bb6a 3e3d
00000240: e499 edbd 7e8f 0cbb b0e2 9bbd 1845 823d
00000250: 4566 ddbc a189 82bd b167 08be 7765 0fbe
00000260: 7723 4c3d 42b6 fdbc 4f76 f6bc 11cc 09be
00000270: 5da8 0fbe 78d6 053e 1ea1 c83c 93df a13c
00000280: 6014 66bd d0bc 4b3d 5ce3 b3bb aaa9 7bbd
00000290: 9750 fa3d 01ae b53d 2abc 8f3c fdd5 e8bd
000002a0: e362 c93d 7d57 aebc b18d 90bb 309a 763d
000002b0: bb24 a6bd a192 bdbd ca98 973d db93 a93d
000002c0: 19a3 d93d f206 da3c 8dcb bb3d fd34 073e
000002d0: 2d8e a5bd c0d6 fc3d 2cb6 e13d 5fc8 f83d
000002e0: d49c 98bd c0ee 7abd 1bac f93d aaa2 1cbb
000002f0: 36fa 83bd e240 7f3d fa36 553d 29c6 a4bd
00000300: 3e93 12bd ea43 af3d 31e9 1e3d c46b 4bbd
00000310: d082 51bd 545f 00be 0e90 743d d84d fabd
00000320: 0161 27bc c342 223d 55f0 893c 0643 c9bd
00000330: 1447 5b3b cf23 423d bff5 f5bd 31d7 04bd
00000340: 1c3a fcbd 0a9d f53d 2cc9 d9bd 9032 b53b
00000350: 2ce0 82bd 6300 703c 4560 cdbd b6e4 203d
00000360: 69d8 c73c ffb6 c83d 17b4 0abc 3e62 b9bd
00000370: bc29 b3bc b7ea 713d d6ce 08bc 2334 a73d
00000380: 21ba ea3c 5658 873c e5b4 c4bd 7657 3d3d
00000390: 7bb0 18be 503f fc3d d5a0 85bd e3d9 b63d
000003a0: 38d5 083d ef2d 1b3e 0cf9 97bd 9f90 903d
000003b0: 2164 003e 2153 083e 53e9 89bd 7f2e 423d
000003c0: 376b 983d b6b4 40be 86bd a23d fdab 77bd
000003d0: 45b4 d13d dab6 4ebb d4e1 263d 4c26 753c
000003e0: 5f14 61bd 0fef 70bd f569 bd3d c1c8 dabd
000003f0: 853d 97bd f3b4 f13d d9e3 1b3d b8b7 583d

bias_ih_l0 f4 [256]
0.1374442 -0.032339487 0.11865386 -0.037296288 -0.012562509 0.052244913 0.12134556 0.12260226
-0.026782747 0.04096008 0.07999227 -0.05334738 -0.04901631 0.13498187 -0.0491429 -0.026215442
0.1366144 0.14104736 -0.014113801 0.063320056 0.0691904 0.061973166 -0.0911292 -0.04935666
0.10809687 -0.03164221 0.08911423 0.06704813 0.029198222 0.03901911 0.020992491 0.13763
-0.08081494 -0.12335427 -0.06297509 -0.07162742 0.049297176 -0.07038901 -0.1170976 0.07438596
-0.053453278 0.10882891 0.120729186 0.027457556 -0.052097496 -0.004853865 -0.06419192 -0.079202294
-0.031769723 0.10764148 0.11104113 0.0003712722 0.106348954 -0.047908388 -0.025917128 -0.061240856
-0.07671572 0.071621634 0.05429391 0.11929097 0.07510689 0.04310426 0.057708647 -0.001690867
-0.0018851435 -0.046438247 0.11923879 -0.09411661 0.009611217 -0.052488234 0.009584837 -0.032727856
0.12891917 0.12195094 0.09873174 -0.10231949 -0.056006502 -0.08642007 -0.0847891 0.12254274
-0.009789587 -0.084855966 0.07726837 0.029052068 0.0529232 -0.015349191 -0.08296004 -0.043818846
0.03152026 0.14023557 0.06677892 -0.10771896 0.0451423 0.11207649 -0.042616185 -0.082200326
-0.031451307 0.12553132 0.0370371 0.03960693 -0.014462009 0.113463074 0.07887909 0.09343226
0.08758587 -0.050588027 -0.07631202 0.14001119 -0.05523765 -0.043020464 -0.068066746 0.07899523
-0.0065021375 0.039953597 -0.057927407 0.025018996 -0.11108135 0.09663568 0.083576165 0.14777224
-0.07990472 0.08848373 0.12502089 0.06557757 0.0010222746 -0.0698896 -0.0905556 -0.07204938
-0.12551337 0.02316016 -0.11460508 0.04469475 0.01665824 -0.10426829 0.089798376 0.0010321233
0.10543664 0.062058643 -0.010531898 -0.026030578 -0.015811471 0.006197606 0.11464889 -0.008410016
-0.08686594 0.15635502 0.09875663 -0.09637044 -0.11159582 -0.020184197 -0.10119384 -0.08053788
-0.1281669 -0.009379568 -0.06666283 -0.09577878 -0.04437572 -0.043874823 0.051749885 -0.058493204
-0.04123903 0.048509326 0.12863609 0.02624089 0.12666129 0.0052776593 -0.14561519 -0.05647384
0.12297813 0.061446328 0.0886592 0.029337512 0.07479198 -0.052352566 0.0017036827 0.029785132
0.0011120749 0.0048830016 0.039160796 -0.046332642 0.06619018 0.07825346 0.1034072 -0.058679905
0.118582636 -0.073467076 0.09481829 -0.081182584 -0.008104119 0.011744775 -0.009660991 0.07411879
1.4267498e-05 0.027117582 0.079385474 -0.08769829 -0.06100893 -0.03304589 0.1006948 -0.09920669
-0.107701205 0.08806875 -0.04483183 -0.07477473 -0.047165588 0.047016807 0.014404582 -0.0049765734
-0.042754877 -0.021296991 -0.054531317 -0.03775402 0.001132574 0.107883014 0.11725979 0.05289388
-0.08201378 0.17388439 0.029205058 0.12785876 0.05530782 0.11603985 -6.719758e-06 -0.014787941
0.08594802 0.054578952 -0.026958989 -0.07593345 -0.04152228 -0.043089267 -0.09427091 0.01025471
0.11908063 -0.027120935 0.073712066 0.09114077 0.1493467 -0.03192698 0.0024119602 0.0020932609
0.13627231 0.08755722 -0.060199372 -0.044786293 -0.024540672 0.06925989 -0.07739944 -0.0486366
0.037260666 -0.04953977 0.13766365 -0.076904625 0.04453574 0.020200344 -0.018913282 -0.092207156
00000000: 2cbe 0c3e 6976 04bd cc00 f33d fec3 18bd
00000010: fbd2 4dbc c3fe 553d 0584 f83d e516 fb3d
00000020: 7e67 dbbc c2c5 273d fdd2 a33d c882 5abd
00000030: 54c5 48bd b038 0a3e 114a 49bd c4c1 d6bc
00000040: a5e4 0b3e b86e 103e 923d 67bc f2ad 813d
00000050: b2b3 8d3d 93d7 7d3d f2a1 babd 362a 4abd
00000060: e461 dd3d 439b 01bd 8581 b63d 8850 893d
00000070: 1c31 ef3c 81d2 1f3d 72f8 ab3c e1ee 0c3e
00000080: 4e82 a5bd 2aa1 fcbd 16f9 80bd 66b1 92bd
00000090: d6eb 493d 1d28 90bd ded0 efbd ab57 983d
000000a0: d3f1 5abd b1e1 de3d dd40 f73d abee e03c
000000b0: 2f64 55bd 2c0d 9fbb 0e77 83bd d034 a2bd
000000c0: f820 02bd 2373 dc3d 8869 e33d 50a7 c239
000000d0: 7bcd d93d 963b 44bd 2850 d4bc b1d7 7abd
000000e0: 221d 9dbd 5dae 923d 4a63 5e3d d34e f43d
000000f0: a4d1 993d 188e 303d e75f 6c3d 15a0 ddba
00000100: eb16 f7ba 0836 3ebd 7733 f43d 36c0 c0bd
00000110: 5e78 1d3c e7fd 56bd b809 1d3c a50d 06bd
00000120: 6303 043e 6ac1 f93d de33 ca3d e18c d1bd
00000130: 1367 65bd 01fd b0bd e8a5 adbd b0f7 fa3d
00000140: 8164 20bc f7c8 adbd e13e 9e3d 9afe ed3c
00000150: ffc5 583d 2c7b 7bbc f4e6 a9bd 647b 33bd
00000160: 631b 013d ea99 0f3e 63c3 883d c29b dcbd
00000170: 22e7 383d 5c88 e53d 4f8e 2ebd a558 a8bd
00000180: 16d3 00bd 488b 003e 37b4 173d e03a 223d
00000190: 10f2 6cbc 545f e83d 5c8b a13d 6a59 bf3d
000001a0: 3860 b33d 6435 4fbd 7a49 9cbd 185f 0f3e
000001b0: e040 62bd 3a36 30bd 9466 8bbd 40c8 a13d
000001c0: e20f d5bb 62a6 233d 4a45 6dbd a3f4 cc3c
000001d0: 9e7e e3bd ede8 c53d fb29 ab3d 9b51 173e
000001e0: 16a5 a3bd f536 b53d 7a05 003e 884d 863d
000001f0: d8fd 853a 4722 8fbd 3775 b9bd a08e 93bd
00000200: 9486 00be 60ba bd3c 11b6 eabd d811 373d
00000210: dd76 883c 9d8a d5bd 36e8 b73d 5048 873a
00000220: 2aef d73d 3431 7e3d fb8d 2cbc 143e d5bc
00000230: 0f87 81bc 4a15 cb3b 0acd ea3d 2aca 09bc
00000240: c5e6 b1bd 881b 203e eb40 ca3d de5d c5bd
00000250: 598c e4bd 5459 a5bc b73e cfbd 0bf1 a4bd
00000260: 2f3e 03be c2ac 19bc 8686 88bd aa27 c4bd
00000270: 51c3 35bd 16b6 33bd b0f7 533d 9296 6fbd
00000280: 42ea 28bd b7b1 463d 2eb9 033e 23f7 d63c
00000290: 7fb3 013e 37f0 ac3b 261c 15be 1d51 67bd
000002a0: f5db fb3d 25af 7b3d f492 b53d 3955 f03c
000002b0: 8a2c 993d a56f 56bd 1b4e df3a f3ff f33c
000002c0: 0bc3 913a 9601 a03b 1267 203d 4cc7 3dbd
000002d0: b88e 873d 5a43 a03d 27c7 d33d 575a 70bd
000002e0: 74db f23d e875 96bd 1730 c23d 0e43 a6bd
000002f0: 24c7 04bc 286d 403c 2249 1ebc 98cb 973d
00000300: 705e 6f37 b125 de3c da94 a23d 299b b3bd
00000310: 80e4 79bd 215b 07bd 1339 ce3d e12c cbbd
00000320: 7392 dcbd 645d b43d 95a1 37bd 7e23 99bd
00000330: b430 41bd b294 403d 3201 6c3c 8612 a3bb
00000340: bd1f 2fbd 0777 aebc 3b5c 5fbd f6a3 1abd
00000350: e172 943a c5f1 dc3d e725 f03d 41a7 583d
00000360: d7f6 a7bd c00e 323e 723f ef3c 68ed 023e
00000370: 748a 623d 4da6 ed3d 487a e1b6 1f49 72bc
00000380: 8405 b03d 2e8e 5f3d 19d9 dcbc ff82 9bbd
00000390: 4413 2abd 5f7e 30bd 1b11 c1bd 5f03 283c
000003a0: 8ce0 f33d b92c debc 5af6 963d 03a8 ba3d
000003b0: 57ee 183e ddc5 02bd fa11 1e3b 172f 093b
000003c0: f88a 0b3e 3351 b33d 9e93 76bd d571 37bd
000003d0: 8509 c9bc 21d8 8d3d 9983 9ebd 2c37 47bd
000003e0: a49e 183d 37ea 4abd b3f7 0c3e 2c80 9dbd
000003f0: 1c6b 363d 317b a53c 07f0 9abc 1bd7 bcbd

bias_hh_l0 f4 [256]
-0.062107738 -0.12212609 0.070574515 0.10300158 0.002791356 -0.012114108 0.059415627 0.014139112
-0.06844444 -0.015689135 -0.09146153 -0.110170566 0.15787467 0.017359093 -0.058211535 0.0998767
0.017142007 0.0999813 -0.0053532184 0.0074595227 -0.06773908 -0.0706238 0.0995043 0.046248436
0.118926175 -0.018134343 -0.08117963 -0.0519794 -0.017856335 -0.1027412 0.03760711 0.1263979
0.029280555 -0.08828816 0.09221891 0.09551714 -0.03248541 -0.05918001 -0.07647791 0.12736988
-0.027458193 -0.033690207 0.11910297 0.010378797 0.06187461 0.026965166 0.11126718 5.876035e-05
-0.0071290666 0.14354417 0.07696997 0.12408992 0.024546435 0.07834281 0.047858108 -0.10665635
0.06180395 0.12362584 -0.054889955 -0.008214236 -0.029893322 -0.024906704 0.052881192 0.031567752
-0.060895164 0.015455575 -0.09835097 -0.0891033 -0.05002956 -0.08808324 -0.06587572 -0.08356583
-0.04918179 -0.065046005 0.03409154 -0.024700826 0.046398245 -0.037896663 -0.07972343 0.11222607
0.03681116 -0.053185277 0.08908342 -0.04428827 0.14555013 -0.10861321 0.056017105 -0.09090457
0.019609287 0.1659761 -0.034809563 0.09468452 -0.0021213929 -0.048505954 -0.039064035 -0.07732336
0.055506375 0.06452425 0.11805354 0.081340045 0.07345422 -0.038193647 0.022050167 -0.074018516
0.03507195 0.019698594 0.13738325 0.051813208 0.14100054 -0.025911389 0.07578475 0.059848305
0.08451689 -0.011422538 0.116509065 -0.006071706 -0.059590414 0.10434206 -0.009141582 -0.005155279
0.050079666 -0.03241908 0.03967894 0.060989622 0.119706094 -0.06716551 0.11969003 -0.06674339
0.08092266 0.13432671 -0.09145105 -0.061187502 0.098209135 -0.08730869 -0.037448116 0.037523773
-0.018494735 -0.007820444 0.04277472 0.09628731 -0.036591515 0.026559902 -0.07465916 -0.08092288
-0.12042087 0.053682856 -0.111288905 -0.0638259 -0.014413633 0.014642456 -0.14839207 0.0019927898
-0.07158629 -0.07344551 0.027692348 0.056098085 -0.018929224 0.010240899 -0.010808164 -0.031245913
-0.0043162527 0.023896959 0.11888802 -0.09636136 0.06274591 -0.067861006 -0.06879141 -0.05375759
-0.077977814 0.004651209 0.012853226 0.1396182 -0.029150285 -0.076751314 0.0069107963 0.10940632
-0.068833865 0.1193338 0.04788218 -0.06942106 -0.042309873 0.015177631 0.0008546683 -0.086970955
-0.009920347 0.04263781 0.04022183 -0.024811305 -0.0071847173 -0.06147478 -0.0038165327 -0.023364922
0.16298182 0.09057961 0.0739695 0.12737781 0.094213165 0.11959315 0.07311822 -0.10540618
-0.09867261 0.085513934 -0.0070758313 0.12915622 -0.04904606 0.01511284 0.10028255 0.1159636
-0.052734103 -0.06111744 0.035277206 -0.051546887 0.08370246 -0.041378736 -0.06681409 0.11770283
-0.019984754 0.005084068 -0.070905544 0.09041755 0.043527685 0.10277905 0.10272135 -0.08674096
0.101528 -0.034633093 -0.055447757 0.054242883 0.07282432 -0.06304673 0.043751154 -0.08782251
0.07563876 -0.012215092 0.10015171 0.04944772 0.0055694142 0.1375498 -0.048522595 -0.008746012
-0.07771612 0.048762467 0.12259446 -0.011727267 0.08925733 0.0321417 -0.064290084 -0.03313016
0.087737456 0.018750614 0.057173897 -0.023303898 0.0105492985 0.09466959 0.12906036 0.114232145
00000000: af64 7ebd 3e1d fabd 5f89 903d 7ef2 d23d
00000010: 2fef 363b 407a 46bc cd5d 733d bca7 673c
00000020: 992c 8cbd 8086 80bc 2f50 bbbd 1ba1 e1bd
00000030: e6a9 213e a834 8e3c 386f 6ebd 288c cc3d
00000040: 656d 8c3c ffc2 cc3d 0d6a afbb 036f f43b
00000050: c9ba 8abd 36a3 90bd e9c8 cb3d 006f 3d3d
00000060: 918f f33d 798e 94bc 8141 a6bd 5ae8 54bd
00000070: 7347 92bc fa69 d2bd ea09 1a3d 736e 013e
00000080: c6dd ef3c 6cd0 b4bd 45dd bc3d 7e9e c33d
00000090: 6c0f 05bd bd66 72bd 73a0 9cbd 406d 023e
000000a0: 01f0 e0bc befe 09bd 42ec f33d d40b 2a3c
000000b0: 3b70 7d3d 0de6 dc3c 0ce0 e33d 7275 7638
000000c0: f29a e9bb 3efd 123e 6ea2 9d3d db22 fe3d
000000d0: 9b15 c93c 3272 a03d dd06 443d a56e dabd
000000e0: 2426 7d3d 8b2f fd3d 4ad4 60bd 0195 06bc
000000f0: d7e2 f4bc 2509 ccbc f399 583d 304d 013d
00000100: 356d 79bd 6139 7d3c 3c6c c9bd ca7b b6bd
00000110: cceb 4cbd fc64 b4bd d9e9 86bd 9024 abbd
00000120: d872 49bd d736 85bd 92a3 0b3d 6359 cabc
00000130: 160c 3e3d 8839 1bbd 0a46 a3bd c8d6 e53d
00000140: 4dc7 163d ced8 59bd 5e71 b63d 9e67 35bd
00000150: 180b 153e 9a70 debd 3172 653d 2d2c babd
00000160: a8a3 a03c a4f5 293e 7994 0ebd f5e9 c13d
00000170: 1107 0bbb 2eae 46bd 9c01 20bd b65b 9ebd
00000180: a75a 633d 4a25 843d 0ec6 f13d 9c95 a63d
00000190: 2b6f 963d f170 1cbd 8da2 b43c 0597 97bd
000001a0: 9ba7 0f3d f25e a13c 32ae 0c3e 163a 543d
000001b0: 7262 103e 1f44 d4bc 0935 9b3d 7f23 753d
000001c0: 3117 ad3d 9925 3bbc 4e9c ee3d 29f5 c6bb
000001d0: 1415 74bd 4ab1 d53d 93c6 15bc 9ded a8bb
000001e0: 5620 4d3d dfc9 04bd 6286 223d 41d0 793d
000001f0: 7828 f53d 128e 89bd 0c20 f53d c2b0 88bd
00000200: c8ba a53d f18c 093e b04a bbbd bf9f 7abd
00000210: df21 c93d e6ce b2bd 3263 19bd 87b2 193d
00000220: 4582 97bc 5221 00bc 8b34 2f3d 4832 c53d
00000230: fce0 15bd 2794 d93c e7e6 98bd e5ba a5bd
00000240: 389f f6bd 8ee2 5b3d 70eb e3bd 27b7 82bd
00000250: 2927 6cbc e9e6 6f3c 17f4 17be 7799 023b
00000260: d59b 92bd 996a 96bd 10db e23c 1bc7 653d
00000270: 7611 9bbc 72c9 273c ba14 31bc 6ef7 ffbc
00000280: 5a6f 8dbb 8ec3 c33c 907b f33d 1b59 c5bd
00000290: ed80 803d b6fa 8abd 83e2 8cbd eb30 5cbd
000002a0: d5b2 9fbd 2b69 983b 5696 523c 13f8 0e3e
000002b0: 94cc eebc cb2f 9dbd f673 e23b 6c10 e03d
000002c0: c5f8 8cbd 4865 f43d 1b20 443d a12c 8ebd
000002d0: 1e4d 2dbd 99ab 783c d20b 603a d41d b2bd
000002e0: f388 22bc fca4 2e3d a5bf 243d 1441 cbbc
000002f0: c76d ebbb fbcc 7bbd cb1e 7abb cb67 bfbc
00000300: b5e4 263e cd81 b93d 527d 973d 546f 023e
00000310: d5f2 c03d 41ed f43d 01bf 953d 32df d7bd
00000320: de14 cabd ee21 af3d 60dc e7bb 8741 043e
00000330: 85e4 48bd d89b 773c f060 cd3d 537e ed3d
00000340: b7ff 57bd 4856 7abd d57e 103d d422 53bd
00000350: 326c ab3d c07c 29bd d3d5 88bd 2e0e f13d
00000360: 11b7 a3bc 4198 a63b ed36 91bd d62c b93d
00000370: 164a 323d d37d d23d 925f d23d 3fa5 b1bd
00000380: e9ed cf3d 6edb 0dbd 301d 63bd c92d 5e3d
00000390: eb24 953d a51e 81bd 6934 333d 4adc b3bd
000003a0: 7fe8 9a3d cf21 48bc 571c cd3d b189 4a3d
000003b0: a27f b63b dbd9 0c3e a1bf 46bd 6f4b 0fbc
000003c0: a129 9fbd 27bb 473d ce12 fb3d b923 40bc
000003d0: 8ccc b63d 04a7 033d 85aa 83bd 7eb3 07bd
000003e0: b2af b33d e39a 993c 2d2f 6a3d d1e7 bebc
000003f0: f7d6 2c3c 21e2 c13d 6628 043e 8bf2 e93d

weight_ih_l0_reverse f4 [256, 64]
-0.0048708883 -0.15897226 -0.010066918 0.0032450124 0.0589004 -0.05102179 -0.052134503 0.051506385
0.045979057 0.09752175 0.047892857 -0.07028171 -0.087424 0.103726156 -0.06491033 0.04983991
0.15162444 0.000966511 0.16935438 -0.027974376 0.021829167 -0.10504633 0.03584609 -0.1387376
0.0098453 0.118180744 -0.15091176 0.0030445475 0.036023505 0.057781737 -0.023158887 -0.007928512
-0.0004692531 0.1160338 0.055797487 -0.027506502 0.04767985 -0.20731017 -0.07632267 -0.097488016
0.10811857 0.0668825 0.080569625 0.020444782 -0.017948033 0.038603336 -0.10074907 0.115429305
0.0016337835 0.073396295 0.1416358 0.04563713 -0.036567856 0.03979706 -0.05247692 0.010500232
-0.04945696 0.09879249 0.00037256483 0.07816414 0.019808672 -0.026294425 0.013575616 0.13465968
0.048704155 -0.14777048 -0.046938848 -0.06857311 0.025568355 -0.08781482 -0.10068536 -0.13769032
0.054379214 0.016191876 -0.026417436 0.11349533 0.0042583374 -0.058905203 0.05249638 0.03951886
-0.0471426 0.14666618 0.043701455 0.09640045 -0.054544397 0.042303298 0.0041336906 -0.09980996
-0.0707412 0.0684582 0.11629898 -0.13427112 0.001658131 0.04056988 0.093653776 -0.05123822
0.09797325 0.14067475 0.1594293 0.01455317 -0.016883329 0.058215998 -0.093501925 -0.045977924
-0.004729206 -0.021751788 0.026093556 0.048988223 0.058142528 -0.056547847 -0.037584364 -0.09125716
0.14953274 0.047343716 0.0450472 -0.0034571933 -0.018736094 -0.09655819 -0.025352452 0.117001474
0.037641484 -0.062453836 0.11544881 -0.13814995 0.06522423 -0.12816963 -0.07947125 0.038843613
0.1285129 -0.026691668 0.14503473 -0.10354393 0.06291005 -0.04914211 0.0070414925 -0.06814407
-0.037077248 0.04388212 0.12292975 0.13243109 -0.082682885 0.06567056 -0.037422482 0.1206773
-0.01146351 -0.016074678 -0.020249248 0.047323614 -0.08278843 0.04319699 0.05994141 0.060156256
-0.15292768 -0.04567501 0.0981348 -0.013278887 -0.076903746 -0.068077356 0.12421459 0.021403555
0.082911216 -0.08814126 0.026044521 0.003797952 -0.001980618 0.13247499 -0.05627042 -0.10573947
0.108596146 0.13801679 0.05526716 -0.06935151 -0.071238294 -0.021198327 -0.0057838894 -0.002989619
0.043109383 -0.051025033 -0.021986935 -0.09920289 0.016991887 -0.10667092 -0.07176713 0.026715117
-0.09151126 -0.049058244 0.06003425 -0.08467976 0.013411592 -0.023982378 0.09722128 -0.07774721
0.026335366 -0.055949718 -0.057873216 8.4415304e-05 -0.06870008 0.002726215 -0.03184982 -0.056711785
0.04615117 -0.03733742 -0.14320098 -0.06578883 -0.040428713 0.14546163 0.014324416 0.061955426
0.096435174 -0.009829898 0.004632278 0.017120853 0.069821194 0.10430137 -0.026848545 0.13796024
-0.08326435 -0.124233685 0.044655327 0.055782393 0.06458678 -0.043771815 0.07557004 -0.0070563005
0.012081887 -0.030571962 0.0957107 -0.057285726 0.07086345 -0.0022679695 -0.004152157 -0.029226908
-0.11959252 -0.1433941 -0.19336605 0.094465286 -0.0005184018 0.028002009 0.032950893 -0.06029111
0.07576246 -0.13508491 0.07953527 0.048652135 -0.013934286 -0.038826253 -0.040818557 0.10667263
-0.15616742 -0.09788684 0.004503748 0.051911227 -0.05594828 -0.07352024 -0.15396932 0.07727814
00000000: f99b 9fbb a0c9 22be b7ef 24bc 46aa 543b
00000010: 8c41 713d 39fc 50bd fd8a 55bd 5cf8 523d
00000020: 8954 3c3d 7cb9 c73d 4d2b 443d dbef 8fbd
00000030: 5b0b b3bd 616e d43d b5ef 84bd ef24 4c3d
00000040: 7043 1b3e 755d 7d3a 3c6b 2d3e 852a e5bc
00000050: 15d3 b23c 8822 d7bd 5ad3 123d 3b11 0ebe
00000060: 2e4e 213c bf08 f23d 9d88 1abe 0887 473b
00000070: 628d 133d 8bac 6c3d b5b7 bdbc 97e6 01bc
00000080: 1606 f6b9 21a3 ed3d e88b 643d 5155 e1bc
00000090: f24b 433d 1e49 54be 0f4f 9cbd cca7 c7bd
000000a0: 456d dd3d b1f9 883d b001 a53d d17b a73c
000000b0: c107 93bc 881e 1e3d 8755 cebd 3366 ec3d
000000c0: ad24 d63a cc50 963d fa08 113e 00ee 3a3d
000000d0: 2dc8 15bd 3e02 233d 0af2 56bd 2a09 2c3c
000000e0: 6293 4abd b853 ca3d ce54 c339 8514 a03d
000000f0: cc45 a23c 6867 d7bc 436c 5e3c 3ae4 093e
00000100: 027e 473d 2551 17be f342 40bd 0f70 8cbd
00000110: ba74 d13c 42d8 b3bd 2034 cebd b1fe 0cbe
00000120: bdbc 5e3d d3a4 843c 6169 d8bc 3d70 e83d
00000130: 8689 8b3b 9546 71bd 7206 573d 87de 213d
00000140: 9918 41bd a92f 163e 4c00 333d 996d c53d
00000150: f269 5fbd 3946 2d3d e973 873b 2a69 ccbd
00000160: c3e0 90bd d033 8c3d 292e ee3d 5e7e 09be
00000170: a555 d93a 9a2c 263d 8dcd bf3d 2bdf 51bd
00000180: 33a6 c83d 0b0d 103e 6f41 233e 6b70 6e3c
00000190: e84e 8abc e673 6e3d f07d bfbd 5953 3cbd
000001a0: 75f7 9abb ce30 b2bc 27c2 d53c e0a7 483d
000001b0: dc26 6e3d b79e 67bd 10f2 19bd 09e5 babd
000001c0: 1c1f 193e 7ceb 413d 6a83 383d 1492 62bb
000001d0: 707c 99bc 4dc0 c5bd f2af cfbc 789e ef3d
000001e0: f52d 1a3d 98cf 7fbd 6d70 ec3d 2e77 0dbe
000001f0: 4894 853d e63e 03be d3c1 a2bd 7b1a 1f3d
00000200: e398 033e 7ca8 dabc fc83 143e d70e d4bd
00000210: fcd6 803d 3d49 49bd 52bc e63b 1e8f 8bbd
00000220: 50de 17bd bdbd 333d 98c2 fb3d 049c 073e
00000230: a555 a9bd 497e 863d 5148 19bd a925 f73d
00000240: 72d1 3bbc 0baf 83bc c0e1 a5bc 68d6 413d
00000250: fb8c a9bd 54ef 303d 2085 753d 6866 763d
00000260: 1399 1cbe b815 3bbd e6fa c83d b08f 59bc
00000270: b67f 9dbd 246c 8bbd 3864 fe3d 8256 af3c
00000280: 5bcd a93d 6883 b4bd 525b d53c 10e7 783b
00000290: 42cd 01bb 86a7 073e d07b 66bd ef8d d8bd
000002a0: a867 de3d 4654 0d3e d15f 623d 2a08 8ebd
000002b0: 62e5 91bd 1da8 adbc c886 bdbb 7ced 43bb
000002c0: 7793 303d a0ff 50bd f21d b4bc e32a cbbd
000002d0: 9232 8b3c 4976 dabd a5fa 92bd a9d9 da3c
000002e0: 416a bbbd 4cf1 48bd 79e6 753d 956c adbd
000002f0: 4bbc 5b3c b176 c4bc f31b c73d ee39 9fbd
00000300: 44bd d73c 882b 65bd 770c 6dbd 1f08 b138
00000310: a1b2 8cbd 4caa 323b f574 02bd 9e4a 68bd
00000320: 0209 3d3d 1fef 18bd 47a3 12be 4bbc 86bd
00000330: 9498 25bd e5f3 143e f5b0 6a3c f9c4 7d3d
00000340: ce7f c53d 950d 21bc 5dca 973b 0841 8c3c
00000350: 6afe 8e3d f59b d53d 7bf1 dbbc 7345 0d3e
00000360: 8086 aabd 3b6e febd 81e8 363d 147c 643d
00000370: 1346 843d 134a 33bd 77c4 9a3d 8a38 e7bb
00000380: 1bf3 453c 0d72 fabc f903 c43d 70a4 6abd
00000390: db20 913d 37a2 14bb d10e 88bb 456d efbc
000003a0: ecec f4bd e7d5 12be c001 46be 0477 c13d
000003b0: 5be5 07ba 7864 e53c 84f7 063d d0f3 76bd
000003c0: 5929 9b3d b353 0abe 63e3 a23d 7647 473d
000003d0: a24c 64bc 4708 1fbd 5c31 27bd 2e77 da3d
000003e0: 5aea 1fbe e578 c8bd 2d94 933b dea0 543d
000003f0: 062a 65bd c891 96bd 22aa 1dbe 0044 9e3d

weight_hh_l0_reverse f4 [256, 64]
-0.091770925 0.05359157 0.053101867 -0.1114101 0.074834146 0.10726051 -0.061172735 0.032672673
0.06838022 0.114446044 0.1335822 0.061980117 0.12028823 0.067715265 -0.059962757 0.030545924
0.055494566 0.08721586 0.024878332 0.0052326173 -0.09289558 0.058978204 -0.001940935 -0.06278833
-0.06066071 -0.04106231 0.02104288 0.077720925 0.04904819 0.044405483 0.052581746 -0.05915705
-0.0021550553 -0.07236701 0.025568604 0.075459406 -0.1418468 0.015809165 -0.010545651 0.06506123
0.10171195 -0.057686336 -0.047918834 -0.038454313 0.06675512 0.104562655 -0.03141151 -0.0011528356
0.042353325 0.06634157 0.06466673 -0.061930403 -0.095328555 -0.12604724 0.030063847 0.07013867
0.015045284 -0.06273223 -0.040312648 -0.015334405 -0.019298267 -0.03879631 -0.07858687 0.0061018164
0.016887737 0.02465377 -0.015783057 0.07089902 -0.047625773 0.08571349 -0.03802532 0.06918802
0.021940643 0.029807571 -0.0310571 0.063901976 -0.0501651 0.092233755 -0.099863745 0.07339302
-0.069921926 0.09583085 0.100563474 0.059842534 0.025233474 0.10334245 -0.05275085 0.0076139914
-0.13082348 0.013496678 -0.0065371315 -0.039464284 0.014205128 -0.06931547 -0.0484754 0.037863687
0.13488519 0.005922697 0.014483473 -0.06473385 -0.06850202 -0.032881275 -0.029510438 0.049981922
0.10906921 -0.09329784 0.071979105 -0.031797487 0.12140506 0.043153357 0.052015714 -0.087974116
-0.08330463 -0.12501693 -0.024350833 -0.019827243 0.008224207 0.08863214 -0.076909155 0.103759736
-0.015514889 0.017929759 -0.07094697 -0.07181133 0.11635938 0.09621733 0.1310879 0.02710778
0.07456957 -0.04436514 -0.07241724 0.019375712 -0.13756628 -0.006714921 -0.055253483 0.018489754
0.028100545 0.13372894 -0.12311021 -0.016383482 0.018708587 0.009396844 -0.019443812 -0.04826232
0.0052359016 0.06428593 -0.08938711 -0.019108772 -0.073046066 0.094185546 -0.04123491 -0.09019707
0.12193161 -0.025971435 0.0050994824 0.022404192 -0.07266827 -0.09393615 -0.060030643 0.05126146
0.13311733 -0.06335189 0.15766858 -0.06451868 -0.1596974 0.092738785 -0.10763491 -0.06004898
-0.0664391 0.093800694 0.041893616 0.10221513 0.13908036 -0.009849782 -0.18015075 -0.12877195
-0.13690151 0.09049762 0.12490522 0.086987756 0.04326666 -0.098583624 0.05969483 0.023126602
0.095415205 -0.06252387 -0.07026083 0.012199626 0.053364497 0.067216925 0.09969535 -0.08902561
0.09033442 0.039039675 -0.17883104 -0.032835454 0.007351679 -0.05750752 0.102875985 -9.865689e-05
-0.16934627 -0.019459033 -0.10221476 -0.09176396 -0.08543563 -0.10590474 0.06295665 0.15821344
0.04662842 0.115639776 -0.088173814 0.07072604 0.04686089 -0.016008219 0.05616551 0.13339177
-0.007445435 0.054287534 0.01733399 -0.03306153 0.0628083 0.121475056 -0.0058656232 0.14262038
-0.015772628 -0.10412359 0.12377784 -0.0011260033 0.09534795 0.17099603 -0.08081942 -0.09165964
-0.042458948 0.019051095 0.009285244 -0.11660583 -0.053895652 -0.13088422 0.09875928 -0.059113935
-0.047810677 -0.07585613 0.15448804 0.16890009 0.085028894 0.104665995 -0.15288958 -0.07951499
-0.109162174 0.112616174 -0.10591923 0.08848408 -0.12991837 0.03486285 -0.06429699 0.025661329
00000000: 65f2 bbbd d682 5b3d 5881 593d fa2a e4bd
00000010: a542 993d 66ab db3d 4390 7abd c8d3 053d
00000020: ee0a 8c3d b062 ea3d c6c9 083e ddde 7d3d
00000030: ad59 f63d 4dae 8a3d 829b 75bd 723b fa3c
00000040: 454e 633d 3b9e b23d a5cd cb3c 6076 ab3b
00000050: 0a40 bebd 2193 713d f966 feba 2b97 80bd
00000060: 5d77 78bd f430 28bd 1e62 ac3c 262c 9f3d
00000070: c1e6 483d 86e2 353d f55f 573d aa4e 72bd
00000080: d43b 0dbb 2835 94bd 4075 d13c 768a 9a3d
00000090: 4a40 11be 3982 813c abc7 2cbc d23e 853d
000000a0: 5b4e d03d 8248 6cbd 8a46 44bd 4582 1dbd
000000b0: e9b6 883d f224 d63d 5ba9 00bd be1a 97ba
000000c0: ae7a 2d3d 17de 873d fe6f 843d bcaa 7dbd
000000d0: 9e3b c3bd 8712 01be 7548 f63c dda4 8f3d
000000e0: 7f80 763c c179 80bd e01e 25bd 283d 7bbc
000000f0: 6617 9ebc e1e8 1ebd 27f2 a0bd bff1 c73b
00000100: 2758 8a3c b4f6 c93c 784b 81bc 8133 913d
00000110: 3e13 43bd 8e8a af3d 70c0 1bbd 73b2 8d3d
00000120: ddbc b33c 022f f43c 766b febc 0adf 823d
00000130: eb79 4dbd 0de5 bc3d 5d85 ccbd 144f 963d
00000140: 3a33 8fbd f742 c43d 39f4 cd3d 721d 753d
00000150: 6eb6 ce3c 35a5 d33d 4611 58bd ca7e f93b
00000160: 97f6 05be 2c21 5d3c 6f35 d6bb 4da5 21bd
00000170: a0bc 683c 45f5 8dbd 248e 46bd f416 1b3d
00000180: 581f 0a3e 2f13 c23b 174c 6d3c 2e93 84bd
00000190: c94a 8cbd 84ae 06bd e0bf f1bc d8b9 4c3d
000001a0: ae5f df3d f012 bfbd c869 933d 153e 02bd
000001b0: 37a3 f83d 93c1 303d 6e0e 553d c62b b4bd
000001c0: 9e9b aabd 7004 00be 667b c7bc be6c a2bc
000001d0: d3be 063c c484 b53d 8c82 9dbd fc7f d43d
000001e0: 2932 7ebc 6ee1 923c a54c 91bd d211 93bd
000001f0: d44d ee3d 970d c53d e83b 063e 2311 de3c
00000200: eeb7 983d 39b8 35bd 7d4f 94bd d0b9 9e3c
00000210: 2dde 0cbe d708 dcbb 7a51 62bd d377 973c
00000220: 1d33 e63c 3df0 083e 3521 fcbd a736 86bc
00000230: c042 993c 38f5 193c a148 9fbc b6ae 45bd
00000240: ed91 ab3b 57a8 833d 9710 b7bd 008a 9cbc
00000250: 2d99 95bd 5ae4 c03d f0e5 28bd 3eb9 b8bd
00000260: 48b7 f93d 0cc2 d4bc 8f19 a73b ff88 b73c
00000270: 1ad3 94bd 9961 c0bd b1e2 75bd 89f7 513d
00000280: e94f 083e a3be 81bd df73 213e 5f22 84bd
00000290: b787 23be d5ed bd3d b16f dcbd ebf5 75bd
000002a0: 3911 88bd 941a c03d a498 2b3d 2b56 d13d
000002b0: 156b 0e3e fb60 21bc 7079 38be cbdc 03be
000002c0: e92f 0cbe d156 b93d 4fce ff3d a326 b23d
000002d0: 6238 313d 36e6 c9bd 9182 743d 0074 bd3c
000002e0: 0c69 c33d 840c 80bd e9e4 8fbd f1e0 473c
000002f0: bb94 5a3d 07a9 893d 132d cc3d 0f53 b6bd
00000300: 4101 b93d 11e8 1f3d 7c1f 37be 787e 06bd
00000310: 5ae6 f03b 018d 6bbd a5b0 d23d 04e6 ceb8
00000320: 1c69 2dbe 8d68 9fbc f955 d1bd beee bbbd
00000330: e0f8 aebd 96e4 d8bd 6bef 803d b402 223e
00000340: 71fd 3e3d 8cd4 ec3d 7994 b4bd d0d8 903d
00000350: 34f1 3f3d ab23 83bc ce0d 663d da97 083e
00000360: d6f8 f3bb 9b5c 5e3d 0300 8e3c 876b 07bd
00000370: a3a1 803d eac7 f83d 6a34 c0bb 140b 123e
00000380: 9935 81bc c03e d5bd 3c7f fd3d 6796 93ba
00000390: c945 c33d 9519 2f3e a784 a5bd 0db8 bbbd
000003a0: 6fe9 2dbd 0b11 9c3c 2321 183c 0acf eebd
000003b0: b0c1 5cbd 8306 06be 4e42 ca3d 7421 72bd
000003c0: 21d5 43bd 755a 9bbd 1d32 1e3e 25f4 2c3e
000003d0: a123 ae3d 205b d63d 168f 1cbe c1d8 a2bd
000003e0: 6b90 dfbd 4fa3 e63d 2eec d8bd 2437 b53d
000003f0: 5209 05be 59cc 0e3d 24ae 83bd b537 d23c

bias_ih_l0_reverse f4 [256]
0.091744885 -0.021486785 -0.047922008 0.014055562 -0.11143639 0.09456923 -0.061195347 0.021264222
-0.037484907 -0.015074386 0.10791748 0.034357507 0.032747634 -0.071471944 -0.118051276 0.009928948
0.0403829 -0.081626505 0.02849246 -0.045274254 0.14172973 -0.049552664 0.09107194 -0.0018328562
-0.097447015 0.12828912 0.093181744 -0.018031752 -0.003334802 -0.024243383 0.029792396 -0.021202238
0.0882165 -0.055482563 -0.107783616 -0.0857494 -0.12524682 -0.014548416 0.11107677 -0.012357731
0.088041395 0.0011383984 0.021644013 0.0915538 0.07099712 0.03541375 0.005498049 -0.07297571
-0.07774862 -0.13717638 0.041389495 0.0056662187 0.0049459613 0.06383215 0.11541975 -0.018673005
-0.08392032 0.034033053 0.040902603 -0.024644198 0.097315304 0.06763919 -0.047760118 -0.0342802
0.15618588 0.030081747 0.12021593 -0.007296516 0.042471915 0.07453862 -0.029878467 -0.030132955
0.06329436 -0.034191962 -0.11691723 0.15323824 0.07537646 0.05278866 0.02104533 0.026403427
0.08225476 -0.05419845 0.16376296 0.018217435 0.03904753 0.114231646 0.09606609 -0.022972776
0.12907688 0.078536406 -0.04339293 -0.013958301 0.051473264 0.0091452105 0.09196317 -0.05215135
-0.044401433 -0.08088458 0.07475709 0.021963872 -0.051665176 0.099081695 0.013978527 -0.003509305
0.023580508 0.10756429 0.12515827 -0.039254732 0.12699252 -0.035677932 0.13861929 0.0777484
0.0113512445 0.1413464 0.04546363 0.011643095 0.115923345 0.105786465 0.010427214 -0.02014061
-0.1022953 0.040290598 -0.06521085 -0.095687926 0.10446861 -0.012293674 0.024957892 0.09944506
-0.12091815 0.009605027 0.09002675 0.055962086 0.015006281 -0.11188352 0.0029584083 0.03407902
0.09594617 -0.059657186 0.096112296 0.027058035 0.07728598 -0.11673945 -0.014728087 -0.07889008
0.05477242 -0.12725504 0.09928185 0.0385388 0.047821518 0.0322317 -0.091141276 0.08930321
0.0028601764 -0.059384596 -0.012401994 -0.013656223 0.043610897 -0.12296705 -0.054085243 -0.08949738
-0.0025604826 -0.06464499 0.082793884 0.03533446 0.08506893 -0.120745465 0.09043202 0.060566667
0.06668784 -0.016713534 0.012461762 -0.060078204 -0.091098495 -0.028285645 -0.070519894 0.07722276
0.05415553 -0.027773092 0.12419288 -0.099400654 0.118460946 0.12124518 -0.0017453808 0.06104488
0.028930405 -0.017562382 0.08656804 0.12644118 -0.027695045 -0.007258231 0.060287423 0.067677
-0.027303308 -0.055545673 0.061588373 0.056690052 -0.011628052 -0.021187026 -0.110279016 -0.10847518
0.10524873 0.09205124 0.028739229 0.102240376 -0.110185586 0.13506094 0.026360044 0.036796696
-0.064815365 0.14033815 -0.035093658 0.11028115 0.11424309 -0.013779264 0.012184802 -0.04177901
0.048886787 -0.026889646 -0.048997127 0.044335645 0.020465164 0.025194705 -0.057731275 0.0060130516
0.12416272 0.054516368 0.020893596 0.06880548 0.054943472 0.056947593 0.0840747 0.045070145
0.0891528 0.027354086 -0.03246061 0.112640984 -0.05987183 0.028094906 -0.062894486 0.03141095
0.051423974 -0.08119196 0.13893546 0.13227585 0.0503665 -0.08554626 -0.011709911 -0.1139462
0.12415532 -0.03437648 0.04672935 -0.03464076 -4.0101753e-05 0.19513726 -0.036078412 -0.07176122
00000000: bee4 bb3d 0e05 b0bc de49 44bd 4d49 663c
00000010: c338 e4bd 83ad c13d f9a7 7abd 4e32 ae3c
00000020: c689 19bd 8ffa 76bc d703 dd3d 75ba 0c3d
00000030: 6222 063d e25f 92bd dec4 f1bd 07ad 223c
00000040: 8a68 253d cc2b a7bd 0569 e93c 7f71 39bd
00000050: 9921 113e bcf7 4abd ed83 ba3d 733c f0ba
00000060: 4d92 c7bd 395e 033e 12d6 be3d 53b7 93bc
00000070: b28c 5abb 0f9a c6bc 2f0f f43c 51b0 adbc
00000080: daaa b43d af41 63bd a8bd dcbd 629d afbd
00000090: b440 00be 7b5c 6ebc 387c e33d 1578 4abc
000000a0: 0c4f b43d 5036 953a c94e b13c 8f80 bb3d
000000b0: f066 913d 020e 113d fa28 b43b 4a74 95bd
000000c0: ab3a 9fbd f777 0cbe 0888 293d b0ab b93b
000000d0: bb11 a23b 6eba 823d 3161 ec3d 21f8 98bc
000000e0: 6bde abbd 3e66 0b3d 7d89 273d a1e2 c9bc
000000f0: 3f4d c73d 6a86 8a3d 1da0 43bd 6569 0cbd
00000100: 31ef 1f3e ff6d f63c c533 f63d 9d17 efbb
00000110: 08f7 2d3d b4a7 983d b0c3 f4bc 63d9 f6bc
00000120: 79a0 813d df0c 0cbd 4d72 efbd 7cea 1c3e
00000130: f95e 9a3d ec38 583d 4267 ac3c 004c d83c
00000140: 2f75 a83d 32ff 5dbd 7ab1 273e bb3c 953c
00000150: 4ef0 1f3d 48f2 e93d 4cbe c43d 6731 bcbc
00000160: bb2c 043e b2d7 a03d c9bc 31bd 5cb1 64bc
00000170: a1d5 523d cbd5 153c 3057 bc3d a79c 55bd
00000180: 47de 35bd d1a6 a5bd 3f1a 993d 94ed b33c
00000190: dd9e 53bd 58eb ca3d 3106 653c 5efc 65bb
000001a0: e92b c13c ab4a dc3d 7d29 003e 92c9 20bd
000001b0: 540a 023e 0623 12bd 37f2 0d3e 8e3a 9f3d
000001c0: 92fa 393c 1cbd 103e 1238 3a3d aec2 3e3c
000001d0: 3869 ed3d 93a6 d83d e8d6 2a3c ecfd a4bc
000001e0: 3380 d1bd c107 253d 448d 85bd 08f8 c3bd
000001f0: a3f3 d53d 686b 49bc 7e74 cc3c daa9 cb3d
00000200: efa3 f7bd 675e 1d3c f25f b83d 8038 653d
00000210: e8dc 753c 3023 e5bd dbe1 413b 7196 0b3d
00000220: 6d7f c43d 185b 74bd 86d6 c43d d0a8 dd3c
00000230: 1d48 9e3d 1815 efbd 134e 71bc 1f91 a1bd
00000240: 0c59 603d 254f 02be 4854 cb3d dcda 1d3d
00000250: 7fe0 433d 6305 043d 47a8 babd 9ae4 b63d
00000260: cc71 3b3b 433d 73bd bc31 4bbc 5abe 5fbc
00000270: 57a1 323d 26d6 fbbd 7d88 5dbd 674a b7bd
00000280: c5cd 27bb 9864 84bd d78f a93d deba 103d
00000290: 9f38 ae3d 6649 f7bd 6c34 b93d c114 783d
000002a0: a293 883d d2ea 88bc 6b2c 4c3c 9014 76bd
000002b0: d991 babd 4cb7 e7bc bc6c 90bd f726 9e3d
000002c0: 30d2 5d3d 6584 e3bc d658 fe3d 9292 cbbd
000002d0: a79b f23d 654f f83d 43c5 e4ba 320a 7a3d
000002e0: 75ff ec3c fcde 8fbc 964a b13d cc79 013e
000002f0: b8e0 e2bc 74d6 edbb f2ef 763d 3d9a 8a3d
00000300: 30ab dfbc dc83 63bd 1744 7c3d d433 683d
00000310: 9683 3ebc 6a90 adbc f7d9 e1bd 3c28 debd
00000320: a58c d73d 5c85 bc3d 886e eb3c 6763 d13d
00000330: fba8 e1bd 6a4d 0a3e 05f1 d73c 22b8 163d
00000340: ebbd 84bd ceb4 0f3e 5ebe 0fbd 15db e13d
00000350: 48f8 e93d 6cc2 61bc c4a2 473c 7820 2bbd
00000360: 833d 483d ad47 dcbc 36b1 48bd 4b99 353d
00000370: 8fa6 a73c 2065 ce3c a177 6cbd 2209 c53b
00000380: 0649 fe3d 8e4c 5f3d 0c29 ab3c e3e9 8c3d
00000390: 680c 613d e141 693d 5b2f ac3d 799b 383d
000003a0: be95 b63d ad15 e03c 6bf5 04bd 51b0 e63d
000003b0: 2a3c 75bd 4a27 e63c d3ce 80bd c5a8 003d
000003c0: f2a1 523d f847 a6bd 1945 0e3e 5273 073e
000003d0: 1a4d 4e3d e132 afbd edda 3fbc a05c e9bd
000003e0: 2545 fe3d 5ace 0cbd 4667 3f3d 78e3 0dbd
000003f0: ee32 28b8 10d2 473e f5c6 13bd 8cf7 92bd
