model/lstm_9.model (torch, 669851 bytes, 17 tensors)

weight_ih_l0 f4 [256, 64]
-0.045553185 0.027144011 -0.004597935 -0.1739247 -0.081942745 0.053297903 -0.0014063322 -0.008034927
0.09400396 0.0017992365 -0.10695691 0.023824496 -0.049840223 0.16743022 -0.0076285624 0.020262316
0.0056837425 -0.0032239282 0.04139136 0.068480566 -0.10189325 0.020557938 0.12875514 -0.08590369
0.0028888013 -0.040784635 -0.022181083 0.00019397639 0.07172569 -0.13656 -0.08498271 0.035052434
-0.09533681 0.01947473 -0.032626297 0.11981426 0.048087656 -0.13332787 0.048092984 -0.09279689
-0.06903144 -0.087079026 0.03859593 0.13641842 0.00974606 0.088611186 -0.031604737 0.1759199
0.029318446 -0.043828085 -0.13507746 0.036906518 -0.0032081828 0.08482813 -0.037027735 -0.0519225
-0.18106614 -0.0660451 0.06142729 0.096644 -0.17333052 0.048368078 -0.046973307 0.004549511
-0.003067385 0.07757814 -0.08342862 0.024410758 -0.09877227 0.07385299 0.038016416 -0.12886883
-0.07164754 0.0871159 0.0019761624 0.0918447 0.004901558 0.13304721 0.08170922 0.08279512
0.0052334713 -0.06835151 -0.07244069 -0.028752927 0.10164078 -0.10265175 0.026307771 -0.087306
0.025164055 0.10698414 0.0956686 -0.038131006 0.07077863 0.058444727 0.10395957 -0.009999847
0.09524342 0.054326292 -0.08432635 -0.004229877 0.048798665 -0.15308538 -0.10309488 0.06709605
-0.088858105 -0.006093676 0.049199592 0.109539375 0.033744108 0.11360335 0.08632032 0.06230152
-0.048312165 -0.005303105 0.06205006 0.09662192 -0.0057157865 0.029772332 -0.050743897 -0.07651406
-0.10789691 0.06986646 0.016888859 -0.10509747 9.601741e-05 0.08373231 0.061973598 0.14033505
0.086450465 0.09558882 -0.11424595 -0.08605411 -0.0017625764 0.0024004653 0.040026892 -0.081948504
-0.08929647 -0.0033731225 -0.09277285 0.08440758 0.16473839 -0.0030038997 -0.049925465 0.022085065
0.082311355 -0.0010845726 0.008833127 -0.1448092 0.0022195023 0.07189567 -0.045291334 0.107655965
-0.028934482 0.026438734 -0.046590846 0.095962614 0.042776436 0.08437777 -0.04364362 -0.03212547
0.06243424 -0.116430484 -0.11878854 0.12133014 -0.017072784 -0.09608111 -0.014459617 -0.008631968
-0.0878878 -0.03826786 -0.008870518 0.085844554 -0.030944593 -0.0918014 0.05999079 0.019421697
0.014876452 -0.06611844 -0.044945706 0.007739321 0.06770555 0.03278376 0.023581019 -0.00034680648
-0.064340055 0.104924984 0.11488007 -0.027931143 -0.11379119 0.0651103 -0.056050032 0.043063138
0.11803364 0.05825573 -0.08033592 -0.0077905827 -0.016682617 -0.03398612 0.11359015 -0.11844368
0.03414353 -0.03415118 0.13101494 0.047397885 0.036687948 0.00026730658 -0.013611047 0.1016722
-0.04902318 -0.10723296 -0.05323795 -0.09904917 -0.048699927 0.09837039 0.072982885 0.02152747
-0.042026054 0.00434046 0.106812246 -0.027723001 -0.190985 -0.00058042054 -0.052371588 0.04249867
0.05436367 -0.031323075 -0.07260322 -0.062113162 0.10167297 0.122498065 -0.1905565 -0.0973497
0.114256725 0.03336357 -0.008284836 -0.10236666 -0.14092359 0.12170321 -0.119021334 0.09711797
0.08035015 -0.07188659 -0.10132278 -0.028536612 0.014255093 0.034765143 -0.07357632 0.07709103
0.0862011 -0.06637038 -0.047862686 0.09140547 -0.023449335 0.057412874 0.13389376 0.077356964
00000000: fa95 3abd 1e5d de3c 46aa 96bb 5119 32be
00000010: 99d1 a7bd e74e 5a3d ae54 b8ba eda4 03bc
00000020: 2685 c03d 5cd4 eb3a 390c dbbd 972b c33c
00000030: 4325 4cbd d472 2b3e 05f9 f9bb 28fd a53c
00000040: b03e ba3b 8a48 53bb fd89 293d 8a3f 8c3d
00000050: 69ad d0bd 1f69 a83c 63d8 033e 46ee afbd
00000060: 0b52 3d3b ca0d 27bd 1ab5 b5bc 2466 4b39
00000070: ebe4 923d 62d6 0bbe 6a0b aebd 2493 0f3d
00000080: f23f c3bd 7889 9f3c 27a3 05bd 2e61 f53d
00000090: 90f7 443d 1a87 08be 26fd 443d 4c0c bebd
000000a0: 5b60 8dbd 7d56 b2bd c416 1e3d 45b1 0b3e
000000b0: f0ad 1f3c c879 b53d f873 01bd 5924 343e
000000c0: 3d2d f03c 1485 33bd bf51 0abe 4a2b 173d
000000d0: 6040 52bb 5fba ad3d 65aa 17bd b0ac 54bd
000000e0: 6769 39be a742 87bd 2f9b 7b3d 4aed c53d
000000f0: 8e7d 31be 9b1d 463d 1567 40bd 1014 953b
00000100: 2e06 49bb 4ae1 9e3d a0dc aabd 12f9 c73c
00000110: 1e49 cabd 3d40 973d 1ab7 1b3d 31f6 03be
00000120: f2bb 92bd d269 b23d 8182 013b 1319 bc3d
00000130: 409d a03b 873d 083e 2a57 a73d 7d90 a93d
00000140: 8a7d ab3b e0fb 8bbd c95b 94bd 428b ebbc
00000150: 0b29 d03d 153b d2bd 6583 d73c 7dcd b2bd
00000160: d924 ce3c 801a db3d e6ed c33d 422f 1cbd
00000170: 63f4 903d bd63 6f3d c1e8 d43d 66d6 23bc
00000180: fb0e c33d 3f85 5e3d 4bb3 acbd c89a 8abb
00000190: 1ce1 473d 6ac2 1cbe 6923 d3bd a769 893d
000001a0: 3dfb b5bd 76ad c7bb 8385 493d 2e56 e03d
000001b0: 4337 0a3d e0a8 e83d b5c8 b03d e12f 7f3d
000001c0: fae2 45bd abc5 adbb 3428 7e3d b7e1 c53d
000001d0: 7e4b bbbb 1be5 f33c d5d8 4fbd 67b3 9cbd
000001e0: 0ef9 dcbd 2616 8f3d 815a 8a3c 583d d7bd
000001f0: f45c c938 d87b ab3d 07d8 7d3d feb3 0f3e
00000200: f10c b13d 12c4 c33d c8f9 e9bd 233d b0bd
00000210: 4006 e7ba 2051 1d3b 3df3 233d 9ed4 a7bd
00000220: 11e1 b6bd 9b0f 5dbb b1ff bdbd e2dd ac3d
00000230: 2eb1 283e 13dd 44bb a57e 4cbd bdeb b43c
00000240: db92 a83d 3828 8eba d2b8 103c dd48 14be
00000250: 1275 113b 093e 933d 6883 39bd bb7a dc3d
00000260: 0208 edbc 0b96 d83c 0bd6 3ebd 0c88 c43d
00000270: 5836 2f3d 41ce ac3d a7c3 32bd ff95 03bd
00000280: 0cbb 7f3d 1b73 eebd 6847 f3bd f07b f83d
00000290: 39dc 8bbc 2cc6 c4bd 08e8 6cbc 196d 0dbc
000002a0: 85fe b3bd c2be 1cbd a655 11bc 45cf af3d
000002b0: 847f fdbc 5f02 bcbd e7b8 753d 401a 9f3c
000002c0: 5dbc 733c 1b69 87bd fd18 38bd 219a fd3b
000002d0: 35a9 8a3d 4448 063d fb2c c13c 94d3 b5b9
000002e0: b8c4 83bd e9e2 d63d 3e46 eb3d dacf e4bc
000002f0: 5b0b e9bd 8d58 853d b894 65bd f962 303d
00000300: 9fbb f13d 8f9d 6e3d 2987 a4bd 2548 ffbb
00000310: fca9 88bc 0835 0bbd f4a1 e83d 9a92 f2bd
00000320: 16da 0b3d 1ce2 0bbd c828 063e 4924 423d
00000330: 1a46 163d 4825 8c39 de00 5fbc 8439 d03d
00000340: 88cc 48bd f49c dbbd 0910 5abd 4bda cabd
00000350: 9379 47bd 6a76 c93d 0d78 953d 605a b03c
00000360: 8323 2cbd 6b3a 8e3b 61c0 da3d 591b e3bc
00000370: 9291 43be 5d27 18ba 9783 56bd 1613 2e3d
00000380: 71ac 5e3d a04c 00bd ffb0 94bd 5f6a 7ebd
00000390: eb39 d03d 44e0 fa3d 3e21 43be 485f c7bd
000003a0: 6eff e93d 3da8 083d 1fbd 07bc 9da5 d1bd
000003b0: 464e 10be 883f f93d 75c1 f3bd c9e5 c63d
000003c0: 9f8e a43d 4739 93bd 5182 cfbd 9dc5 e9bc
000003d0: 328e 693c e565 0e3d 2faf 96bd e7e1 9d3d
000003e0: 348a b03d 32ed 87bd aa0b 44bd cb32 bb3d
000003f0: d218 c0bc c329 6b3d 721b 093e 546d 9e3d

weight_hh_l0 f4 [256, 64]
-0.12895527 0.14628781 -0.03237835 0.099556506 -0.086863086 0.13713026 0.04232003 0.040016185
0.24124955 0.025649855 -0.13782497 -0.029235296 -0.07240677 -0.0051546185 0.07299408 -0.070281744
0.05556499 -0.05157622 0.108968735 -0.060213722 0.010538628 0.0045186067 0.06836481 -0.047447268
0.01621409 0.107763335 -0.007907695 0.03890934 -0.09355815 -0.08416886 -0.1776976 -0.14700486
0.13637333 0.051312856 0.033520285 -0.08172391 0.103220865 0.07356439 0.08341878 0.026470665
0.027109355 -0.098703645 0.11955721 0.055130687 -0.13114569 0.031322595 -0.018494453 -0.13611892
-0.076830275 -0.019197328 0.022739543 -0.0010533817 -0.054710746 0.029577408 0.11764152 -0.041713696
-0.14126953 0.11487805 -0.13117963 0.0011429861 -0.21638899 0.059678912 0.038623128 -0.022508157
0.10351036 -0.14417839 -0.090442665 -0.019595401 0.107644476 0.06253903 0.0030853162 -0.14180851
-0.100084476 0.024512395 -0.094746836 0.1407309 -0.064452425 0.025272453 -0.09839824 -0.18536747
-0.030241488 -0.12030234 0.10726941 -0.0946122 -0.09442095 -0.019621296 -0.12639336 -0.075503714
0.074512586 0.0784325 0.040309966 0.043869898 0.13601331 -0.008711574 0.061395764 -0.12729263
0.0618864 -0.08268526 0.010658964 0.0072134384 -0.034017157 0.068165064 0.105590455 -0.010740989
-0.14315963 0.07106098 -0.037912823 0.078373484 -0.03565035 0.006476257 -0.04335738 0.09505973
0.15516824 0.023655424 -0.13457637 -0.09075727 0.10869301 0.10772616 -0.020268047 0.0400541
0.047070637 -0.003634175 -0.027810834 -0.07729946 0.03494722 0.046662595 0.10032293 -0.07881574
0.06660308 0.096802905 0.10959516 0.11655628 0.083629094 -0.030063044 -0.11516623 -0.030829076
-0.03832517 -0.008169603 -0.09838846 -0.030539097 0.009690464 0.003430148 0.0015384055 0.0691704
-0.121612966 0.01168052 -0.09269121 0.063851975 -0.035737716 -0.052524492 -0.14801358 -0.14670843
0.05889277 -0.034340348 -0.020324346 -0.14132915 -0.141982 0.13865104 0.02910624 0.027784038
-0.06731912 0.04823765 -0.01180793 -0.07284303 0.13118245 0.08910325 0.012698007 -0.11708586
0.08830366 -0.006623368 0.0029962824 0.06503778 -0.07995231 -0.11921545 0.079317704 0.0783864
0.110423565 0.026148725 0.10537198 0.1342829 -0.08578442 0.11846797 0.11704523 0.1284633
-0.06486951 -0.05095619 0.13850084 -0.01385649 -0.056843717 0.07225931 0.059862975 -0.06676145
-0.031312127 0.08839832 0.044052713 -0.041211285 -0.046567924 -0.12556252 0.05518787 -0.12436921
-0.0051446357 0.042220827 0.015447002 -0.108842656 -0.008706939 0.048493627 -0.118424535 -0.022548454
-0.13032505 0.11270088 -0.12166019 0.010612763 -0.057540584 0.012201299 -0.09905381 0.03928227
0.02029741 0.11020292 -0.01367105 -0.08334895 -0.019304797 0.058587305 -0.0086706625 0.082964
0.025453214 0.0033168665 -0.10158373 0.049642537 -0.163963 0.13215865 -0.07571121 0.091125846
0.020814912 0.16020618 -0.06964519 0.07559652 0.1440638 0.14376056 -0.06653818 0.04382788
0.07524955 -0.1964244 0.06523893 -0.06106358 0.108235426 -0.014527146 0.037184767 0.016340077
-0.04975152 -0.062477738 0.09149198 -0.11338537 -0.07860209 0.128723 0.04470278 0.03427866
00000000: da0c 04be 79cc 153e 299f 04bd 48e4 cb3d
00000010: 46e5 b1bd e06b 0c3e c557 2d3d 03e8 233d
00000020: 1f0a 773e a51f d23c fd21 0dbe dc7e efbc
00000030: 004a 94bd 13e8 a8bb ec7d 953d e0ef 8fbd
00000040: 1d98 633d 9641 53bd 002b df3d aaa2 76bd
00000050: 36aa 2c3c d210 943b d902 8c3d 1158 42bd
00000060: 69d3 843c 06b3 dc3d 478f 01bc 665f 1f3d
00000070: 6a9b bfbd b960 acbd 5cf6 35be 7188 16be
00000080: 73a5 0b3e 6e2d 523d 914c 093d de5e a7bd
00000090: 7665 d33d eda8 963d 77d7 aa3d 02d9 d83c
000000a0: 7014 de3c 2325 cabd 69da f43d b7d0 613d
000000b0: 0e4b 06be 1f4c 003d ae81 97bc c262 0bbe
000000c0: 3159 9dbd b743 9dbc 4748 ba3c a011 8aba
000000d0: 6018 60bd 524c f23c 0aee f03d fbdb 2abd
000000e0: f6a8 10be 2f45 eb3d f453 06be 40d0 953a
000000f0: 1395 5dbe e071 743d 4933 1e3d 0763 b8bc
00000100: 3dfd d33d 80a3 13be 013a b9bd 8986 a0bc
00000110: b574 dc3d 7714 803d 0433 4a3b 4036 11be
00000120: 17f9 ccbd 38ce c83c a10a c2bd c31b 103e
00000130: a2ff 83bd 2d08 cf3c 0485 c9bd f8d0 3dbe
00000140: ffbc f7bc 1361 f6bd 10b0 db3d 0bc4 c1bd
00000150: c55f c1bd d7bc a0bc 436d 01be b1a1 9abd
00000160: 0e9a 983d 38a1 a03d 101c 253d ecb0 333d
00000170: 1347 0b3e fdba 0ebc 207a 7b3d 0059 02be
00000180: 987c 7d3d e456 a9bd efa2 2e3c b55e ec3b
00000190: 9355 0bbd 209a 8b3d cf3f d83d f9fa 2fbc
000001a0: 7098 12be 6b88 913d 7a4a 1bbd 4782 a03d
000001b0: 1a06 12bd c836 d43b 8297 31bd adae c23d
000001c0: 6ce4 1e3e 05c9 c13c 63ce 09be f3de b9bd
000001d0: 719a de3d 889f dc3d 2d09 a6bc c50f 243d
000001e0: 24cd 403d 572b 6ebb 8cd3 e3bc 2e4f 9ebd
000001f0: d124 0f3d 4721 3f3d 1c76 cd3d 266a a1bd
00000200: 3267 883d 9a40 c63d 6d73 e03d 0fb5 ee3d
00000210: bb45 ab3d c646 f6bc 46dc ebbd 428d fcbc
00000220: dafa 1cbd ccd9 05bc e47f c9bd 212d fabc
00000230: c0c4 1e3c 55cc 603b 53a4 c93a 36a9 8d3d
00000240: 3810 f9bd a75f 3f3c e4d4 bdbd d3c4 823d
00000250: b661 12bd ec23 57bd df90 17be bc3a 16be
00000260: 8c39 713d 77a8 0cbd 3e7f a6bc 97b8 10be
00000270: bb63 11be 8afa 0d3e 3670 ee3c 5a9b e33c
00000280: 9bde 89bd d894 453d 0c76 41bc ba2e 95bd
00000290: b154 063e c47b b63d 4d0b 503c b6ca efbd
000002a0: 8dd8 b43d d608 d9bb 475d 443b 8732 853d
000002b0: 09be a3bd 3b27 f4bd 5271 a23d 0d89 a03d
000002c0: c025 e23d da35 d63c 44cd d73d 7581 093e
000002d0: beaf afbd 569f f23d 69b5 ef3d e28b 033e
000002e0: 4eda 84bd 70b7 50bd 2ad3 0d3e 5506 63bc
000002f0: f5d4 68bd b0fc 933d e132 753d 3aba 88bd
00000300: 2541 00bd 2e0a b53d 9e70 343d 2acd 28bd
00000310: 02be 3ebd 7693 00be ad0c 623d 49b5 febd
00000320: 5594 a8bb bfef 2c3d 6c15 7d3c e6e8 debd
00000330: 8da7 0ebc 41a1 463d 9088 f2bd 89b7 b8bc
00000340: ee73 05be b8cf e63d fa28 f9bd 28e1 2d3c
00000350: adaf 6bbd f5e7 473c b9dc cabd 72e6 203d
00000360: c146 a63c 12b2 e13d 8afc 5fbc dbb2 aabd
00000370: 1825 9ebc 3ef9 6f3d 650f 0ebc 08e9 a93d
00000380: 4283 d03c c95f 593b 210b d0bd f955 4b3d
00000390: ebe5 27be 9954 073e 7b0e 9bbd 30a0 ba3d
000003a0: 0984 aa3c 170d 243e 23a2 8ebd 59d2 9a3d
000003b0: 7685 133e f835 133e 2b45 88bd dd84 333d
000003c0: 701c 9a3d 7a23 49be fd9b 853d ce1d 7abd
000003d0: 89aa dd3d 4403 6ebc 0e4f 183d a0db 853c
000003e0: 40c8 4bbd a8e8 7fbd 2660 bb3d 9736 e8bd
000003f0: 22fa a0bd f6cf 033e 431a 373d c867 0c3d

bias_ih_l0 f4 [256]
0.13755889 -0.030680345 0.12510724 -0.035716977 -0.010539211 0.053836793 0.123461716 0.116569705
-0.023550574 0.042214714 0.08051312 -0.052267317 -0.023070468 0.1345835 -0.04329423 -0.0205288
0.13844356 0.17445074 -0.014502894 0.07307282 0.070351504 0.06427554 -0.08279015 -0.047228634
0.11367449 -0.028490722 0.09265821 0.061460327 0.03475489 0.038250383 0.019477552 0.1417603
-0.08184353 -0.12018615 -0.06526015 -0.065644704 0.04772416 -0.054737866 -0.1102468 0.07196662
-0.057476174 0.11298531 0.13676973 0.030818475 -0.051444586 -0.004379498 -0.048296303 -0.08699423
-0.02399243 0.11570837 0.11712436 0.005371155 0.10986917 -0.042328138 -0.019118393 -0.058397476
-0.08140805 0.073737115 0.06026015 0.13063097 0.072858155 0.05062627 0.06683885 -0.0038530552
0.0030398653 -0.032709632 0.122933164 -0.0908366 0.01410367 -0.04456395 0.013926515 -0.027511125
0.1343052 0.122599944 0.09964045 -0.090346 -0.047178432 -0.08783615 -0.07788168 0.13610332
-0.0022675083 -0.06930319 0.08150634 0.0318081 0.058365155 -0.010339746 -0.07213785 -0.04121808
0.036083836 0.14843646 0.07450113 -0.10556868 0.06137755 0.114585236 -0.03913891 -0.076375045
-0.030121455 0.12635823 0.03809526 0.04613753 -0.00083617144 0.13414428 0.08853697 0.092964716
0.095293075 -0.043632213 -0.07444916 0.14080039 -0.055844203 -0.023956971 -0.0578318 0.081275776
0.0009091874 0.06655497 -0.044413477 0.02879177 -0.108300455 0.10779884 0.09298302 0.15166076
-0.077438205 0.09105121 0.12533697 0.06785803 -3.797475e-05 -0.057942968 -0.08566001 -0.07557445
-0.12526941 0.020535188 -0.113414004 0.043384936 0.01871619 -0.10423286 0.09289128 0.002298527
0.10662145 0.061630674 -0.009208179 -0.025169488 -0.015751652 0.0068504275 0.11418526 -0.009549854
-0.087214276 0.1626045 0.09957587 -0.09843213 -0.108760655 -0.021404387 -0.103036016 -0.08287495
-0.12874353 -0.011881884 -0.059996616 -0.08953039 -0.045357686 -0.046146683 0.051059812 -0.060393523
-0.038621083 0.049676895 0.13063784 0.022740016 0.13007262 0.0043619666 -0.14807984 -0.05354354
0.12312641 0.06401863 0.08362621 0.026552266 0.07768482 -0.054357164 0.002124156 0.027976476
-0.0005281793 0.00979409 0.041756984 -0.043633886 0.06435363 0.07868785 0.1054128 -0.061620094
0.11874932 -0.075278044 0.09900023 -0.08054676 -0.0078543015 0.011157628 -0.0085919555 0.073229335
0.0031302979 0.038368 0.085945405 -0.0856719 -0.06281008 -0.03126385 0.104685456 -0.09798632
-0.10084827 0.08785364 -0.04477942 -0.06591432 -0.014565526 0.046745162 0.028518017 0.0080053
-0.042157926 -0.005307395 -0.05308645 -0.03172363 0.008910074 0.1109776 0.12638931 0.057301097
-0.067949764 0.18189171 0.03586483 0.12974904 0.065576576 0.11956061 0.00011566725 -0.011740309
0.08791079 0.054218378 -0.028768716 -0.072001144 -0.032758776 -0.02613752 -0.08151599 0.008288231
0.121222585 -0.016465891 0.08208173 0.09254433 0.14877994 -0.023804959 0.017470779 0.00090921036
0.13729475 0.102191314 -0.04288308 -0.03293301 -0.024895594 0.07079369 -0.06310886 -0.047162604
0.03986953 -0.04586706 0.13921508 -0.07644586 0.04769733 0.029837057 -0.01649114 -0.092151135
00000000: 3ddc 0c3e 5955 fbbc 1d1c 003e f74b 12bd
00000010: a8ac 2cbc f883 5c3d 7fd9 fc3d 19bc ee3d
00000020: 22ed c0bc 56e9 2c3d 10e4 a43d 4116 56bd
00000030: 47fe bcbc 42d0 093e 4a55 31bd 042c a8bc
00000040: 26c4 0d3e 37a3 323e 8c9d 6dbc 34a7 953d
00000050: 7314 903d e5a2 833d e28d a9bd d072 41bd
00000060: 2cce e83d 6065 e9bc 96c3 bd3d d3bd 7b3d
00000070: 255b 0e3d 6fac 1c3d 638f 9f3c 9d29 113e
00000080: 959d a7bd 2824 f6bd 1da7 85bd bb70 86bd
00000090: 697a 433d d034 60bd 13c9 e1bd 3c63 933d
000000a0: 236c 6bbd d864 e73d 5d0d 0c3e 0777 fc3c
000000b0: 8fb7 52bd e481 8fbb 58d2 45bd 082a b2bd
000000c0: c68b c4bc 83f8 ec3d e5de ef3d 8400 b03b
000000d0: 1603 e13d 4560 2dbd 2d9e 9cbc 3132 6fbd
000000e0: 44b9 a6bd 7c03 973d 59d3 763d 20c4 053e
000000f0: a836 953d 7e5d 4f3d cfe2 883d 8a83 7cbb
00000100: 7a38 473b 89fa 05bd 62c4 fb3d 8a08 babd
00000110: 1413 673c b088 36bd 0a2c 643c 035f e1bc
00000120: 4d87 093e ae15 fb3d 4b10 cc3d 5307 b9bd
00000130: 2c3e 41bd 70e3 b3bd 6e80 9fbd ab5e 0b3e
00000140: 7a9a 14bb d5ee 8dbd ccec a63d 3649 023d
00000150: 4d10 6f3d 0a68 29bc 02bd 93bd 4ad4 28bd
00000160: a5cc 133d baff 173e 0c94 983d 6434 d8bd
00000170: 0767 7b3d aaab ea3d 1f50 20bd 856a 9cbd
00000180: 45c1 f6bc 0d64 013e c609 1c3d b5fa 3c3d
00000190: 8432 5bba 1e5d 093e df52 b53d 4964 be3d
000001a0: 0429 c33d b1b7 32bd cd78 98bd fa2d 103e
000001b0: e4bc 64bd 6941 c4bc 0ae1 6cbd ea73 a63d
000001c0: 8956 6e3a f94d 883d e8ea 35bd b8dc eb3c
000001d0: a1cc ddbd a3c5 dc3d e26d be3d f54c 1b3e
000001e0: ec97 9ebd 0f79 ba3d 5658 003e 27f9 8a3d
000001f0: 1447 1fb8 9b55 6dbd 846e afbd c7c6 9abd
00000200: a046 00be 6939 a83c 9a45 e8bd 67b4 313d
00000210: b252 993c 0a78 d5bd c93d be3d e2a2 163b
00000220: 595c da3d 7270 7c3d e7dd 16bc 3e30 cebc
00000230: 9c09 81bc 8d79 e03b f6d9 e93d fe76 1cbc
00000240: 669d b2bd cb81 263e 6fee cb3d c996 c9bd
00000250: e8bd debd 4158 afbc 8c04 d3bd 57ba a9bd
00000260: 58d5 03be 3cac 42bc 03bf 75bd b65b b7bd
00000270: fbc8 39bd 4e04 3dbd 1824 513d 335f 77bd
00000280: 2431 1ebd 007a 4b3d edc5 053e 4549 ba3c
00000290: c231 053e d4ee 8e3b 3ea2 17be 7950 5bbd
000002a0: b329 fc3d 331c 833d 3844 ab3d 2384 d93c
000002b0: 3819 9f3d 9ea5 5ebd 6d35 0b3b ec2e e53c
000002c0: 8375 0aba 6477 203c 5f09 2b3d 72b9 32bd
000002d0: d6cb 833d 1827 a13d abe2 d73d 5a65 7cbd
000002e0: d832 f33d 602b 9abd a2c0 ca3d b3f5 a4bd
000002f0: 54af 00bc 7cce 363c 46c5 0cbc 43f9 953d
00000300: af25 4d3b c427 1d3d 2504 b03d c074 afbd
00000310: 92a2 80bd 860e 00bd 5465 d63d 0dad c8bd
00000320: 8a89 cebd 9cec b33d a06a 37bd 16fe 86bd
00000330: 3ea4 6ebc db77 3f3d 9e9e e93c a928 033c
00000340: caad 2cbd a8e9 adbb 2d71 59bd a3f0 01bd
00000350: 8ffb 113c 3948 e33d 336c 013e 8eb4 6a3d
00000360: 3f29 8bbd d241 3a3e 00e7 123d efdc 043e
00000370: 034d 863d 31dc f43d 6292 f238 6d5a 40bc
00000380: 930a b43d 1714 5e3d 5fac ebbc 5675 93bd
00000390: 112e 06bd 5a1e d6bc dbf1 a6bd 5ccb 073c
000003a0: 8c43 f83d 7ae3 86bc 771a a83d e287 bd3d
000003b0: c559 183e 9e02 c3bc e11e 8f3c 1358 6e3a
000003c0: ff96 0c3e ae49 d13d 2ba6 2fbd c4e4 06bd
000003d0: d8f1 cbbc 48fc 903d 383f 81bd 932d 41bd
000003e0: 3b4e 233d 19df 3bbd 668e 0e3e a68f 9cbd
000003f0: 475e 433d d86c f43c 6d18 87bc bcb9 bcbd

bias_hh_l0 f4 [256]
-0.06199323 -0.120466955 0.0770279 0.104581 0.0048146537 -0.01052223 0.061531782 0.008106612
-0.06521232 -0.014434515 -0.090940684 -0.10909052 0.18382041 0.016960725 -0.052362867 0.10556341
0.018971106 0.13338472 -0.0057423064 0.017212309 -0.06657797 -0.06832146 0.10784335 0.048376463
0.12450383 -0.014982869 -0.077635646 -0.057567168 -0.012299666 -0.10350991 0.036092166 0.1305282
0.028251955 -0.08512004 0.08993381 0.10149987 -0.034058426 -0.043528847 -0.0696271 0.12495043
-0.031481102 -0.02953379 0.1351435 0.013739723 0.062527515 0.027439537 0.12716272 -0.0077332044
0.00064823334 0.1516111 0.083053194 0.12908983 0.028066661 0.083923 0.054656837 -0.10381304
0.057111666 0.12574133 -0.04892371 0.0031257167 -0.03214211 -0.017384678 0.062011413 0.029405557
-0.055970162 0.029184192 -0.09465659 -0.08582328 -0.045537118 -0.08015898 -0.061533976 -0.07834912
-0.043795887 -0.064397 0.03500029 -0.012727395 0.055226315 -0.03931268 -0.072816 0.12578665
0.044333242 -0.03763253 0.09332139 -0.041532245 0.15099216 -0.10360377 0.06683931 -0.08830382
0.024172844 0.17417696 -0.02708732 0.0968348 0.014113862 -0.045997236 -0.03558676 -0.07149808
0.056836236 0.065351225 0.11911165 0.08787067 0.08708003 -0.017512463 0.03170809 -0.07448606
0.04277919 0.026654396 0.1392461 0.052602507 0.14039396 -0.0068478654 0.08601969 0.062128853
0.09192817 0.015178837 0.130023 -0.0022989423 -0.056809556 0.115505226 0.0002652858 -0.0012667378
0.05254616 -0.029851496 0.039994948 0.06327009 0.11864583 -0.055218853 0.12458562 -0.07026847
0.08116666 0.1317017 -0.09025998 -0.062497318 0.10026714 -0.087273255 -0.03435522 0.03879019
-0.017309932 -0.008248448 0.044098455 0.0971484 -0.03653171 0.027212717 -0.075122796 -0.08206272
-0.12076922 0.059932247 -0.11046968 -0.06588758 -0.011578457 0.013422263 -0.15023424 -0.00034430437
-0.07216288 -0.07594782 0.034358557 0.062346462 -0.019911185 0.00796906 -0.0114982175 -0.033146217
-0.0016983045 0.025064528 0.12088968 -0.09986221 0.06615723 -0.06877671 -0.071256 -0.05082729
-0.07782953 0.007223498 0.007820214 0.13683294 -0.026257485 -0.07875595 0.007331271 0.10759769
-0.07047419 0.12424486 0.050478373 -0.06672231 -0.0441464 0.015611997 0.0028602781 -0.08991114
-0.009753631 0.04082688 0.04440375 -0.024175452 -0.0069348942 -0.062061906 -0.0027474957 -0.024254367
0.16609786 0.10182999 0.08052943 0.12940425 0.092412084 0.121375166 0.077108875 -0.104185805
-0.09181968 0.085298814 -0.007023422 0.13801666 -0.016445978 0.014841201 0.11439596 0.12894553
-0.052137155 -0.045127846 0.036722075 -0.04551649 0.09147996 -0.038284183 -0.05768453 0.122110076
-0.0059207217 0.013091324 -0.06424581 0.09230781 0.053796437 0.10629981 0.102843724 -0.08369335
0.10349076 -0.034993667 -0.057257485 0.058175154 0.08158783 -0.046095 0.056506038 -0.08978899
0.077780716 -0.0015600586 0.10852137 0.050851326 0.0050027333 0.14567177 -0.03346378 -0.009930068
-0.07669373 0.06339655 0.13991079 0.0001260131 0.088902384 0.03367559 -0.04999948 -0.03165616
0.090346314 0.022423346 0.05872533 -0.02284511 0.013710886 0.10430629 0.13148256 0.114288166
00000000: 9dec 7dbd 61b7 f6bd cec0 9d3d 902e d63d
00000010: 3ec4 9d3b 6e65 2cbc c008 7c3d 98d1 043c
00000020: 098e 85bd be7e 6cbc 1c3f babd da6a dfbd
00000030: 6b3b 3c3e 38f1 8a3c 727a 56bd a131 d83d
00000040: 4b69 9b3c 0196 083e f529 bcbb d400 8d3c
00000050: 085a 88bd 1fec 8bbd f9dc dc3d 6626 463d
00000060: ddfb fe3d b57a 75bc 70ff 9ebd 8dcb 6bbd
00000070: 8a84 49bc 01fd d3bd 61d5 133d 2fa9 053e
00000080: a570 e73c 6a53 aebd 382f b83d 2adf cf3d
00000090: d980 0bbd 4e4b 32bd a798 8ebd 03e6 ff3d
000000a0: 54f2 00bd d9f0 f1bc 0f63 0a3e 931c 613c
000000b0: 6d0e 803d e1c8 e03c f236 023e d266 fdbb
000000c0: 34ee 293a f13f 1b3e cb17 aa3d 2030 043e
000000d0: 0eec e53c d2df ab3d d9df 5f3d ee9b d4bd
000000e0: eced 693d 56c2 003e 3a64 48bd d3d8 4c3b
000000f0: 72a7 03bd 506a 8ebc aeff 7d3d ece3 f03c
00000100: f840 65bd b013 ef3c 50db c1bd 1ec4 afbd
00000110: 2185 3abd 642a a4bd 0d0b 7cbd 8175 a0bd
00000120: 5163 33bd 93e2 83bd 775c 0f3d 9086 50bc
00000130: fd34 623d 5506 21bd 8e20 95bd 37ce 003e
00000140: c696 353d 9124 1abd 491f bf3d b71d 2abd
00000150: b09d 1a3e 372e d4bd 0ce3 883d a2d8 b4bd
00000160: 2106 c63c 725b 323e 3ae6 ddbc 5351 c63d
00000170: d43d 673c 9967 3cbd 6cc3 11bd 966d 92bd
00000180: 1dcd 683d ddd6 853d cff0 f33d 8af5 b33d
00000190: 0457 b23d 4c76 8fbc 58e0 013d 268c 98bd
000001a0: 3b39 2f3d 525a da3c 8896 0e3e ba75 573d
000001b0: 6fc3 0f3e 0f64 e0bb 172b b03d d37a 7e3d
000001c0: d644 bc3d a8b0 783c c024 053e daa9 16bb
000001d0: 23b1 68bd 018e ec3d 0f16 8b39 ab08 a6ba
000001e0: a43a 573d 208b f4bc bed1 233d c093 813d
000001f0: 96fc f23d 2a2d 62bd bf26 ff3d eae8 8fbd
00000200: b53a a63d cfdc 063e 39da b8bd 30fd 7fbd
00000210: dc58 cd3d 52bc b2bd 0fb8 0cbd 76e2 1e3d
00000220: 8fcd 8dbc 8024 07bc 95a0 343d bef5 c63d
00000230: 46a2 15bd 34ed de3c fbd9 99bd 8010 a8bd
00000240: da55 f7bd 847b 753d ed3d e2bd 11f0 86bd
00000250: 92b3 3dbc 0de9 5b3c 01d7 19be c083 b4b9
00000260: 22ca 93bd 888a 9bbd 8fbb 0c3d 015f 7f3d
00000270: c81c a3bc a990 023c 0563 3cbc 54c4 07bd
00000280: a599 deba 2054 cd3c 0295 f73d 8f84 ccbd
00000290: 717d 873d ceda 8cbd aaee 91bd 4730 50bd
000002a0: 1765 9fbd 18b3 ec3b 5b20 003c ef1d 0c3e
000002b0: f019 d7bc cd4a a1bd 293b f03b 2d5c dc3d
000002c0: c654 90bd 1774 fe3d 69c2 4e3d b5a5 88bd
000002d0: dbd2 34bd 76c9 7f3c 8173 3b3b 5523 b8bd
000002e0: b2cd 1fbc 163a 273d b5e0 353d 990b c6bc
000002f0: 1c3e e3bb a034 7ebd 540f 34bb 18b1 c6bc
00000300: 8f15 2a3e 3e8c d03d 9dec a43d 8c82 043e
00000310: 8c42 bd3d 8b93 f83d 42eb 9d3d 5e5f d5bd
00000320: f50b bcbd 25b1 ae3d bc24 e6bb 3d54 0d3e
00000330: b7b9 86bc 8228 733c 6e48 ea3d 4c0a 043e
00000340: c58d 55bd fad7 38bd e369 163d 806f 3abd
00000350: d859 bb3d e0cf 1cbd 9d46 6cbd d914 fa3d
00000360: 9d02 c2bb fe7c 563c 4f93 83bd e10b bd3d
00000370: a759 5c3d b7b3 d93d bb9f d23d 6b67 abbd
00000380: f7f2 d33d 8555 0fbd d386 6abd 1249 6e3d
00000390: 8517 a73d 1cce 3cbd e072 673d 4ae3 b7bd
000003a0: 7f4b 9f3d e17a ccba 7440 de3d 7b49 503d
000003b0: f8ed a33b fb2a 153e 5111 09bd b9b1 22bc
000003c0: 9a11 9dbd 0dd6 813d c644 0f3e 6222 0439
000003d0: 7412 b63d 6aef 093d 41cc 4cbd e4a9 01bd
000003e0: 7d07 b93d 2ab1 b73c f989 703d ab25 bbbc
000003f0: a0a3 603c 899e d53d 5da3 063e ea0f ea3d

weight_ih_l0_reverse f4 [256, 64]
0.0047886777 -0.16749997 -0.0006778168 -0.007169432 0.06258354 -0.050905433 -0.05996512 0.06658195
0.059830394 0.10668699 0.041319445 -0.061938338 -0.09765339 0.12848613 -0.061677173 0.058451775
0.14530842 0.00041123125 0.17773779 -0.0346216 0.027377069 -0.09782421 0.019431233 -0.14115472
0.0056912843 0.11823502 -0.15917669 0.008045053 0.034330543 0.044746548 -0.021364056 -0.014700174
0.01751924 0.1108352 0.057543837 -0.032092102 0.046239745 -0.21638182 -0.07042683 -0.093501434
0.113838725 0.0728657 0.087545365 0.023917584 -0.008205336 0.03531495 -0.09543042 0.107309744
0.0012510661 0.07746872 0.1473504 0.044334173 -0.03362731 0.047646023 -0.04781118 0.011041563
-0.04772128 0.096340396 0.00827346 0.08099678 0.026531301 -0.02050372 0.01760389 0.13221513
0.035856634 -0.15414897 -0.047186308 -0.068670444 0.022388905 -0.100687265 -0.09610757 -0.14292376
0.051706705 0.022190593 -0.0031372653 0.097768985 0.0061995354 -0.051882956 0.050466184 0.04290547
-0.06358869 0.15904011 0.051631875 0.08359735 -0.05655757 0.04647446 0.0030233404 -0.10205378
-0.06850315 0.06182044 0.12535685 -0.12955917 -0.0008085869 0.05048088 0.093411006 -0.05538775
0.09107374 0.15292598 0.1738886 0.007912963 -0.005396053 0.030233258 -0.10173885 -0.018569956
0.0059196586 -0.016941497 0.0147651965 0.04804864 0.06284896 -0.06318496 -0.018179215 -0.10007893
0.14626503 0.052230388 0.05082332 0.0022722653 -0.005803827 -0.10574522 -0.03824797 0.11184312
0.03991499 -0.050667625 0.11118123 -0.14799063 0.061180297 -0.1479049 -0.07095839 0.027899072
0.13018422 -0.046327204 0.16141824 -0.09346752 0.065006845 -0.045231953 0.005933157 -0.08050388
-0.033532694 0.0486333 0.121839486 0.13320528 -0.09277205 0.06712692 -0.028794637 0.12504873
-0.017045412 0.0033373085 -0.019695818 0.046280578 -0.08378232 0.03832668 0.061051406 0.058181886
-0.15246838 -0.048585128 0.104244746 -0.020460023 -0.0818888 -0.0713716 0.12755664 0.012432917
0.08144883 -0.08214502 0.017276533 -0.0026623602 -0.010297621 0.13339145 -0.07532076 -0.10957094
0.12840462 0.1420888 0.06489704 -0.06469409 -0.05634636 -0.022192935 -0.012716747 0.005851949
0.03546713 -0.053529244 -0.035972115 -0.09332494 0.015764937 -0.10586676 -0.08980807 0.0056700353
-0.09436386 -0.04129108 0.058394782 -0.08280514 0.011941174 -0.024827039 0.10737774 -0.074217826
0.01893393 -0.061795693 -0.058522776 0.0005043816 -0.057881024 0.0059907967 -0.023519188 -0.06523244
0.048130814 -0.017194854 -0.14775185 -0.066444494 -0.031208739 0.15258019 0.011521473 0.058290858
0.10024638 -0.0080216145 0.0057857283 0.017539091 0.066247255 0.098761186 -0.03161304 0.14031535
-0.09100905 -0.1277637 0.04204484 0.051103786 0.057563286 -0.03766773 0.06481892 -0.01424894
0.01761746 -0.030890934 0.0989619 -0.043700997 0.08271452 -0.00040591165 0.008521516 -0.02227004
-0.1274878 -0.14608718 -0.20425569 0.08895837 0.0021778736 0.02454613 0.036115736 -0.051276807
0.066575065 -0.1528131 0.07904626 0.058013886 -0.008259422 -0.04947218 -0.048910696 0.100206465
-0.15391667 -0.10140724 0.0014577414 0.046692643 -0.05763923 -0.07922439 -0.16217749 0.08008504
00000000: 57ea 9c3b 1d85 2bbe 84af 31ba 8eed eabb
00000010: cd2b 803d 3782 50bd fc9d 75bd 1e5c 883d
00000020: b710 753d b57e da3d 943e 293d 0eb3 7dbd
00000030: 80fe c7bd de91 033e 34a1 7cbd 216b 6f3d
00000040: bbcb 143e 869a d739 e500 363e 61cf 0dbd
00000050: e045 e03c 0f58 c8bd 402e 9f3c dd8a 10be
00000060: f47d ba3b 3425 f23d 37ff 22be 66cf 033c
00000070: 2f9e 0c3d 2848 373d ac03 afbc 00d9 70bc
00000080: 8284 8f3c 91fd e23d 16b3 6b3d 0273 03bd
00000090: e365 3d3d 3293 5dbe f13b 90bd ae7d bfbd
000000a0: 4724 e93d 9d3a 953d fc4a b33d cfee c33c
000000b0: ac6f 06bc 69a6 103d 0671 c3bd 36c5 db3d
000000c0: d0fa a33a eca7 9e3d 06e3 163e c097 353d
000000d0: cabc 09bd 7a28 433d a8d5 43bd ace7 343c
000000e0: 6477 43bd 1d4e c53d 688d 073c a4e1 a53d
000000f0: 2c58 d93c 6bf7 a7bc 0836 903c 6763 073e
00000100: 68de 123d 3ad9 1dbe 6e46 41bd 17a3 8cbd
00000110: f068 b73c 2035 cebd 0cd4 c4bd 9b5a 12be
00000120: 69ca 533d 0cc9 b53c 949a 4dbb 1b3b c83d
00000130: 7925 cb3b 3983 54bd a1b5 4e3d a5bd 2f3d
00000140: c93a 82bd 69db 223e f27b 533d 1635 ab3d
00000150: e9a8 67bd 015c 3e3d 3c23 463b 9201 d1bd
00000160: 614b 8cbd 6e37 7d3d 8c5d 003e 29ab 04be
00000170: 59f7 53ba 0ac5 4e3d 454e bf3d 44de 62bd
00000180: de84 ba3d a198 1c3e da0f 323e 5fa5 013c
00000190: 60d1 b0bb bdab f73c 755c d0bd 0520 98bc
000001a0: b2f9 c13b e5c8 8abc b9e9 713c a7ce 443d
000001b0: f5b6 803d 1e67 81bd 94ec 94bc 2ff6 ccbd
000001c0: 80c6 153e 88ef 553d 1d2c 503d 49ea 143b
000001d0: 082e bebb f390 d8bd e7a9 1cbd 010e e53d
000001e0: e77d 233d db88 4fbd fcb2 e33d db8a 17be
000001f0: 3198 7a3d 6274 17be a252 91bd 988c e43c
00000200: 034f 053e 98c1 3dbd d34a 253e e66b bfbd
00000210: 4f22 853d 2445 39bd ee6a c23b 38df a4bd
00000220: 9459 09bd b633 473d fb86 f93d f766 083e
00000230: 46ff bdbd d779 893d bbe2 ebbc c60c 003e
00000240: d2a2 8bbc bfb6 5a3b 2059 a1bc b490 3d3d
00000250: 1196 abbd 70fc 1c3d 0a11 7a3d 2150 6e3d
00000260: ac20 1cbe 3301 47bd 457e d53d c79b a7bc
00000270: 51b5 a7bd 462b 92bd 359e 023e 6fb3 4b3c
00000280: a5ce a63d a63b a8bd 8487 8d3c fe7a 2ebb
00000290: 5ab7 28bc c597 083e c541 9abd bb66 e0bd
000002a0: 807c 033e ba7f 113e bde8 843d 567e 84bd
000002b0: 71cb 66bd f5cd b5bc e759 50bc b5c1 bf3b
000002c0: fb45 113d 7b41 5bbd 7f57 13bd 2521 bfbd
000002d0: 7825 813c acd0 d8bd 4bed b7bd b4cb b93b
000002e0: d741 c1bd d620 29bd 5e2f 6f3d be95 a9bd
000002f0: eaa4 433c 1362 cbbc dce8 db3d 84ff 97bd
00000300: 541b 9b3c 7b1d 7dbd 94b5 6fbd 7a38 043a
00000310: a714 6dbd 724e c43b 50ab c0bc 9698 85bd
00000320: d124 453d 39dc 8cbc 434c 17be 0d14 88bd
00000330: 78a9 ffbc fb3d 1c3e 8fc4 3c3c 65c2 6e3d
00000340: f94d cd3d 176d 03bc 3596 bd3b 24ae 8f3c
00000350: a4ac 873d 4e43 ca3d ad7c 01bd d4ae 0f3e
00000360: f462 babd 7dd4 02be 3637 2c3d 3452 513d
00000370: 7bc7 6b3d 7a49 1abd c8bf 843d 6374 69bc
00000380: 7e52 903c fc0e fdbc 89ac ca3d d1ff 32bd
00000390: 3b66 a93d 8ad0 d4b9 d49d 0b3c a96f b6bc
000003a0: 298c 02be e197 15be 6728 51be ce2f b63d
000003b0: a8ba 0e3b f714 c93c 18ee 133d a107 52bd
000003c0: 8258 883d 0a7b 1cbe 01e3 a13d f89f 6d3d
000003d0: 8752 07bc 57a3 4abd 9556 48bd 0c39 cd3d
000003e0: 559c 1dbe 99ae cfbd af11 bf3a c940 3f3d
000003f0: 1d17 6cbd 6640 a2bd db11 26be a003 a43d

weight_hh_l0_reverse f4 [256, 64]
-0.083959594 0.05796911 0.02873647 -0.113172375 0.088758394 0.10038087 -0.06353102 0.02519991
0.08176785 0.12249837 0.14927068 0.05938653 0.12872289 0.04296268 -0.0624678 0.044738535
0.06820181 0.09119869 0.0377818 0.00017355866 -0.10459902 0.057377577 -0.022349369 -0.06394728
-0.08036558 -0.04326825 0.023664493 0.07406727 0.03998707 0.037242964 0.050531544 -0.056697864
0.004608915 -0.06883662 0.025241382 0.07600659 -0.1483721 0.03906108 -0.018642638 0.05186898
0.112266816 -0.036634777 -0.037991047 -0.050227474 0.048344854 0.09363846 -0.06313044 -0.011182542
0.037135966 0.07832827 0.061353132 -0.059734933 -0.12447399 -0.13900886 0.022646634 0.06819062
0.012194117 -0.066500545 -0.05110906 -0.050370235 -0.01945981 -0.04460318 -0.07243073 0.01521896
0.027039874 0.016343946 -0.019356173 0.08349165 -0.074253894 0.075844966 -0.05455389 0.07397242
0.007280399 0.03599396 -0.03368708 0.06644935 -0.04217726 0.078371175 -0.09403478 0.07149892
-0.05867742 0.08193677 0.113809004 0.052257434 0.017645907 0.09540456 -0.056878917 0.018579315
-0.15664513 0.013363746 -0.012862816 -0.010947348 0.030136723 -0.08167953 -0.052275185 0.029347872
0.13834941 0.007926326 0.028437264 -0.08922663 -0.07979211 -0.036597494 -0.030690765 0.062927105
0.09933291 -0.07742409 0.07050515 -0.04452862 0.12124903 0.04834478 0.04891565 -0.10432643
-0.089171275 -0.13831781 -0.02282065 -0.00614642 0.02579541 0.087906696 -0.09061164 0.10381297
-0.01660007 0.013192743 -0.07794986 -0.0876701 0.119241394 0.10924294 0.13357534 0.005687502
0.072763026 -0.040401556 -0.10469044 0.013117067 -0.1726958 -0.0050920458 -0.046158515 0.019227182
0.0298557 0.13154376 -0.12481482 -0.018640114 0.008840196 0.021677777 -0.01590862 -0.056485265
6.0486156e-05 0.066228494 -0.114227474 -0.014519126 -0.06529025 0.09441202 -0.041232426 -0.08032072
0.13474879 -0.03634758 0.016500346 0.029215693 -0.059755262 -0.089197256 -0.073175825 0.054323066
0.13912983 -0.07084426 0.16228624 -0.06401019 -0.17471176 0.08578672 -0.105550945 -0.0895084
-0.059073675 0.101342596 0.027301816 0.0974791 0.15093856 -8.5825e-05 -0.21403275 -0.12612191
-0.15334815 0.0905778 0.13515097 0.089992836 0.04268929 -0.104151465 0.053422038 0.020263309
0.09427107 -0.054383744 -0.07606201 0.017337495 0.051090956 0.06959359 0.096712045 -0.079739094
0.080345154 0.04951615 -0.16832983 -0.026947219 -0.010131491 -0.043554083 0.113632515 -0.02547174
-0.18201771 -0.016021574 -0.11945474 -0.11147834 -0.067955546 -0.12726092 0.075813405 0.15731747
0.034299225 0.11652133 -0.10297368 0.061479785 0.047932606 -0.053490173 0.05090829 0.12296474
-0.010240271 0.04542792 0.015361421 -0.032650482 0.06648155 0.11633744 -0.027825676 0.11733598
-0.008863283 -0.10800996 0.12202154 -0.004854841 0.0949515 0.18698396 -0.07984838 -0.11811215
-0.024216622 0.009533504 -0.0127379075 -0.12793195 -0.049445886 -0.14188135 0.110614575 -0.06090118
-0.03667946 -0.068226196 0.17176807 0.1650988 0.07044702 0.11155954 -0.19563253 -0.088291705
-0.12479737 0.113485664 -0.11042635 0.10699597 -0.137221 0.033869687 -0.07549798 0.016972655
00000000: 02f3 abbd 0471 6d3d bf68 eb3c ebc6 e7bd
00000010: f6c6 b53d 7c94 cd3d 8d1c 82bd 0b70 ce3c
00000020: e775 a73d 6de0 fa3d 6ada 183e 4a3f 733d
00000030: efcf 033e a3f9 2f3d 3cde 7fbd c13f 373d
00000040: 64ad 8b3d 61c6 ba3d 17c1 1a3d 4cfd 3539
00000050: 0338 d6bd c004 6b3d 0616 b7bc cbf6 82bd
00000060: b696 a4bd 0c3a 31bd 0adc c13c 95b0 973d
00000070: 7bc9 233d 148c 183d 2afa 4e3d 053c 68bd
00000080: 6206 973b 37fa 8cbd 04c7 ce3c 58a9 9b3d
00000090: dbee 17be 83fe 1f3d 72b8 98bc 9174 543d
000000a0: 25ec e53d 590e 16bd 809c 1bbd 53bb 4dbd
000000b0: 4105 463d 85c5 bf3d 884a 81bd fb36 37bc
000000c0: e21b 183d 926a a03d 6c4d 7b3d 9eac 74bd
000000d0: 38ec febd 5758 0ebe 6f85 b93c 86a7 8b3d
000000e0: d5c9 473c 7031 88bd bc57 51bd 0551 4ebd
000000f0: 2e6a 9fbc d3b1 36bd 9056 94bd f258 793c
00000100: ba82 dd3c bde3 853c d690 9ebc acfd aa3d
00000110: 6d12 98bd 9b54 9b3d e673 5fbd da7e 973d
00000120: 6a90 ee3b 676e 133d 77fb 09bd 9916 883d
00000130: 10c2 2cbd 1181 a03d 4f95 c0bd 076e 923d
00000140: bc57 70bd 77ce a73d b214 e93d e40b 563d
00000150: 268e 903c 7763 c33d def9 68bd a633 983c
00000160: 9567 20be 9df3 5a3c 90be 52bc 815c 33bc
00000170: 4ae1 f63c 9947 a7bd 811e 56bd f36a f03c
00000180: 78ab 0d3e 6cdd 013c 44f5 e83c 74bc b6bd
00000190: 0c6a a3bd 41e7 15bd 336b fbbc eddf 803d
000001a0: 0d6f cb3d 8590 9ebd 0165 903d a463 36bd
000001b0: 6951 f83d 2d05 463d c75b 483d 18a9 d5bd
000001c0: 6e9f b6bd 2fa3 0dbe 5ff2 babc e867 c9bb
000001d0: e550 d33c 6d08 b43d 9892 b9bd e59b d43d
000001e0: dffc 87bc 6026 583c 2da4 9fbd 628c b3bd
000001f0: d534 f43d c3ba df3d f9c7 083e 3a5e ba3b
00000200: c804 953d 1a7c 25bd f167 d6bd f7e8 563c
00000210: 2bd7 30be 2ddb a6bb b610 3dbd 5382 9d3c
00000220: f193 f43c 68b3 063e ea9e ffbd 27b3 98bc
00000230: 78d6 103c 9895 b13c cb52 82bc 185d 67bd
00000240: 84b2 7d38 cea2 873d 18f0 e9bd a1e1 6dbc
00000250: e5b6 85bd 175b c13d 55e3 28bd 317f a4bd
00000260: 96fb 093e 33e1 14bd bc2b 873c c055 ef3c
00000270: efc1 74bd 0dad b6bd 35dd 95bd dd81 5e3d
00000280: 0d78 0e3e cc16 91bd 5d2e 263e c617 83bd
00000290: a4e7 32be f3b0 af3d 182b d8bd 2e50 b7bd
000002a0: 3df7 71bd b58c cf3d 0fa8 df3c 1fa3 c73d
000002b0: a38f 1a3e f2fc b3b8 672b 5bbe 1a26 01be
000002c0: 4c07 1dbe db80 b93d 0465 0a3e 2a4e b83d
000002d0: f7da 2e3d 5d4d d5bd 11d1 5a3d 3dff a53c
000002e0: 3111 c13d 7dc1 5ebd 66c6 9bbd 5d07 8e3c
000002f0: c044 513d 1687 8e3d f710 c63d 404e a3bd
00000300: 008c a43d 72d1 4a3d a85e 2cbe 6ac0 dcbc
00000310: 8efe 25bc c465 32bd 2ab8 e83d 1caa d0bc
00000320: da62 3abe ad3f 83bc b0a4 f4bd c24e e4bd
00000330: 472c 8bbd b050 02be 0f44 9b3d d517 213e
00000340: 587d 0c3d bca2 ee3d dde3 d2bd 3ad2 7b3d
00000350: fb54 443d 8318 5bbd 3685 503d f0d4 fb3d
00000360: cfc6 27bc a012 3a3d 78ae 7b3c 83bc 05bd
00000370: 7b27 883d 5342 ee3d acf2 e3bc d94d f03d
00000380: 4e37 11bc 5334 ddbd 6ee6 f93d 5c15 9fbb
00000390: ef75 c23d b978 3f3e 8c87 a3bd c8e4 f1bd
000003a0: f061 c6bc 6a32 1c3c a8b2 50bc 9800 03be
000003b0: c587 4abd 5849 11be e589 e23d 8473 79bd
000003c0: 343d 16bd 2dba 8bbd f8e3 2f3e a90f 293e
000003d0: 8746 903d 5479 e43d e553 48be 48d2 b4bd
000003e0: c395 ffbd 2c6b e83d 3627 e2bd b420 db3d
000003f0: a983 0cbe f1ba 0a3d af9e 9abd 3d0a 8b3c

bias_ih_l0_reverse f4 [256]
0.086855784 -0.01117383 -0.045963764 0.013802684 -0.1153186 0.09968656 -0.051239822 0.022804473
-0.02911653 -0.023213152 0.11043911 0.03294606 0.029779555 -0.06384302 -0.11741062 0.013369887
0.05209712 -0.07585568 0.038675062 -0.038344566 0.13943446 -0.062404297 0.09083385 0.007096679
-0.09771095 0.1294262 0.09989655 -0.010367204 -0.010754707 -0.017656505 0.022426993 -0.008829517
0.08857972 -0.053008657 -0.09563939 -0.08788159 -0.12607189 -0.012004361 0.11120695 -0.006432373
0.090016395 0.004202303 0.022171235 0.08998214 0.067025766 0.037029605 0.021592231 -0.07284946
-0.07553555 -0.14886123 0.045964804 0.0045174104 0.012711549 0.06875097 0.0998578 -0.013713701
-0.07609272 0.030727075 0.039264575 -0.011903151 0.10117525 0.061438043 -0.051707212 -0.037118927
0.16434573 0.036651377 0.123441465 0.00091094756 0.047936223 0.082057096 -0.030406544 -0.030511694
0.07871974 -0.03436629 -0.11534035 0.15283671 0.06866605 0.07039286 0.018374018 0.03273279
0.08962512 -0.043072026 0.17378686 0.017905181 0.04169505 0.12277233 0.097143695 -0.027282126
0.14411023 0.07989993 -0.044812232 -0.0022362303 0.05625144 0.026768642 0.0945912 -0.048651654
-0.036346465 -0.06970874 0.07450758 0.024973487 -0.05719697 0.103364006 0.015160932 0.0012997367
0.026145583 0.10670538 0.12972844 -0.034398437 0.13610604 -0.03504364 0.16109993 0.08617215
0.012157564 0.1483453 0.04764709 0.016429255 0.118545085 0.11219298 0.009655741 -0.013188639
-0.09402682 0.04558789 -0.06281061 -0.08590151 0.10702241 -0.0091031315 0.027011476 0.08873064
-0.12464658 0.008469144 0.093759626 0.054326743 0.016165439 -0.11328509 0.0032302125 0.03600651
0.092053354 -0.05927627 0.09450069 0.027725156 0.07880393 -0.118418336 -0.014413196 -0.08081327
0.047566846 -0.12737569 0.1023063 0.038846567 0.047941387 0.029983409 -0.09060904 0.090080485
0.0029795645 -0.058440562 -0.014636921 -0.011850268 0.036718525 -0.12478312 -0.055530675 -0.086943135
-0.0018294107 -0.06512978 0.08002071 0.036963835 0.08452415 -0.12317669 0.09017575 0.06230094
0.06366244 -0.017858015 0.012243587 -0.06321611 -0.08822005 -0.025523677 -0.071603015 0.07975657
0.054469213 -0.027724108 0.11884018 -0.10248787 0.11629492 0.121921174 -0.002123095 0.059094287
0.026339667 -0.018918041 0.08465093 0.12550704 -0.028193284 -0.0029211498 0.057793234 0.0677606
-0.02728986 -0.047636427 0.06398576 0.06798847 -0.006869344 -0.01562332 -0.11179163 -0.104724705
0.13012627 0.09520745 0.0344919 0.101469405 -0.11431269 0.13830167 0.026339661 0.038491454
-0.053800993 0.14716548 -0.02456938 0.11327989 0.11622319 -0.008171716 0.010961512 -0.04152436
0.058114305 -0.031356417 -0.04585026 0.058040008 0.025454082 0.03932652 -0.056254566 0.0060436805
0.123712756 0.066616185 0.023216022 0.07141298 0.054739445 0.057800353 0.08365033 0.049842466
0.09302688 0.026020052 -0.025835698 0.118762806 -0.042822152 0.030668408 -0.038600214 0.03378389
0.04285311 -0.081090085 0.15192096 0.13733877 0.055594813 -0.0838555 -0.014959199 -0.11053098
0.12841673 -0.037801526 0.05035368 -0.026629366 0.0022289471 0.21060869 -0.03480043 -0.07494281
00000000: 72e1 b13d 7112 37bc 8044 3cbd a724 623c
00000010: 282c ecbd 7828 cc3d d9e0 51bd 72d0 ba3c
00000020: ca85 eebc 8229 bebc e62d e23d 73f2 063d
00000030: 41f4 f33c 21c0 82bd fb74 f0bd 5f0d 5b3c
00000040: ca63 553d 395a 9bbd be69 1e3d 310f 1dbd
00000050: e8c7 0e3e a69b 7fbd 1907 ba3d 428b e83b
00000060: ae1c c8bd 4d88 043e 9096 cc3d 35db 29bc
00000070: 8334 30bc 60a4 90bc d0b8 b73c aea9 10bc
00000080: 4969 b53d 9b1f 59bd 96de c3bd 43fb b3bd
00000090: fd18 01be f0ad 44bc 78c0 e33d a8c6 d2bb
000000a0: 845a b83d 79b3 893b 73a0 b53c 8e48 b83d
000000b0: ce44 893d 5bac 173d 31e2 b03c 1932 95bd
000000c0: 62b2 9abd 146f 18be 9745 3c3d c906 943b
000000d0: 1a44 503c 4fcd 8c3d 3f82 cc3d 6eaf 60bc
000000e0: 80d6 9bbd 59b7 fb3c e4d3 203d 6f05 43bc
000000f0: f834 cf3d 75a6 7b3d f1ca 53bd 040a 18bd
00000100: 3f4a 283e c11f 163d e1ce fc3d a8cc 6e3a
00000110: c658 443d 8d0d a83d 2517 f9bc a9f3 f9bc
00000120: d137 a13d abc3 0cbd 9037 ecbd 3a81 1c3e
00000130: c9a0 8c3d 222a 903d 1c85 963c d112 063d
00000140: 608d b73d 4b6c 30bd 2ff5 313e e3ad 923c
00000150: 6ec8 2a3d 0f70 fb3d 46f3 c63d c47e dfbc
00000160: a291 133e 93a2 a33d 088d 37bd b88d 12bb
00000170: e967 663d e949 db3c 08b9 c13d f546 47bd
00000180: 08e0 14bd 75c3 8ebd 6e97 983d 3395 cc3c
00000190: 5f47 6abd 82b0 d33d 8f65 783c ed5b aa3a
000001a0: 432f d63c 5a88 da3d 88d7 043e 60e5 0cbd
000001b0: 625f 0b3e eb89 0fbd 61f7 243e 067b b03d
000001c0: 8530 473c d5e7 173e 9829 433d a596 863c
000001d0: c4c7 f23d 6fc5 e53d 1d33 1e3c 2915 58bc
000001e0: 2291 c0bd 5eba 3a3d d9a2 80bd 22ed afbd
000001f0: 912e db3d 4d25 15bc 2c47 dd3c 69b8 b53d
00000200: b546 ffbd 2ac2 0a3c 0c05 c03d b885 5e3d
00000210: 626d 843c 0302 e8bd f9b1 533b 907b 133d
00000220: 7886 bc3d adcb 72bd 9489 c13d de1f e33c
00000230: f463 a13d 5085 f2bd 5325 6cbc 6d81 a5bd
00000240: 74d5 423d c66e 02be f785 d13d 941d 1f3d
00000250: 305e 443d c49f f53c 3b91 b9bd 1e7c b83d
00000260: cc44 433b 5f5f 6fbd b2cf 6fbc a027 42bc
00000270: 2a66 163d 4b8e ffbd 2274 63bd 3e0f b2bd
00000280: d6c8 efba c362 85bd e6e1 a33d 6467 173d
00000290: ff1a ad3d 0f44 fcbd 10ae b83d 452f 7f3d
000002a0: 7461 823d f94a 92bc 5399 483c 7377 81bd
000002b0: b7ac b4bd 0817 d1bc 9aa4 92bd 6a57 a33d
000002c0: 1c1b 5f3d ab1d e3bc 7b62 f33d 29e5 d1bd
000002d0: 082c ee3d cfb1 f93d a023 0bbb da0c 723d
000002e0: 49c6 d73c 02fa 9abc 775d ad3d eb84 003e
000002f0: 9af5 e6bc c370 3fbb 99b8 6c3d 12c6 8a3d
00000300: fc8e dfbc 6a1e 43bd f70a 833d 8a3d 8b3d
00000310: 3c18 e1bb f4f8 7fbc 03f3 e4bd e879 d6bd
00000320: d23f 053e 20fc c23d 6147 0d3d 31cf cf3d
00000330: c61c eabd f49e 0d3e 46c6 d73c 37a9 1d3d
00000340: 6e5e 5cbd 8cb2 163e b945 c9bc 49ff e73d
00000350: 6d06 ee3d a9e2 05bc ea97 333c 7315 2abd
00000360: 4409 6e3d 966f 00bd 7bcd 3bbd 5cbb 6d3d
00000370: 1485 d03c d814 213d 306b 66bd 110a c63b
00000380: 1d5d fd3d 116e 883d 872f be3c f840 923d
00000390: 7836 603d 10c0 6c3d dd50 ab3d 9d27 4c3d
000003a0: e084 be3d 0128 d53c 63a5 d3bc ea39 f33d
000003b0: 4866 2fbd 503c fb3c 421b 1ebd fa60 0a3d
000003c0: be86 2f3d 8f12 a6bd 2b91 1b3e 89a2 0c3e
000003d0: 63b7 633d 6fbc abbd 6e17 75bc 115e e2bd
000003e0: ad7f 033e c6d5 1abd a93f 4e3d d425 dabc
000003f0: 8713 123b cea9 573e e58a 0ebd 9e7b 99bd
